model/semi_x4_224_320.onnx (onnx, 437112 bytes, 12 tensors)

stem.conv.weight f4 [49, 3, 3, 3]
0.040389054 -0.18718895 -0.03796554 -0.13803686 -0.0065261004 -0.03550438 -0.05008457 -0.13129804
0.13679573 0.10580286 0.063282974 0.023509843 -0.06494667 0.049462114 0.18469764 0.13070464
-0.07891947 0.08577087 -0.11406427 -0.117254846 -0.14268674 0.13145033 -0.013891365 0.20416208
0.029474089 -0.124785386 0.19890997 0.03996097 -0.03564445 -0.08998547 0.12217624 0.09128123
-0.111912996 0.15927732 0.0507368 0.058412284 0.032228637 -0.16578814 0.12265948 -0.07250106
-0.041527253 -0.1029801 -0.043109585 0.14716853 0.1911159 -0.0681655 0.16923705 -0.06262135
0.0046875435 -0.08622479 0.0076732356 -0.19598015 -0.012918994 -0.19081004 0.06999186 0.06217263
0.09262391 0.061466713 0.08441013 0.059542593 -0.13902947 0.014291327 0.18187557 -0.045458604
0.15876345 -0.0033560293 0.115744375 0.022038748 -0.119225785 -0.03743768 -0.040398475 0.13033411
-0.15663499 0.10398177 -0.14972252 0.007420872 -0.1758968 -0.14082909 -0.12043931 0.05324371
0.14663652 -0.17734805 0.14230579 -0.08699252 0.06549879 -0.0008815187 -0.057306763 0.12310351
0.10821366 -0.21153906 0.07792937 0.15114293 0.14906986 -0.094862595 0.14485072 0.12552783
-0.021518486 0.1318639 -0.03960657 0.14101759 -0.109012745 0.012140147 -0.10080398 0.044694155
-0.15107684 -0.17584588 -0.030772913 -0.13838229 0.10830029 0.07632359 -0.08013622 0.20040962
0.14269558 0.087975435 -0.12532392 -0.036228925 0.12960401 0.1011731 0.081543416 -0.05991096
-0.12757833 -0.06373401 -0.03149757 0.19419537 0.031697106 -0.121476345 -0.14985143 -0.04640561
0.16211228 -0.14671986 -0.06819683 0.016255917 -0.11207894 -0.02672609 -0.11709339 0.013951398
-0.021144513 0.02584523 -0.032232106 0.118027 -0.052627034 -0.04721391 -0.07812898 -0.05939474
0.13754284 0.16016316 0.08922659 -0.09977797 0.062752426 0.056696896 0.043863107 0.02488939
-0.07322359 -0.17253233 -0.07105561 0.05552649 0.011318115 -0.20985745 -0.12958057 0.12514819
0.05802474 0.047192305 -0.109591395 0.019592209 -0.118169665 0.121686526 -0.11241255 0.12712297
-0.059238356 0.15020637 0.044188496 -0.03068465 -0.17085434 0.109309025 0.13515048 -0.082447805
-0.04856013 -0.139296 0.122229695 0.018575383 0.13504538 -0.15164185 0.05570956 0.10083494
-0.0011744478 0.16256192 0.0987277 0.063288584 0.15747707 0.10467176 -0.10088519 0.07487917
-0.1109406 -0.20351186 0.0055105267 0.117977545 -0.0041556773 -0.0621399 0.1534836 -0.011140232
-0.03302236 0.14583117 -0.055555448 0.107381776 0.17680874 0.08524162 -0.12159558 0.0860507
-0.012545699 -0.16035746 0.06301035 -0.08891343 -0.001619909 -0.13170835 -0.018939434 0.03538501
0.04471414 0.011463188 0.16272709 -0.16126923 0.07119151 0.056597725 -0.010368737 0.16566496
0.031073263 0.08504685 0.02637923 -0.041509774 -0.04021702 0.030162113 -0.021866506 0.019493947
0.15073407 0.018928718 -0.13667601 -0.04481247 0.11115244 0.06374367 -0.19599086 -0.016530354
0.04314657 -0.21670279 -0.08813646 -0.0066784862 0.080835074 -0.096794106 -0.15116614 0.084945954
-0.1377331 0.1905585 -0.050465006 0.072969444 -0.061632864 0.012288114 0.044782143 0.11603438
00000000: fe6e 253d 76ae 3fbe c181 1bbd 8959 0dbe
00000010: e6d8 d5bb 0a6d 11bd 7a25 4dbd fe72 06be
00000020: 2e14 0c3e 2baf d83d 819a 813d b797 c03c
00000030: c202 85bd c998 4a3d 6121 3d3e 70d7 053e
00000040: 88a0 a1bd a3a8 af3d 879a e9bd 4f23 f0bd
00000050: 791c 12be ea9a 063e 9c98 63bc dd0f 513e
00000060: a573 f13c 7b8f ffbd 0eaf 4b3e 1dae 233d
00000070: eaff 11bd 4d4a b8bd 8937 fa3d a7f1 ba3d
00000080: a432 e5bd 9819 233e 64d1 4f3d b841 6f3d
00000090: 2d02 043d 5ec4 29be e534 fb3d 707b 94bd
000000a0: 7b18 2abd 3be7 d2bd ad93 30bd 59b3 163e
000000b0: e3b3 433e 5b9a 8bbd 7a4c 2d3e 9f3f 80bd
000000c0: f799 993b 9f96 b0bd c46f fb3b 05af 48be
000000d0: 30aa 53bc b563 43be e457 8f3d baa8 7e3d
000000e0: 9bb1 bd3d 85c4 7b3d 38df ac3d efe2 733d
000000f0: be5d 0ebe 2c26 6a3c 973d 3a3e cd32 3abd
00000100: e392 223e d4f0 5bbb 630b ed3d 9b8a b43c
00000110: a62c f4bd 4158 19bd df78 25bd 4e76 053e
00000120: ec64 20be 65f4 d43d dc50 19be c92a f33b
00000130: 4a1e 34be 8035 10be e3a8 f6bd 1416 5a3d
00000140: e227 163e ba9a 35be 9cb8 113e 2229 b2bd
00000150: 3b24 863d b815 67ba 7fba 6abd b11d fc3d
00000160: 209f dd3d b29d 58be 6f99 9f3d 36c5 1a3e
00000170: c5a5 183e 5247 c2bd bf53 143e 5e8a 003e
00000180: 8947 b0bc 5507 073e 803a 22bd ea66 103e
00000190: 1342 dfbd 78e7 463c 5172 cebd 3811 373d
000001a0: e3b3 1abe f110 34be 7a17 fcbc 16b4 0dbe
000001b0: 8bcc dd3d 8b4f 9c3d 751e a4bd 2e38 4d3e
000001c0: ca1e 123e 772c b43d ea54 00be c864 14bd
000001d0: eab6 043e d833 cf3d 3c00 a73d 3265 75bd
000001e0: e5a3 02be fa86 82bd 9903 01bd 27db 463e
000001f0: d3d4 013d 97c8 f8bd a772 19be cf13 3ebd
00000200: c300 263e bb3d 16be c8aa 8bbd 212b 853c
00000210: a589 e5bd acf0 dabc a9ce efbd 6894 643c
00000220: 4237 adbc 60b9 d33c d005 04bd 24b8 f13d
00000230: 728f 57bd 5f63 41bd 1602 a0bd e647 73bd
00000240: 08d8 0c3e d001 243e 6ebc b63d 6458 ccbd
00000250: 5884 803d 013b 683d cda9 333d d6e4 cb3c
00000260: 40f6 95bd 51ac 30be 9b85 91bd bf6f 633d
00000270: 9d6f 393c dfe4 56be c5b0 04be d926 003e
00000280: 5aab 6d3d b84c 413d 7471 e0bd d77f a03c
00000290: f002 f2bd c936 f93d 8d38 e6bd 862c 023e
000002a0: eba3 72bd b3cf 193e fffe 343d 605e fbbc
000002b0: 71f4 2ebe 69dd df3d e364 0a3e 65da a8bd
000002c0: fde6 46bd 9ca3 0ebe 9053 fa3d 672b 983c
000002d0: 5649 0a3e 0048 1bbe b52f 643d 8d82 ce3d
000002e0: eeef 99ba a276 263e c031 ca3d 729d 813d
000002f0: ab41 213e 265e d63d e59c cebd 405a 993d
00000300: d334 e3bd 6a65 50be a691 b43b 369e f13d
00000310: 592c 88bb 6886 7ebd ce2a 1d3e 8585 36bc
00000320: 7442 07bd c454 153e 1c8e 63bd faea db3d
00000330: 5a0d 353e 2993 ae3d 1a07 f9bd 593b b03d
00000340: 7a8c 4dbc bf34 24be 920b 813d 3f18 b6bd
00000350: 2053 d4ba 8ede 06be df26 9bbc dfef 103d
00000360: 2d26 373d 18d0 3b3c eea1 263e c323 25be
00000370: dbcc 913d 04d3 673d a3e1 29bc 13a4 293e
00000380: 5b8d fe3c 0b2d ae3d 4119 d83c 2706 2abd
00000390: 9aba 24bd 8916 f73c 6321 b3bc c5b1 9f3c
000003a0: 085a 1a3e 6610 9b3c ccf4 0bbe 488d 37bd
000003b0: e4a3 e33d 0b8c 823d d4b1 48be aa6a 87bc
000003c0: 75ba 303d 56e7 5dbe e380 b4bd 34d7 dabb
000003d0: dc8c a53d fd3b c6bd 4ccb 1abe 25f8 ad3d
000003e0: e809 0dbe c421 433e 65b4 4ebd 0171 953d
000003f0: be72 7cbd 1654 493c 7b6d 373d 6fa3 ed3d

stem.conv.bias f4 [49]
-0.12819411 0.060642675 -0.02757488 0.12020884 -0.0030326496 0.08287256 0.0028229896 0.029465958
0.09583197 0.027535364 0.022502761 0.09277807 -0.08797342 -0.002328236 -0.029102473 -0.15293118
-0.0063968734 0.10887926 0.12899943 -0.17254558 0.062557474 -0.1430638 -0.07197453 0.01577062
0.010561304 -0.04794822 0.050360072 -0.078216344 -0.018596796 0.05381167 0.017523374 -0.0019985423
0.08422886 0.059752684 0.100964285 0.12975667 -0.07187461 -0.061558105 0.17862621 -0.09636726
0.12885278 -0.09799578 -0.038845576 -0.17537288 0.11928205 0.024644496 -0.0017059282 -0.17884474
0.02721215
00000000: 5145 03be 7464 783d b7e4 e1bc 0d30 f63d
00000010: 6bbf 46bb 17b9 a93d e801 393b 9862 f13c
00000020: 8d43 c43d d891 e13c b657 b83c 6e02 be3d
00000030: 692b b4bd 5195 18bb 4f68 eebc fe99 1cbe
00000040: dd9c d1bb 17fc de3d 6d18 043e caaf 30be
00000050: 221e 803d 517f 12be 6267 93bd 6331 813c
00000060: 5209 2d3c 5a65 44bd 5d46 4e3d e42f a0bd
00000070: 4f58 98bc a069 5c3d 2e8d 8f3c faf9 02bb
00000080: 2e80 ac3d 3bbf 743d 5dc6 ce3d efde 043e
00000090: ff32 93bd 5a24 7cbd cae9 363e 335c c5bd
000000a0: fcf1 033e 03b2 c8bd 8a1c 1fbd f394 33be
000000b0: 264a f43d 41e3 c93c 7499 dfba 1323 37be
000000c0: 04ec de3c

body.0.conv.weight f4 [49, 49, 3, 3]
-0.06481324 -0.05302323 -0.052383844 -0.06233685 -0.0312922 -0.040413607 -0.03411337 0.0064645032
-0.057297185 0.021996614 -0.013970723 0.036529455 0.031944796 0.010725938 0.019399213 0.00023276971
0.0098568555 0.020439897 0.04007003 0.029188128 0.008616029 -0.025874764 0.047168445 -0.006102239
0.0072711622 0.0032311445 -0.0125704035 -0.0090545695 -0.010322151 0.042359024 0.035032 -0.0113269165
0.030088931 0.02639904 0.037117243 0.021640494 0.034098476 -0.009114346 0.06340386 -0.011677124
0.015010472 0.042502135 0.0038080532 0.045348134 0.01300887 0.009250445 0.0063554547 -0.033903137
-0.046540633 -0.009349237 -0.015409254 -4.126187e-05 -0.0149903055 0.01265002 -0.045674838 -0.06709414
-0.043312997 0.0048171277 -0.0044038766 -0.028958593 -0.042593308 -0.005013626 0.035472885 0.048066616
0.03360161 -0.042730525 0.0009921917 0.045529325 -0.067804165 0.04642878 -0.039172295 0.024033144
0.028918855 -0.0121886255 0.032819312 -0.0111453915 0.045988966 0.0032490443 0.038274392 -0.014855111
-0.019109812 -0.037162315 -0.028221795 0.025620336 -0.02131583 -0.04817704 -0.030154534 0.030089691
0.020238997 0.042194717 0.09324952 -0.003326841 0.12024236 0.054717112 0.032581206 0.016445333
-0.04008099 -0.028362643 0.021871815 -0.023725292 0.0460432 -0.03593702 0.032883342 0.005452353
-0.033934128 -0.04879984 0.0339841 0.020136178 0.08811451 0.014600914 0.06966482 0.034947053
0.023337714 -0.03114804 0.054707073 0.04802574 -0.0135311 0.029203543 -0.012147639 -0.031510983
-0.042194538 -0.04069767 0.019289339 0.007328336 0.0023594159 -0.033589493 0.017263807 -0.029951604
-0.0440866 -0.0719409 -0.10645524 -0.015573795 -0.090622775 0.008111705 -0.030055545 0.0063168933
0.0125245815 -0.06161774 0.023710452 -0.056796286 -0.000832598 -0.020118745 -0.04162705 -0.010483211
-0.020107018 -0.021477811 0.0027399317 -0.007000989 -0.0021041355 0.01073253 -0.029454876 -0.06914081
-0.035767507 0.06040489 -0.018759629 0.013942653 -0.018261578 0.037380543 0.0063609085 0.018154025
0.036745597 -0.054937616 0.057830635 0.01432573 -0.031226752 -0.020350823 -0.030438514 0.009402869
0.008866545 0.009116569 -0.0073024705 -0.018915802 -0.013696517 0.018110426 -0.04099018 0.025611626
0.024122119 -0.053372044 0.034370642 -0.025711305 0.018659513 0.05466269 -0.021942992 0.063780144
0.05414308 -0.019547714 0.032083035 0.030109813 0.019981505 0.00540734 -0.024668852 -0.06526497
-0.04523938 0.0037705472 -0.026876412 -0.032688707 -0.0055921613 -0.04244329 0.121378034 -0.044514667
-0.037837114 0.0067608897 0.016108561 -0.04008096 0.027494717 0.033265725 0.0136441225 -0.06513356
-0.014240129 0.014427668 -0.05906051 0.019128166 0.01015448 -0.04420384 0.004770037 -0.007179505
-0.01602846 -0.01051821 0.007848288 -0.098011985 0.025537848 0.048362944 -0.015134827 -0.012290973
0.040392037 0.053303827 -0.0077799005 -0.041140042 0.036440257 0.039937645 -0.019138569 -0.012904733
0.030751789 -0.056168336 -0.022710428 -0.027027713 0.030816311 0.014880121 0.009034396 -0.006058375
-0.008432275 0.03927055 0.0258482 0.037843786 -0.00055579067 -0.010556708 -0.0100654885 -0.013012193
-0.05006625 -0.024776792 0.03543565 -0.016458241 0.024137868 -0.031790603 -0.0040423325 -0.002325981
00000000: cebc 84bd e32e 59bd 7190 56bd ed54 7fbd
00000010: 402c 00bd bd88 25bd 76ba 0bbd 2fd4 d33b
00000020: 74b0 6abd 3e32 b43c 76e5 64bc e99f 153d
00000030: 8cd8 023d d8bb 2f3c 19eb 9e3c a513 7439
00000040: a67e 213c 9271 a73c 7920 243d f11b ef3c
00000050: 3f2a 0d3c 50f7 d3bc b333 413d 4af5 c7bb
00000060: ee42 ee3b 9cc1 533b 18f4 4dbc 9e59 14bc
00000070: 3d1e 29bc a880 2d3d b77d 0f3d 8894 39bc
00000080: 107d f63c cd42 d83c 4008 183d 6847 b13c
00000090: d8aa 0b3d 5654 15bc e2d9 813d 6851 3fbc
000000a0: 7cee 753c b816 2e3d 8890 793b f7be 393d
000000b0: 2823 553c 2e8f 173c 6b41 d03b 04de 0abd
000000c0: 64a1 3ebd 8b2d 19bc 1877 7cbc 9810 2db8
000000d0: e699 75bc 0842 4f3c 8a15 3bbd a768 89bd
000000e0: f868 31bd ffd8 9d3b 654e 90bb 923a edbc
000000f0: 5276 2ebd 5849 a4bb 044c 113d 80e1 443d
00000100: d8a1 093d 3406 2fbd 6e0c 823a f57c 3a3d
00000110: e9dc 8abd 1b2c 3e3d 2173 20bd 28e1 c43c
00000120: 3ce7 ec3c cdb2 47bc 8b6d 063d 299b 36bc
00000130: ed5e 3c3d ebed 543b 9cc5 1c3d da62 73bc
00000140: 2e8c 9cbc 8337 18bd 6531 e7bc bde1 d13c
00000150: 899e aebc 4a55 45bd a406 f7bc a87e f63c
00000160: 41cc a53c 5ed4 2c3d 9bf9 be3d 2107 5abb
00000170: a041 f63d 0d1f 603d df73 053d 5db8 863c
00000180: f72b 24bd c658 e8bc 852c b33c 8b5b c2bc
00000190: cb97 3c3d b232 13bd afb0 063d a7a9 b23b
000001a0: 83fe 0abd 57e2 47bd e932 0b3d a0f4 a43c
000001b0: 6175 b43d ac38 6f3c 6eac 8e3d a424 0f3d
000001c0: bc2e bf3c 2d2a ffbc 8614 603d a3b6 443d
000001d0: 8cb1 5dbc 453c ef3c e406 47bc a911 01bd
000001e0: 2ed4 2cbd 9ab2 26bd ad04 9e3c 8a22 f03b
000001f0: 6ea0 1a3b 2395 09bd d46c 8d3c 115d f5bc
00000200: 2794 34bd c055 93bd 3405 dabd 3b29 7fbc
00000210: 6f98 b9bd f5e6 043c 0c37 f6bc f1fd ce3b
00000220: e733 4d3c e262 7cbd 6c3c c23c 39a3 68bd
00000230: b542 5aba 11d0 a4bc 2081 2abd c6c1 2bbc
00000240: 79b7 a4bc 3cf2 afbc 6d90 333b 8d68 e5bb
00000250: 89e5 09bb 7ed7 2f3c 5a4b f1bc b299 8dbd
00000260: f380 12bd 1e6b 773d cbad 99bc ba6f 643c
00000270: 4e99 95bc 571c 193d 2b6f d03b c0b7 943c
00000280: 8d82 163d 4406 61bd d1df 6c3d 77b6 6a3c
00000290: 3fcf ffbc c5b6 a6bc 315a f9bc 7e0e 1a3c
000002a0: fc44 113c a95d 153c 9049 efbb 50f5 9abc
000002b0: 5b67 60bc 515c 943c 52e5 27bd 79cf d13c
000002c0: c09b c53c a59c 5abd 3bc8 0c3d 84a0 d2bc
000002d0: d6db 983c fce5 5f3d cac1 b3bc 2a9f 823d
000002e0: 22c5 5d3d 8722 a0bc 8069 033d dba8 f63c
000002f0: 41b0 a33c 0e30 b13b 5516 cabc a4a9 85bd
00000300: ee4c 39bd 491b 773b ec2b dcbc 98e4 05bd
00000310: 733e b7bb 04d9 2dbd 0c95 f83d 0355 36bd
00000320: 17fb 1abd 748a dd3b 1af6 833c ef2b 24bd
00000330: 9a3c e13c a441 083d 998b 5f3c be64 85bd
00000340: 6e4f 69bc 0762 6c3c 6fe9 71bd acb2 9c3c
00000350: fa5e 263c 160f 35bd f84d 9c3b 0e42 ebbb
00000360: 1e4e 83bc 9254 2cbc 1b96 003c 82ba c8bd
00000370: c034 d13c 3918 463d 11f8 77bc 1460 49bc
00000380: 1f72 253d 1d55 5a3d 89ee febb 7682 28bd
00000390: 6142 153d a895 233d 7dc8 9cbc 606e 53bc
000003a0: 2deb fb3c c510 66bd 380b babc 3969 ddbc
000003b0: 7d72 fc3c c0cb 733c 0105 143c 5585 c6bb
000003c0: 8627 0abc 28da 203d 9bbf d33c 1602 1b3d
000003d0: 7bb2 11ba 0bf6 2cbc b8e9 24bc 1831 55bc
000003e0: 4512 4dbd b3f8 cabc f924 113d 6fd3 86bc
000003f0: c7bc c53c dd36 02bd 8b75 84bb 7c6f 18bb

body.0.conv.bias f4 [49]
0.018684981 -0.029808223 0.0036268448 -0.053121682 -0.032536 0.009019847 -0.02822441 -0.02856665
0.029898861 -0.00870824 0.023222832 -0.0048748683 0.012044395 0.027128235 0.010904057 0.007871567
-0.0537399 -0.034451008 -0.046947315 0.0026658608 0.013635967 -0.014403405 0.005880561 -0.056975428
-0.018527571 -0.011348444 -0.031018637 0.011007614 0.042364106 -0.024846062 -0.038878735 0.0011919833
-0.03637218 0.027588641 0.020225685 -0.048695747 0.03141723 -0.05970955 0.035144087 -0.02813764
-0.017345265 -0.00067397306 -0.042810317 -0.015428395 0.00056831277 -0.008173343 0.011169245 0.019243143
-0.030928215
00000000: 3f11 993c 6030 f4bc 5cb0 6d3b 1f96 59bd
00000010: 7844 05bd fbc7 133c e136 e7bc 9b04 eabc
00000020: 75ee f43c 02ad 0ebc cf3d be3c 5cbd 9fbb
00000030: db55 453c 083c de3c eea6 323c bff7 003c
00000040: 5f1e 5cbd 801c 0dbd d44b 40bd b9b5 2e3b
00000050: 6469 5f3c 42fc 6bbc b9b1 c03b 115f 69bd
00000060: 22c7 97bc d3ee 39bc cc1a febc 4859 343c
00000070: fc85 2d3d f889 cbbc 4f3f 1fbd 533c 9c3a
00000080: fffa 14bd 9301 e23c 56b0 a53c 3175 47bd
00000090: 5aaf 003d 0092 74bd 3ff3 0f3d e880 e6bc
000000a0: a817 8ebc 91ad 30ba df59 2fbd 61c7 7cbc
000000b0: d3fa 143a 7ce9 05bc 35ff 363c cca3 9d3c
000000c0: 2b5d fdbc

body.1.conv.weight f4 [49, 49, 3, 3]
-0.04491524 -0.0065943315 0.018618148 0.050670452 0.05496181 -0.035361905 0.02313428 0.02506907
0.016784491 -0.006902356 -0.09606978 -0.040007968 0.059364755 0.03117586 -0.020584313 -0.0026844738
0.011797654 -0.07917987 0.0033214178 0.027648844 -0.03372854 0.0046683033 0.0403569 -0.0005295218
-0.015329049 -0.0004239587 0.034981042 0.030786093 0.016889725 0.060523026 0.020893889 0.038994677
0.070487626 -0.020271132 0.010118881 0.05881369 0.047612686 0.0013086114 -0.0070756935 0.049236976
0.06857669 -0.01660164 -0.03062683 0.059602566 -0.007316266 -0.021474702 -0.05107701 0.0035192755
-0.053365972 -0.009850642 -0.043271676 -0.051583055 -0.05162979 0.0260597 0.0040264158 0.031723067
-0.020761168 -0.01019154 0.035129845 0.024482075 -0.018538812 -0.00035878553 -0.021225022 0.025375254
-0.0005286475 0.020322535 -0.030101886 0.05085168 -0.05701217 0.03153974 0.017402295 -0.0588176
0.03734936 0.011306535 0.028247217 0.002857834 -0.0064130574 -0.025855687 0.054489467 0.009930353
-0.002698316 -0.013666431 0.058100574 0.007265249 0.07334756 0.0733532 0.08493284 0.03987262
-0.020451484 -0.025510503 -0.025894167 0.05706032 0.008361288 0.017033292 0.008136008 0.017785944
0.019831903 0.058958713 -0.023672318 -0.100374915 0.01033065 -0.0028486478 -0.007997813 0.02062638
-0.07370243 -0.057961322 0.04478977 -0.00013051202 0.001862616 -0.0017314677 -0.009047322 0.038274813
0.031186411 0.010316898 -0.011558079 -0.00914176 0.0033197536 0.02869084 -0.01691697 0.018273998
0.011269917 0.020134497 0.03988788 0.007011086 -0.01660822 -0.034336936 -0.021129958 -0.00031067067
-0.035505086 0.037640665 -0.00361859 0.012803399 -0.04461093 -0.045079917 -0.0031926564 -0.0011835435
-0.0076567954 -0.012382427 -0.004665724 -0.022430325 -0.031719904 -0.057509065 -0.04579366 -0.04065096
-0.0017436637 0.02173427 0.0336646 -0.035714533 -0.024879932 0.03833357 -0.0436912 -0.035597473
-0.00043631735 -0.024111575 -0.023701971 0.04388975 -0.042685702 0.053146917 -0.014298745 0.020670686
-0.0091946265 0.030939976 -0.0019698173 -0.012869151 0.027510779 -0.04070957 0.011018826 0.024495587
-0.021014571 -0.0034091212 0.00074492604 0.0037363297 0.027207963 -0.005359691 0.0023791601 0.00094242516
0.019990528 -0.028360493 -0.017540095 0.04681655 0.058427095 0.024413165 0.051611368 0.016185809
-0.017941156 0.043959554 0.05796597 0.03827001 0.01938146 -0.0053803967 0.011839016 -0.03791771
-0.0064024874 -0.018248037 -0.0044065104 -0.030367445 -0.0046864245 -0.053305767 -0.0069869896 -0.031970993
-0.011045812 0.014534192 0.021435412 -0.052809842 -0.0051052943 0.030298973 0.017678784 -0.035640236
0.024565896 0.015498543 -0.044915102 -0.016791655 -0.023847768 0.041848723 0.042466678 0.018065194
0.00957277 0.03964164 0.0043056053 -0.018219925 -0.007552321 0.01854242 0.01685993 0.052506212
-0.026496612 -0.044243664 -0.036962014 -0.06584146 -0.03352069 0.06128156 0.049464647 -0.02346246
0.04263109 -0.024403987 -0.008685313 0.004560387 -0.012476745 0.0034939484 -0.04776544 0.03714949
0.018063733 0.038540907 -0.01913053 -0.050429083 0.026315209 0.023030886 -0.039895564 0.043247774
0.031505313 -0.014154279 0.0020740393 0.030600458 -0.056452803 -0.04383534 -0.047677137 -0.119592965
00000000: 0bf9 37bd 4315 d8bb 1685 983c d28b 4f3d
00000010: a31f 613d a5d7 10bd 1a84 bd3c a65d cd3c
00000020: a17f 893c 292d e2bb 3cc0 c4bd 65df 23bd
00000030: 7528 733d 8464 ff3c 6fa0 a8bc ffed 2fbb
00000040: f34a 413c 0e29 a2bd 25ac 593b d47f e23c
00000050: f026 0abd 91f8 983b 474d 253d 9bcf 0aba
00000060: b126 7bbc c646 deb9 4848 0f3d 1e33 fc3c
00000070: 525c 8a3c fee6 773d a929 ab3c e2b8 1f3d
00000080: d15b 903d a50f a6bc aac9 253c a0e6 703d
00000090: 8505 433d b685 ab3a 38db e7bb b6ac 493d
000000a0: f071 8c3d 2a00 88bc 1ee5 fabc d221 743d
000000b0: 4abd efbb b7eb afbc 2036 51bd a5a3 663b
000000c0: 4796 5abd 9664 21bc a43d 31bd c148 53bd
000000d0: c279 53bd 277b d53c 06f0 833b 0cf0 013d
000000e0: 5313 aabc 6bfa 26bc 50e4 0f3d a28e c83c
000000f0: b5de 97bc 611b bcb9 19e0 adbc c4df cf3c
00000100: ef94 0aba 727b a63c 3b98 f6bc da49 503d
00000110: 9885 69bd d02f 013d 428f 8e3c b9ea 70bd
00000120: a4fb 183d 0c3f 393c b566 e73c 804a 3b3b
00000130: a024 d2bb 4ecf d3bc 5930 5f3d ebb2 223c
00000140: 3bd6 30bb 2be9 5fbc defa 6d3d 5311 ee3b
00000150: 3f37 963d 343a 963d 45f1 ad3d 7951 233d
00000160: df89 a7bc 67fb d0bc 0120 d4bc 15b8 693d
00000170: c9fd 083c 6789 8b3c e44c 053c d4b3 913c
00000180: 8476 a23c b17e 713d 73ec c1bc 5d91 cdbd
00000190: e341 293c 61b0 3abb 4209 03bc a7f8 a83c
000001a0: 4df1 96bd da68 6dbd 7a75 373d 0eda 08b9
000001b0: 0623 f43a 6af2 e2ba 383b 14bc 0dc6 1c3d
000001c0: a57a ff3c 3508 293c 195e 3dbc 52c7 15bc
000001d0: 3990 593b 0d09 eb3c 7595 8abc 5ab3 953c
000001e0: 75a5 383c 1af1 a43c 7961 233d 41bd e53b
000001f0: f60d 88bc e3a4 0cbd bc18 adbc 83e1 a2b9
00000200: c86d 11bd 192d 1a3d de25 6dbb 59c5 513c
00000210: f3b9 36bd b8a5 38bd e33b 51bb 2121 9bba
00000220: dbe5 fabb aadf 4abc eee2 98bb cdbf b7bc
00000230: bbec 01bd a08e 6bbd 2292 3bbd 9f81 26bd
00000240: a58b e4ba 110c b23c e4e3 093d 6749 12bd
00000250: 00d1 cbbc a903 1d3d 8bf5 32bd a8ce 11bd
00000260: 86c1 e4b9 a385 c5bc a32a c2bc bdc5 333d
00000270: 34d7 2ebd 95b0 593d 4945 6abc 9255 a93c
00000280: 0fa5 16bc d575 fd3c 0d18 01bb 22d9 52bc
00000290: 495e e13c 14bf 26bd 4e88 343c f8aa c83c
000002a0: c026 acbc 906b 5fbb 2447 433a 36dd 743b
000002b0: 3ce3 de3c 59a0 afbb afeb 1b3b 150d 773a
000002c0: 2dc3 a33c 4454 e8bc 3fb0 8fbc b6c2 3f3d
000002d0: 4051 6f3d 1efe c73c 7166 533d 1a98 843c
000002e0: 55f9 92bc ef0e 343d ba6d 6d3d 04c1 1c3d
000002f0: dec5 9e3c 0a4e b0bb 6ff8 413c 9a4f 1bbd
00000300: f5cb d1bb e87c 95bc 7d64 90bb 26c5 f8bc
00000310: 9490 99bb 2657 5abd 1ef3 e4bb 04f4 02bd
00000320: 7ef9 34bc d220 6e3c 5199 af3c 224f 58bd
00000330: 504a a7bb 8d35 f83c 19d3 903c 7ffb 11bd
00000340: 6b3e c93c 9aed 7d3c e6f8 37bd a78e 89bc
00000350: 655c c3bc 9169 2b3d 8af1 2d3d 75fd 933c
00000360: 1cd7 1c3c 465f 223d 0916 8d3b f441 95bc
00000370: 7679 f7bb 46e6 973c d61d 8a3c c110 573d
00000380: 6c0f d9bc d838 35bd 7b65 17bd e3d7 86bd
00000390: fe4c 09bd 6002 7b3d 719b 4a3d 5834 c0bc
000003a0: f09d 2e3d dfea c7bc d84c 0ebc 4d6f 953b
000003b0: 436b 4cbc bafa 643b b2a5 43bd 102a 183d
000003c0: 65fa 933c 12dd 1d3d a1b7 9cbc ba8e 4ebd
000003d0: fe92 d73c 45ab bc3c 8869 23bd 9424 313d
000003e0: b70b 013d 59e7 67bc 9bec 073b d0ad fa3c
000003f0: 0e3b 67bd af8c 33bd 1a49 43bd 28ed f4bd

body.1.conv.bias f4 [49]
0.021827895 -0.01175305 0.014321175 -0.020366488 -0.0030242107 -0.03653066 -0.03305006 -0.034146436
-0.0359972 0.009552591 0.046253163 0.0064737145 -0.046822634 0.012608672 -0.002733725 -0.01993732
0.027264291 -0.031236747 -0.018671628 -0.006135572 -0.024901157 -0.008812417 0.050213907 -0.01677066
-0.0015738133 0.025976093 -0.04033061 -0.013889209 -0.009496366 0.016274605 -0.03230155 0.031915642
-0.076507404 0.017402733 0.021856166 0.019366272 0.028142458 -0.043996595 0.009467084 0.017380586
-0.014628526 -0.013310785 -0.00037935085 -0.047199883 -0.04166951 -0.003563592 0.0040935315 -0.037104968
-0.010622133
00000000: 6ad0 b23c dd8f 40bc 5da3 6a3c 9fd7 a6bc
00000010: d631 46bb 2ca1 15bd 805f 07bd 22dd 0bbd
00000020: cd71 13bd 7882 1c3c f573 3d3d 7421 d43b
00000030: 17c9 3fbd 9a94 4e3c 4b28 33bb 9753 a3bc
00000040: 5d59 df3c 35e4 ffbc 3ef5 98bc e90c c9bb
00000050: 83fd cbbc f561 10bc 19ad 4d3d a062 89bc
00000060: 6948 ceba d1cb d43c b631 25bd 918f 63bc
00000070: a596 1bbc 5252 853c a14e 04bd fab9 023d
00000080: eaaf 9cbd 2d90 8e3c b40b b33c 04a6 9e3c
00000090: 038b e63c c635 34bd d41b 1b3c bb61 8e3c
000000a0: 7cac 6fbc 7b15 5abc 9ce3 c6b9 aa54 41bd
000000b0: a6ad 2abd 278b 69bb 0823 863b 61fb 17bd
000000c0: 7408 2ebc

body.2.conv.weight f4 [49, 49, 3, 3]
-0.04391498 -0.0076829176 -0.067427695 -0.074508086 -0.02042959 -0.029627344 -0.019392775 -0.051665783
-0.012321315 -0.034948897 -0.015978422 -0.049555115 0.023136843 -0.002027531 -0.03750008 0.00072503876
-0.0063510844 0.020469107 -0.043946885 -0.050167292 -0.033229638 0.0014339645 0.002039787 -0.0026889974
0.010722498 0.03295974 -0.05451905 0.020396385 -0.066501975 -0.013636612 0.044478837 -0.0741993
-0.03766892 0.024736444 0.016350783 -0.034587562 0.03282109 -0.016125543 0.004984152 0.04228779
-0.028560003 0.028318925 -0.047240417 -0.008523853 0.021937765 -0.052057963 -0.024285655 -0.0072953315
0.014956621 -0.07902653 -0.04932799 -0.018432224 0.017802445 -0.040809236 0.03702449 0.07333109
-0.00478004 -0.013707044 -0.0046267747 -0.0149604315 -0.006313935 0.08371756 -0.023828859 0.05120889
0.116729826 0.06601761 0.12400468 0.39672294 0.1337062 -0.030599121 0.01349049 -0.045511384
0.06413401 0.040686682 0.031538207 0.0015540379 0.009172808 0.0037313288 0.018448668 0.057681747
-0.022432633 -0.020856697 -0.034710925 0.014603813 0.019241195 0.008753798 -0.008685012 0.0064684115
0.012084336 0.020228108 0.01586931 0.06127877 0.12627146 0.014602045 -0.046533775 0.05012543
0.031981777 -0.034050368 0.025183309 0.015936518 0.04206624 0.1007798 0.019400703 -0.053899836
0.04437785 0.0026376562 -0.041507438 0.041219316 0.04266527 -0.017736487 -0.041170646 -0.0047895308
-0.0009485202 0.0024824734 0.032602277 0.02113212 -0.041252673 -0.02130193 0.016508138 -0.019022373
-0.036739174 0.032863457 0.01988685 -0.10836576 -0.04921185 -0.074395224 0.037705697 0.09932055
-0.018601365 -0.01120168 0.04474451 -0.056208078 0.057439644 0.052422486 0.031919405 -0.02677585
0.0061494545 -0.035888873 0.015022519 -0.016564831 -0.03985802 0.009003585 0.006850214 0.021156777
-0.039032508 0.05782237 -0.033128597 -0.018862039 0.06253358 -0.01058829 -0.024153655 -0.012777613
-0.014177018 -0.012463484 0.021534242 -0.017488616 -0.032135047 0.0023253448 0.029751446 0.01655108
0.0007575981 -0.029320655 0.025666773 0.0014450684 -0.07754934 -0.021800209 0.066698104 -0.014255669
-0.013526094 0.077532455 -0.0071749967 0.037290078 0.016419895 -0.04635439 0.055608615 0.0805133
-0.0556265 0.015569106 0.0051226844 -0.07292103 -0.06503802 -0.025969472 -0.038109966 0.05364491
0.06705929 0.018283688 -0.09097438 -0.050689477 -0.03381587 0.01959416 -0.00828197 0.07395289
0.0038052672 -0.052219376 0.09861703 0.029399978 0.027046276 0.07883952 -0.006151498 -0.03262812
-0.007173759 -0.0210741 0.004797138 0.018814556 -0.01129628 0.005067198 0.044677217 0.006820829
-0.029566258 -0.010658343 -0.047911186 0.027116707 -0.016838593 0.029159537 0.038091365 -0.037774947
0.016674446 0.005969717 0.10324194 -0.0925654 -0.063936345 0.01519215 -0.020436926 -0.11719079
-0.034021128 0.016732365 0.0054584234 -0.0039566867 0.05772018 0.023985019 -0.026941363 -0.005469594
-0.027372552 0.0374492 0.024552515 -0.05891429 -0.015830966 -0.0094228685 -0.009774686 0.016773734
0.03980713 -0.04475312 -0.031074563 0.00834413 -0.031751625 0.029089034 0.022605 0.047025554
-0.02525079 0.064189866 0.039406214 0.026087726 -0.009493967 0.06351941 0.058351416 0.06690235
00000000: 32e0 33bd fcc0 fbbb 8817 8abd b297 98bd
00000010: f55b a7bc 0bb5 f2bc 99dd 9ebc 809f 53bd
00000020: 57df 49bc 9326 0fbd 2ee5 82bc 4efa 4abd
00000030: 7a89 bd3c 53e0 04bb af99 19bd 8710 3e3a
00000040: c21c d0bb d4ae a73c a601 34bd 387c 4dbd
00000050: cd1b 08bd ddf3 bb3a f2ad 053b e439 30bb
00000060: 6bad 2f3c cb00 073d 5e4f 5fbd 5216 a73c
00000070: 3032 88bd 196c 5fbc 712f 363d cdf5 97bd
00000080: ba4a 1abd 15a4 ca3c 14f2 853c b0ab 0dbd
00000090: 686f 063d b719 84bc 1952 a33b f635 2d3d
000000a0: abf6 e9bc 17fd e73c 2b7f 41bd a1a7 0bbc
000000b0: d4b6 b33c bb3a 55bd b6f2 c6bc ad0d efbb
000000c0: 9e0c 753c a9d8 a1bd 250c 4abd 2dff 96bc
000000d0: 6fd6 913c 9627 27bd fea6 173d 9c2e 963d
000000e0: e2a1 9cbb 8293 60bc 339c 97bb 991c 75bc
000000f0: 20e5 cebb 1d74 ab3d bd34 c3bc 6ac0 513d
00000100: 0c10 ef3d 3e34 873d 2af6 fd3d 451f cb3e
00000110: 47ea 083e 02ab fabc 3707 5d3c 256a 3abd
00000120: b158 833d 14a7 263d 352e 013d dcb0 cb3a
00000130: 8c49 163c 4f89 743b a921 973c b243 6c3d
00000140: a4c4 b7bc aadb aabc 0b2d 0ebd d544 6f3c
00000150: b69f 9d3c 176c 0f3c 954b 0ebc f8f4 d33b
00000160: 61fd 453c 6bb5 a53c 5b00 823c 73ff 7a3d
00000170: 4e4d 013e 6a3d 6f3c 339a 3ebd 5350 4d3d
00000180: 53ff 023d 6678 0bbd 3a4d ce3c 4d8d 823c
00000190: a64d 2c3d a465 ce3d 39ee 9e3c 13c6 5cbd
000001a0: 8cc5 353d 87dc 2c3b b403 2abd 96d5 283d
000001b0: c7c1 2e3d 1c4c 91bc 8da2 28bd 7ff1 9cbb
000001c0: 1da6 78ba feb0 223b f789 053d 451d ad3c
000001d0: 90f8 28bd 6381 aebc 133c 873c cfd4 9bbc
000001e0: d17b 16bd d59b 063d bfe9 a23c deee ddbd
000001f0: 5d92 49bd 865c 98bd 4a71 1a3d 9368 cb3d
00000200: e461 98bc 4087 37bc 0546 373d 713a 66bd
00000210: d545 6b3d f6b8 563d ecbd 023d 0759 dbbc
00000220: 5d81 c93b 3600 13bd 0321 763c f8b2 87bc
00000230: 2a42 23bd c683 133c c377 e03b fa50 ad3c
00000240: 8de0 1fbd 26d7 6c3d dab1 07bd 9084 9abc
00000250: 9b11 803d 827a 2dbc e3dd c5bc 3159 51bc
00000260: b946 68bc a433 4cbc 9468 b03c 4944 8fbc
00000270: 0aa0 03bd d064 183b 4eb9 f33c 2196 873c
00000280: 8c99 463a df31 f0bc 2043 d23c 7368 bd3a
00000290: 30d2 9ebd 5a96 b2bc 0499 883d 9c90 69bc
000002a0: 8d9c 5dbc 56c9 9e3d 3c1c ebbb 7bbd 183d
000002b0: 0483 863c 1ade 3dbd dcc5 633d 28e4 a43d
000002c0: 9dd8 63bd 9015 7f3c 31dc a73b 9f57 95bd
000002d0: a732 85bd eebd d4bc 3219 1cbd c4ba 5b3d
000002e0: 6256 893d acc7 953c c750 babd c59f 4fbd
000002f0: 8282 0abd ef83 a03c 1ab1 07bc 9d74 973d
00000300: ca61 793b fce3 55bd baf7 c93d 39d8 f03c
00000310: 2790 dd3c 9d76 a13d 8192 c9bb 10a5 05bd
00000320: da11 ebbb 97a3 acbc 4f31 9d3b fc20 9a3c
00000330: 0814 39bc bd0a a63b 75ff 363d 4381 df3b
00000340: f034 f2bc 55a0 2ebc 853e 44bd db23 de3c
00000350: 17f1 89bc fbdf ee3c b105 1c3d e7b9 1abd
00000360: d998 883c 9e9d c33b 8370 d33d ee92 bdbd
00000370: 0ff1 82bd 7fe8 783c 576b a7bc ba01 f0bd
00000380: bd59 0bbd 5012 893c 93dc b23b 18a7 81bb
00000390: ff6b 6c3d 3b7c c43c 22b4 dcbc 483a b3bb
000003a0: 673c e0bc 5564 193d 5b22 c93c 1c50 71bd
000003b0: f1af 81bc 6062 1abc 0126 20bc 1269 893c
000003c0: cd0c 233d 0c4f 37bd 1590 febc d1b5 083c
000003d0: fe0d 02bd 204c ee3c 1f2e b93c de9d 403d
000003e0: bfda cebc fa75 833d 6968 213d edb5 d53c
000003f0: 958c 1bbc 7716 823d e501 6f3d 1904 893d

body.2.conv.bias f4 [49]
0.010971233 -0.042290304 -0.026423793 0.042073023 0.006798818 -0.04999637 0.00083518116 -0.038186073
0.035254758 -0.008755063 -0.0465688 -0.052999858 0.009141833 -0.070000015 0.019320184 -0.033721052
-0.05623242 -0.035689026 -0.011491091 -0.0066898596 0.013553977 0.030291371 0.0028644414 -0.005715696
0.027462495 -0.029815942 -0.031314347 0.01890716 0.055526987 0.022129254 0.00411295 0.0019291092
0.016183237 -0.012608375 -0.009092203 -0.033084083 -0.017314931 -0.024088552 -0.038590126 0.02091609
0.00079435227 -0.057362366 -0.06297421 -0.023578454 -0.0037647441 0.044669554 -0.018535461 -0.0037351763
0.0413532
00000000: b0c0 333c 9938 2dbd b676 d8bc c354 2c3d
00000010: 9ec8 de3b fec8 4cbd 0ff0 5a3a 0069 1cbd
00000020: 4b67 103d 6571 0fbc edbe 3ebd 6116 59bd
00000030: a0c7 153c 2b5c 8fbd 5d45 9e3c 161f 0abd
00000040: f753 66bd a82e 12bd 2145 3cbc 9c36 dbbb
00000050: 8011 5e3c 9c25 f83c 5ab9 3b3b bc4a bbbb
00000060: 07f9 e03c 9040 f4bc 7943 00bd 30e3 9a3c
00000070: 4470 633d 6948 b53c edc5 863b 2ada fc3a
00000080: b592 843c 5c93 4ebc 77f7 14bc 2d83 07bd
00000090: 0bd8 8dbc 5b55 c5bc ae10 1ebd 3858 ab3c
000000a0: 143c 503a cdf4 6abd 9ff8 80bd 9a27 c1bc
000000b0: edb9 76bb 6cf7 363d aed7 97bc dcc9 74bb
000000c0: f961 293d

body.3.conv.weight f4 [48, 49, 3, 3]
0.0017233687 0.03441647 0.05177617 -0.027054679 -0.103754066 0.09377715 0.056715827 -0.014930268
0.032452982 -0.026078245 0.026248766 -0.0010869871 -0.013152724 0.038876366 -0.0034981747 0.028134674
-0.010546881 -0.052021068 0.010071308 0.014069687 0.042811975 0.05558953 0.021692866 -0.034056056
0.014000046 0.016929401 -0.05964983 -0.026792973 0.044766434 0.025761807 0.0982545 0.18439685
-0.08083914 0.0074129147 0.05349392 0.047201697 0.010027696 -0.009925094 0.006798069 -0.025915556
-0.0009938482 -0.023837235 0.0030529895 -0.0035604148 -0.008612541 -0.092107736 -0.059171807 -0.017531183
-0.04022287 -0.032511093 0.004768239 -0.0048133996 -0.06801842 0.0010140619 -0.010967908 -0.012299147
-0.05024642 0.042740174 0.15187724 0.011727729 -0.024393806 -0.01227666 0.07949784 0.014680278
-0.018981552 -0.0051133167 0.040499248 0.012469103 -0.027029406 -0.0068124896 0.021427216 0.023852099
0.0332377 -0.045477673 -0.014230401 -0.021775963 -0.044784818 0.052734353 0.04431404 -0.0057352465
-0.022255052 0.022129366 0.015254271 0.027559685 0.058430873 0.030090593 -0.011525984 -0.012572795
0.029471464 0.05821465 -0.034712832 -0.030880332 0.008687448 0.014697078 0.021474054 0.0005343926
-0.021909012 0.009848792 0.020625858 -0.023097776 -0.05905097 -0.038963925 0.05630342 -0.03805646
-0.02332702 0.0505074 -0.11857818 0.016726095 0.009976648 -0.063518725 0.0051352344 -0.027534626
0.038781594 -0.04936817 -0.010708456 0.0055004917 -0.0100112045 0.039381348 -0.019769832 0.00619043
-0.04676388 -0.024113676 -0.009667885 0.010571618 -0.03918509 -0.009776928 0.05702936 -0.009404813
0.023122188 0.05489132 0.0843888 -0.014496959 -0.09205351 0.03991041 0.02502682 0.008723623
-0.052709892 -0.052982304 0.055336267 0.032284517 -0.100563504 0.009505671 0.003933554 -0.0035445436
0.13775994 0.04082515 0.0880478 0.11316369 -0.0960854 -0.049516384 -0.015431301 0.0161703
-0.053005256 -0.03435677 -0.08846162 -0.03539906 -0.07434322 -0.10360047 -0.022194624 -0.048377283
-0.011060429 0.034737457 0.0146490075 -0.07188762 0.029828398 0.037769977 -0.084025435 0.019367866
-0.033886764 -0.008886428 0.074355334 -0.0007587101 0.026543653 -0.0070377993 0.045019522 0.06327693
0.0026781822 -0.0007756121 -0.064592 -0.054696746 0.0913276 0.079937465 -0.033733014 0.116323784
0.21017668 0.048928987 0.02547509 -0.10406174 0.096887544 0.008062621 0.03506296 -0.055447802
0.023161897 0.036873743 -0.040381912 0.0195743 0.07008255 0.059264857 0.1564433 0.0024264422
0.012633508 0.029277118 0.06304133 -0.08770286 0.0320062 -0.03933019 0.0678635 -0.015267077
-0.11163571 -0.010738023 0.0036693306 -0.015007176 0.018382926 0.006917595 0.034492742 0.0073587555
0.12213657 0.1838411 0.021397466 0.10983102 -0.10167117 0.20791458 0.04155003 0.01893391
0.121665 -0.060793854 0.0030703861 -0.0135352565 -0.051321108 0.03288664 0.007689102 -0.026333718
-0.037403557 1.0846948e-05 -0.038482632 0.049370565 0.014228431 -0.04991375 0.029106433 0.0045606373
-0.010523564 -0.07082974 0.009954497 -0.033845156 -0.072290264 0.034971163 0.11403253 0.17079853
-0.17839159 0.009960485 -0.085579254 0.031950332 -0.014660016 -0.041219544 -0.04367561 -0.05675128
00000000: a8e2 e13a 49f8 0c3d 4013 543d c6a1 ddbc
00000010: 037d d4bd 3c0e c03d db4e 683d 159e 74bc
00000020: 6bed 043d 0ba2 d5bc a707 d73c 3c79 8eba
00000030: 867e 57bc d33c 1f3d a241 65bb b07a e63c
00000040: d3cc 2cbc 0b14 55bd 2102 253c 8b84 663c
00000050: 9c5b 2f3d d9b1 633d 3db5 b13c 5d7e 0bbd
00000060: 7360 653c 87af 8a3c 6153 74bd f07c dbbc
00000070: 025d 373d 6d0a d33c a839 c93d 87d2 3c3e
00000080: fe8e a5bd 09e8 f23b 711c 5b3d 9156 413d
00000090: 354b 243c dd9c 22bc 56c2 de3b dc4c d4bc
000000a0: 0344 82ba 4e46 c3bc aa14 483b d955 69bb
000000b0: 9d1b 0dbc fba2 bcbd 235e 72bd 8e9d 8fbc
000000c0: bcc0 24bd 5a2a 05bd e33e 9c3b b9b9 9dbb
000000d0: 3e4d 8bbd 45ea 843a beb2 33bc 5d82 49bc
000000e0: 31cf 4dbd 5210 2f3d b585 1b3e a925 403c
000000f0: 85d5 c7bc 0b24 49bc c3cf a23d 8c85 703c
00000100: 337f 9bbc 9c8d a7bb 8ae2 253d 354b 4c3c
00000110: c66c ddbc 4e3b dfbb 2188 af3c 7a65 c33c
00000120: 4124 083d cc46 3abd a126 69bc 8163 b2bc
00000130: 4970 37bd faff 573d a482 353d bcee bbbb
00000140: 3a50 b6bc a548 b53c 0ded 793c d9c4 e13c
00000150: 3655 6f3d 8c80 f63c 7bd7 3cbc 20fe 4dbc
00000160: 246e f13c 7c72 6e3d 0b2f 0ebd c0f8 fcbc
00000170: cc55 0e3c 03cc 703c 5bea af3c 7b16 0c3a
00000180: 877a b3bc d45c 213c 8ff7 a83c 8c37 bdbc
00000190: 6edf 71bd a398 1fbd 6a9e 663d 17e1 1bbd
000001a0: 4f18 bfbc d9e0 4e3d 1ed9 f2bd 2a05 893c
000001b0: 1875 233c 1b16 82bd 7845 a83b 4c90 e1bc
000001c0: 73d9 1e3d 4736 4abd 8572 2fbc 783d b43b
000001d0: 0906 24bc 564e 213d 58f4 a1bc 17d9 ca3b
000001e0: 7b8b 3fbd 0b8a c5bc 0c66 1ebc 9434 2d3c
000001f0: 8c80 20bd 692f 20bc 9e97 693d a516 1abc
00000200: be6a bd3c b9d5 603d 09d4 ac3d a784 6dbc
00000210: 8d86 bcbd 1979 233d 0c05 cd3c 87ed 0e3c
00000220: 54e6 57bd f903 59bd 48a8 623d c53c 043d
00000230: 3df4 cdbd adbd 1b3c 0be5 803b 934b 68bb
00000240: f110 0d3e 4638 273d 6852 b43d 5dc2 e73d
00000250: 6cc8 c4bd b1d1 4abd 91d3 7cbc 9477 843c
00000260: 0a1c 59bd afb9 0cbd 5e2b b5bd 9bfe 10bd
00000270: 4241 98bd 7c2c d4bd 80d1 b5bc 4227 46bd
00000280: cd36 35bc dd48 0e3d 6402 703c d139 93bd
00000290: af5a f43c b1b4 1a3d 8715 acbd 5ca9 9e3c
000002a0: d9cc 0abd 6198 11bc 9c47 983d 2ce4 46ba
000002b0: 1372 d93c 579d e6bb 6466 383d 5697 813d
000002c0: 7184 2f3b 7252 4bba cf48 84bd b209 60bd
000002d0: f709 bb3d 41b6 a33d a12b 0abd 2a3b ee3d
000002e0: 8e38 573e c369 483d 23b1 d03c 521e d5bd
000002f0: fa6c c63d 1519 043c 2e9e 0f3d 3c1d 63bd
00000300: 05be bd3c ec08 173d 8167 25bd 485a a03c
00000310: 7187 8f3d b5bf 723d ac32 203e f204 1f3b
00000320: c6fc 4e3c 91d6 ef3c d01b 813d 8f9d b3bd
00000330: ef18 033d b118 21bd 05fc 8a3d c322 7abc
00000340: 43a1 e4bd 88ee 2fbc 2779 703b a9e0 75bc
00000350: ca97 963c feac e23b 4348 0d3d b721 f13b
00000360: bd22 fa3d d740 3c3e bd49 af3c 16ef e03d
00000370: f938 d0bd 8fe7 543e 5d30 2a3d 4a1b 9b3c
00000380: 802b f93d fa02 79bd 8838 493b fbc2 5dbc
00000390: 1536 52bd 24b4 063d ddf4 fb3b cfb9 d7bc
000003a0: 7934 19bd 49fb 3537 f79f 1dbd ca38 4a3d
000003b0: 5d1e 693c 5c72 4cbd 9d70 ee3c 6671 953b
000003c0: 076b 2cbc 2f0f 91bd 3018 233c 38a1 0abd
000003d0: eb0c 94bd ec3d 0f3d e389 e93d cfe5 2e3e
000003e0: 49ac 36be 4d31 233c 2d44 afbd 5ade 023d
000003f0: 9030 70bc d3d5 28bd 32e5 32bd 0874 68bd

body.3.conv.bias f4 [48]
0.008147128 -0.014916074 0.050620295 -0.027634481 -0.012359216 0.0011085714 0.039821412 -0.0090094935
-0.009424939 -0.040469576 0.028115742 0.083523095 -0.001777507 -0.016740158 -0.041438773 -0.0007105505
0.023176957 -0.013440531 -0.041571237 -0.016874125 -0.028660154 -0.044464823 -0.04588304 -0.01951124
-0.022719687 0.06552587 0.012270746 0.016869053 0.015100781 -0.024253143 0.0074483827 -0.027590098
-0.017860038 -0.049460255 0.012643547 0.00070399226 -0.007189837 -0.013556236 -0.024344286 -0.040372275
-0.035883717 0.007356065 -0.07511826 -0.024220495 -0.09529807 -0.018117636 0.04622759 -0.0018310393
00000000: 887b 053c 8d62 74bc 3a57 4f3d b561 e2bc
00000010: 4f7e 4abc 7c4d 913a c71b 233d 8e9c 13bc
00000020: 0f6b 1abc 6dc3 25bd fc52 e63c 280e ab3d
00000030: 3dfb e8ba a822 89bc b4bb 29bd 3d44 3aba
00000040: 9add bd3c ac35 5cbc 9a46 2abd 9b3b 8abc
00000050: b3c8 eabc bf20 36bd dbef 3bbd 09d6 9fbc
00000060: a31e babc 6d32 863d 3d0b 493c f830 8a3c
00000070: 4469 773c 87ae c6bc 9011 f43b a104 e2bc
00000080: 374f 92bc d696 4abd e126 4f3c 1f8c 383a
00000090: b998 ebbb fa1a 5ebc ab6d c7bc 665d 25bd
000000a0: cefa 12bd 250b f13b 9ad7 99bd 0f6a c6bc
000000b0: a22b c3bd 706b 94bc 2459 3d3d 7cff efba

body.4.weight f4 [48, 48, 3, 3]
0.038294967 0.08917251 0.01458066 0.16307534 -0.11812736 -0.043169316 0.0061789197 -0.02401176
-0.002303075 0.0124923345 0.027062638 -0.00856296 0.0026702923 0.024514299 -0.018635714 0.041370716
-0.043661434 -0.010051264 -0.011470979 0.02317471 0.00096720224 0.08119427 0.09389469 -0.025516996
0.045196284 0.009458294 0.0372035 0.040213592 0.0013502225 0.0034774432 0.027805949 0.021345444
-0.031257004 0.007748807 -0.041820906 -0.018251928 0.02454963 0.030748991 -0.015859056 0.0034195583
-0.028004207 -0.01832931 -0.02024423 0.061750703 -0.033534303 -0.22121426 0.038061254 0.016156591
0.020903233 0.00849728 0.019329818 0.014127979 0.00071165257 0.007761971 -0.0108901905 -0.046995576
0.0077251177 -0.024820166 0.021983858 0.0028219817 0.010273761 -0.012063743 0.029137634 -0.04974358
-0.028038314 0.008921961 0.021408595 -0.042426914 0.03135732 0.021839485 0.03473773 0.048101682
0.0045277826 -0.0022179259 -0.011762887 0.031519186 -0.015354639 -0.026156785 -0.026483353 -0.00892571
-0.010442743 -0.12224082 0.16733517 0.008921729 0.07695844 -0.180372 0.024868472 0.0114269825
0.004072554 -0.004246027 -0.0019920168 -0.02879149 0.01265544 -0.03328411 -0.012878498 -0.0050869826
-0.0066270046 0.0032330216 0.0667923 0.020415217 -0.12503524 0.0067641507 -0.13112308 -0.13311146
-0.03825574 0.053291224 -0.001112701 0.03943179 0.026840212 -0.016338918 0.04120398 -0.010276055
0.016680336 -0.009897087 -0.029410427 0.020281006 0.019601569 0.042853966 -0.043432664 0.015643934
0.08241735 -0.029801194 -0.007097521 0.07810734 -0.040003028 0.013987416 -0.0394109 -0.016822733
0.022727352 -0.011248179 -0.022378985 0.032232173 0.029470863 -0.027420286 -0.007704466 -0.030299315
0.014773033 0.004556536 -0.04268512 -0.023471419 0.008379322 0.04457037 0.01400038 -0.017866557
0.03367532 0.018478692 -0.0040898263 0.012411697 -0.03352178 0.013890414 -0.020198321 -0.0047136797
0.031889044 -0.017176239 -0.011225171 -0.063768044 0.039448302 -0.0012308822 -0.065695375 -0.041499745
-0.058013495 -0.0042047584 -0.02750062 -0.012547741 0.022257848 -0.03505293 0.042200528 -0.014279765
-0.008961338 -0.008051495 0.013412879 0.04035431 0.0380724 -0.0070955283 -0.016878644 -0.005088516
0.012701593 0.005631955 -0.011138988 0.0065894136 -0.01647822 -0.0031337403 0.0045891707 -0.05299172
0.0081777945 0.026377482 0.018927189 0.015602062 -0.0050650802 -0.019754399 0.028211448 -0.017596181
-0.045817435 -0.014979577 0.0157302 0.024197817 0.029628597 0.011132523 0.02765252 -0.014387935
-0.02705307 0.010650181 0.02528816 -0.012782806 0.013626606 -0.034855705 0.012402702 0.008866059
0.06675401 -0.008194367 0.016536925 0.012946538 -0.009781637 0.018542035 -0.0061318185 -0.014397616
0.010143469 -0.0030576389 0.012164714 -0.0029641627 0.0011868438 0.016271643 -0.006186915 -0.05270941
0.0396322 0.0052326173 0.007030147 0.016329993 -0.036568467 0.005681538 0.011478605 -0.021858716
-0.02191544 0.017320264 0.004702468 -0.024895836 -0.013730794 -0.046952263 0.065762915 0.061462764
-0.04109926 0.04786743 -0.010845201 -0.009892008 0.014187532 -0.011349426 -0.010830999 0.015972698
0.028772194 0.008383124 0.018768735 -0.04467238 -0.010444794 -0.0031166587 -0.019027883 -0.01198542
00000000: 2fdb 1c3d 14a0 b63d b8e3 6e3c 39fd 263e
00000010: c2ec f1bd 4fd2 30bd 8978 ca3b 4fb4 c4bc
00000020: 30ef 16bb a6ac 4c3c 77b2 dd3c a84b 0cbc
00000030: 1200 2f3b 36d2 c83c eda9 98bc 5774 293d
00000040: 55d6 32bd 0fae 24bc c6f0 3bbc e4d8 bd3c
00000050: d88b 7d3a 2e49 a63d dc4b c03d 0509 d1bc
00000060: bd1f 393d f6f6 1a3c b262 183d 02b7 243d
00000070: f3f9 b03a d1e5 633b 4dc9 e33c a4dc ae3c
00000080: 5807 00bd b4e9 fd3b 664c 2bbd 1185 95bc
00000090: 4e1c c93c 4fe5 fb3c daea 81bc ab1a 603b
000000a0: 1469 e5bc 5927 96bc 3ad7 a5bc 4eee 7c3d
000000b0: 445b 09bd fe85 62be 1ee6 1b3d d45a 843c
000000c0: 423d ab3c 2d38 0b3c 9159 9e3c 0a79 673c
000000d0: 328e 3a3a 2258 fe3b c56c 32bc 6f7e 40bd
000000e0: fc22 fd3b a953 cbbc 7e17 b43c fff0 383b
000000f0: 4753 283c 01a7 45bc 0cb2 ee3c edbf 4bbd
00000100: 9bb0 e5bc 6b2d 123c 1461 af3c d8c7 2dbd
00000110: 8870 003d b8e8 b23c 2649 0e3d 4506 453d
00000120: cb5d 943b 9f5a 11bb 20b9 40bc 431a 013d
00000130: 0692 7bbc c146 d6bc 9ef3 d8bc 243d 12bc
00000140: 0a18 2bbc 6559 fabd e959 2b3e 722c 123c
00000150: 639c 9d3d 70b3 38be f7b8 cb3c 3d38 3b3c
00000160: 0f73 853b 4222 8bbb 7f8c 02bb 21dc ebbc
00000170: c358 4f3c eb54 08bd 5600 53bc b4b0 a6bb
00000180: 5827 d9bb 1ae1 533b 67ca 883d d03d a73c
00000190: 3d09 00be cfa5 dd3b 2145 06be 5f4e 08be
000001a0: 0db2 1cbd e647 5a3d 0dd8 91ba 3b83 213d
000001b0: 01e0 db3c 32d9 85bc 81c5 283d e65c 28bc
000001c0: 33a5 883c 6427 22bc 23ee f0bc 5a24 a63c
000001d0: 7893 a03c a487 2f3d 73e6 31bd b527 803c
000001e0: 6dca a83d a221 f4bc 5292 e8bb bef6 9f3d
000001f0: 37da 23bd 7a2b 653c 536d 21bd d4cf 89bc
00000200: b62e ba3c 484a 38bc 2254 b7bc e205 043d
00000210: e16c f13c 82a0 e0bc bf75 fcbb 4536 f8bc
00000220: 970a 723c ff4e 953b 98d6 2ebd 2247 c0bc
00000230: 6c49 093c 6c8f 363d da61 653c e35c 92bc
00000240: 22ef 093d a060 973c f303 86bb 6e5a 4b3c
00000250: 224e 09bd 9e94 633c f376 a5bc 3675 9abb
00000260: 169e 023d 2fb5 8cbc c8e9 37bc d298 82bd
00000270: 8b94 213d 8e55 a1ba 4c8b 86bd a3fb 29bd
00000280: 8f9f 6dbd 12c8 89bb fb48 e1bc 0a95 4dbc
00000290: 1756 b63c a993 0fbd 76da 2c3d adf5 69bc
000002a0: 93d2 12bc 6bea 03bc b1c1 5b3c 904a 253d
000002b0: cef1 1b3d 9b81 e8bb 1545 8abc 91bd a6bb
000002c0: 581a 503c 438c b83b 4d80 36bc 02ec d73b
000002d0: 55fd 86bc 705f 4dbb c160 963b d90d 59bd
000002e0: 28fc 053c 9715 d83c 310d 9b3c cb9f 7f3c
000002f0: f9f8 a5bb fad3 a1bc b21b e73c de25 90bc
00000300: 10ab 3bbd e66c 75bc 9fdc 803c 803a c63c
00000310: acb7 f23c 3065 363c 8a87 e23c 60bb 6bbc
00000320: 669e ddbc 197e 2e3c 1e29 cf3c f96e 51bc
00000330: 2142 5f3c dbc4 0ebd b434 4b3c f242 113c
00000340: 54b6 883d ab41 06bc 7278 873c b71d 543c
00000350: 2943 20bc 77e5 973c 6ced c8bb fae3 6bbc
00000360: cb30 263c ab62 48bb 824e 473c 6642 42bb
00000370: df8f 9b3a 1c4c 853c 9bbb cabb d3e5 57bd
00000380: 6055 223d 6076 ab3b 265d e63b 7ac6 853c
00000390: d1c8 15bd 322c ba3b c210 3c3c 0d11 b3bc
000003a0: 0288 b3bc 3ae3 8d3c 2917 9a3b 5af2 cbbc
000003b0: 20f7 60bc 0451 40bd b5ae 863d 61c0 7b3d
000003c0: b357 28bd a310 443d 12b0 31bc 1712 22bc
000003d0: d272 683c f1f2 39bc 8174 31bc 2dd9 823c
000003e0: aab3 eb3c 5f59 093c e4c0 993c 63fa 36bd
000003f0: a420 2bbc db40 4cbb 5de0 9bbc 7f5e 44bc

body.4.bias f4 [48]
-0.0059726336 -0.017682001 -0.027196212 -0.0015554981 -0.018005863 -0.018133808 -0.002070111 -0.009762271
-0.033260673 0.0020811462 -0.011418225 -0.02779081 0.0015580846 -0.009410761 -0.0172068 0.001230224
-0.005355064 -0.008723608 0.0076227817 0.0039253403 -0.021598196 0.012175212 0.0015931583 -0.0064811143
0.012260444 0.0005771781 -0.006835617 0.012124744 -0.0034241846 -0.01252215 0.01826806 0.0075667785
-0.0007155191 0.028905263 0.01527022 -7.150587e-06 0.022814898 0.0061695497 0.0024293168 0.022171088
0.019446375 -0.0054614483 0.034129124 0.017677719 -0.004585575 0.016785981 0.012867559 0.0036461167
00000000: 15b6 c3bb d8d9 90bc 97ca debc dbe1 cbba
00000010: 0881 93bc 5a8d 94bc b3aa 07bb eff1 1fbc
00000020: 583c 08bd d763 083b 8213 3bbc 8ea9 e3bc
00000030: a538 cc3a 982f 1abc 46f5 8cbc 783f a13a
00000040: 8879 afbb 77ed 0ebc 87c8 f93b 24a0 803b
00000050: b3ee b0bc 8a7a 473c 86d1 d03a 875f d4bb
00000060: 08e0 483c c44d 173a 50fd dfbb dda6 463c
00000070: 4968 60bb b429 4dbc e6a6 953c bdf2 f73b
00000080: ad91 3bba bbca ec3c f22f 7a3c 13ef efb6
00000090: 4fe6 ba3c ef29 ca3b 2c35 1f3b 24a0 b53c
000000a0: 014e 9f3c f3f5 b2bb fbca 0b3d ddd0 903c
000000b0: 9742 96bb c182 893c 74d2 523c b0f3 6e3b
