model/x4_180_320.onnx (onnx, 437112 bytes, 12 tensors)

stem.conv.weight f4 [49, 3, 3, 3]
00000000: c72c 273d cb30 3fbe 7b05 19bd 6e64 0cbe
00000010: 84ad bfbb feab 0fbd 9fdc 4abd 4091 05be
00000020: 5206 0c3e 058e d83d d651 813d 5e0f bf3c
00000030: 9013 84bd 383b 4b3d b7fc 3c3e 2ef4 053e
00000040: 3bab a1bd c147 ae3d acbb e9bd 6ca2 f0bd
00000050: 9551 12be 65d7 063e 4308 65bc 4a31 513e
00000060: 9915 f23c af06 00be cc41 4b3e 3d06 263d
00000070: d093 0fbd 63f5 b5bd f6aa fa3d e980 bb3d
00000080: bf38 e3bd 9f83 233e c17d 4e3d d225 6f3d
00000090: f3b2 043d daa8 29be 0965 fd3d 0627 95bd
000000a0: 7be9 29bd 599f d0bd 516d 2ebd d002 173e
000000b0: 0050 443e 4b6b 8abd 9749 2e3e 6ef5 7bbd
000000c0: b780 b63b e6e9 adbd 10b6 063c 397e 48be
000000d0: 9fa3 54bc cf0e 44be d1ba 8e3d f49f 7c3d
000000e0: a20a bd3d b504 7b3d cea5 ac3d 854f 733d
000000f0: 2b57 0ebe be2c 663c 9dc0 393e d8e0 3abd
00000100: 7354 223e f350 67bb ca09 ed3d 4ac0 b43c
00000110: 4423 f4bd b4c7 18bd 1c3c 26bd 2613 053e
00000120: be87 20be d36b d43d c8ad 19be fb46 ec3b
00000130: 1b37 34be 8f67 10be 7234 f6bd 3ed4 593d
00000140: 4fe0 153e 6a10 36be 5360 113e 6b74 b2bd
00000150: 3730 863d b84b 59ba d108 6abd 23ff fc3d
00000160: a074 de3d fe75 58be 9ad5 9e3d 42c2 1a3e
00000170: e38e 183e 7351 c2bd ec96 143e b5f9 003e
00000180: a983 afbc d60a 073e dd7b 21bd 3c03 113e
00000190: de02 debd 4077 503c 547c ccbd e201 393d
000001a0: b317 1abe f614 33be 4431 f4bc 695c 0cbe
000001b0: c16f dc3d 6155 9b3d af27 a5bd 360d 4d3e
000001c0: b7cb 113e ec7d b33d 6a7a 00be 5145 15bd
000001d0: adb2 043e 0bd7 cd3d e32e a53d d01d 78bd
000001e0: 17d6 02be c1f9 83bd 5912 03bd 3ec5 463e
000001f0: 9a94 003d 3ad6 f8bd 23a4 19be 82e7 3fbd
00000200: e2cb 253e bd8f 16be f07f 8bbd db5f 883c
00000210: 7d11 e5bd bf2d d7bc cd36 efbd 4606 533c
00000220: 1d16 afbc a109 d03c 61fa 04bd 0b38 f53d
00000230: 98c7 55bd 2ae7 3fbd 066a 9dbd db81 71bd
00000240: 5061 0d3e 7456 253e 0522 b73d 2a33 cabd
00000250: 2e0c 833d 53bb 6a3d 30df 343d 9739 c93c
00000260: 31bb 95bd 8f3f 2fbe bfe0 8ebd 6fdb 663d
00000270: 535d 4b3c cefe 57be c994 03be 0324 013e
00000280: b584 723d 4cba 4a3d 492a debd b333 ac3c
00000290: c612 f0bd 0605 fb3d 60a2 e3bd eb18 033e
000002a0: 4814 6fbd b2e5 1a3e 5e69 383d d809 f2bc
000002b0: c480 2dbe 9012 e23d 3654 0b3e ddd3 a6bd
000002c0: e4d9 42bd 90b4 0dbe 6b0f fc3d 3b4c 9f3c
000002d0: 34ce 0a3e 407c 1abe 8fcb 663d 6cc5 cf3d
000002e0: 7428 f3b9 3320 273e d337 cb3d f5cd 823d
000002f0: 4acc 213e bfb0 d53d 113e cebd a80a 9b3d
00000300: ad22 e4bd 78fa 50be 4c91 cf3b dd39 f13d
00000310: 81d6 81bb 80dc 78bd f1ae 1c3e 8395 34bc
00000320: 34ea 06bd b047 153e f655 62bd 8ffa dc3d
00000330: 385b 343e 412a af3d 30a1 f7bd 4a87 af3d
00000340: 9aca 4dbc 2770 23be 7c65 813d b4db b5bd
00000350: 7cf4 7dba 0f48 07be 6d6a 98bc a779 153d
00000360: 75b0 373d 85d6 3a3c b968 263e 6e4f 25be
00000370: fbc2 913d f74a 673d 27c9 29bc 43c5 293e
00000380: 7fae fc3c 7f23 ae3d 5efb d83c 710d 2abd
00000390: 8aa1 23bd 39ff f93c c702 b2bc f606 a23c
000003a0: 91af 1a3e 7069 9c3c 19d9 0bbe f68d 36bd
000003b0: 5404 e43d ccbd 833d d7ad 48be 0a51 86bc
000003c0: c869 323d fdf8 5dbe d8b2 b3bd df27 d5bb
000003d0: 0bc7 a53d 507b c6bd 0982 1abe 7aa4 ad3d
000003e0: 183c 0dbe 4170 433e eed6 4ebd f563 953d
000003f0: 520c 7cbd aa56 483c a5ff 363d 452e ee3d
0.040814187 -0.18670957 -0.037358742 -0.13710186 -0.005849542 -0.035076134 -0.049526807 -0.1304369
0.13674286 0.10573963 0.06314437 0.023322757 -0.06449044 0.049617022 0.18455778 0.13081428
-0.07893988 0.0850978 -0.11412749 -0.117497295 -0.14288934 0.13168104 -0.0139790205 0.20428959
0.029551314 -0.1250255 0.19849318 0.040533293 -0.035053074 -0.088846944 0.122396395 0.09155447
-0.11094808 0.15968178 0.050412897 0.058385678 0.03239722 -0.16568318 0.123727866 -0.07282834
-0.04148243 -0.10186643 -0.04258472 0.14747167 0.19171143 -0.06758746 0.1702026 -0.061513357
0.005569543 -0.08491878 0.008222118 -0.195794 -0.012978463 -0.19146274 0.06969226 0.06167598
0.09230544 0.061283786 0.08430062 0.059402008 -0.1390044 0.014048753 0.18139882 -0.045624584
0.15852527 -0.0035296052 0.11574133 0.022064347 -0.11920789 -0.037299827 -0.04058467 0.12995586
-0.15676782 0.10372128 -0.15007699 0.00721061 -0.17599146 -0.14102004 -0.12021722 0.053180926
0.14636348 -0.17779699 0.14196901 -0.08713611 0.06552165 -0.0008289176 -0.057137314 0.12353351
0.10862088 -0.2113876 0.07755585 0.15113166 0.14898257 -0.094881915 0.14510697 0.12595256
-0.021425085 0.13187727 -0.039424766 0.1416139 -0.108403906 0.012723744 -0.09984651 0.04516781
-0.15048103 -0.17488465 -0.029808648 -0.13707127 0.10763503 0.07584644 -0.0806421 0.20024571
0.14237867 0.08764252 -0.12546697 -0.03644306 0.12958784 0.10050782 0.080655836 -0.060575306
-0.12776981 -0.06444121 -0.03199992 0.1941118 0.031391717 -0.121502355 -0.1500402 -0.046851642
0.16191056 -0.1470327 -0.068115115 0.01664727 -0.11184976 -0.02626693 -0.11680374 0.012879914
-0.02137285 0.025395216 -0.032465342 0.1197358 -0.0521923 -0.046851315 -0.07686238 -0.05896173
0.13806653 0.1614626 0.089420356 -0.0987304 0.063988075 0.057307553 0.04415816 0.024563594
-0.073110946 -0.1711409 -0.06976461 0.056361612 0.012412387 -0.21093294 -0.12849726 0.12611394
0.05920859 0.049494073 -0.10847909 0.021020746 -0.11722331 0.122568175 -0.11114955 0.12802474
-0.05836895 0.15126684 0.04502236 -0.02954571 -0.16943651 0.11038697 0.13606343 -0.081458785
-0.047571078 -0.1383841 0.12307628 0.01944553 0.13555223 -0.1508646 0.056346472 0.10145077
-0.00046378712 0.16320877 0.09922757 0.063869394 0.15800586 0.10434102 -0.10070432 0.07570392
-0.111394264 -0.20408046 0.0063344594 0.11778615 -0.0039623384 -0.06075716 0.1530111 -0.0110219745
-0.032938197 0.14578128 -0.05525776 0.10789978 0.17612922 0.08552981 -0.12091291 0.08570726
-0.012560511 -0.15960751 0.06318185 -0.08879796 -0.0009687615 -0.13211082 -0.018605435 0.03649297
0.044846017 0.0114036845 0.16250886 -0.16143581 0.07117268 0.056467976 -0.0103629 0.16579156
0.030844925 0.08502864 0.026487049 -0.041516725 -0.039948978 0.030517207 -0.02172984 0.01977871
0.15106036 0.019093245 -0.13657035 -0.04456898 0.11133638 0.06432685 -0.19597565 -0.016396064
0.043557912 -0.21677013 -0.08774346 -0.006504997 0.08094605 -0.09691489 -0.15088667 0.08478637
-0.13792455 0.1908579 -0.05049794 0.07294456 -0.061535187 0.012227694 0.044677395 0.11629919

stem.conv.bias f4 [49]
00000000: e76b 03be a2f0 7b3d 143d d7bc 1667 f93d
00000010: c08a e6ba 80f5 ab3d bd03 7e3b 0a83 023d
00000020: 8fcd c43d 5d4b e83c 4b64 c83c 2fac bd3d
00000030: b308 b1bd 8a80 9f38 e2d5 c5bc 5b71 1abe
00000040: 1c1c 95ba 5ab6 dd3d 3502 053e 38c3 2fbe
00000050: 96e4 833d 6b81 11be d067 8ebd 0325 943c
00000060: bce2 3d3c f053 42bd 0ce4 503d 8907 97bd
00000070: 87ee 94bc e41d 603d c400 9d3c b41a e139
00000080: f8bf ac3d 1074 773d 4917 cd3d c977 053e
00000090: 446e 89bd d81e 79bd dd4e 373e a20f bfbd
000000a0: 8007 023e eb3e c0bd e26a 1dbd 7cea 33be
000000b0: 0008 f73d 29c6 db3c a75f 56ba 9217 37be
000000c0: 7b03 fb3c
-0.1283413 0.061508782 -0.026274242 0.12177865 -0.0017588958 0.08396435 0.0038759552 0.03186325
0.0960952 0.028356249 0.024461886 0.09261357 -0.08644237 7.605653e-05 -0.024149839 -0.15082304
-0.0011376175 0.108257964 0.12989123 -0.17164314 0.06440084 -0.14209525 -0.069533944 0.018084055
0.011589702 -0.04744333 0.050998732 -0.07374484 -0.018180145 0.054716006 0.019165404 0.0004293524
0.08435053 0.06041342 0.10014207 0.13033976 -0.067104846 -0.06082043 0.17901178 -0.093291536
0.12698174 -0.09387001 -0.03843201 -0.17569917 0.12062073 0.026827889 -0.00081777055 -0.17880085
0.030641308

body.0.conv.weight f4 [49, 49, 3, 3]
00000000: 37e9 62bd fe3b 54bd 927c 2ebd bb42 6fbd
00000010: 41ce bcbc 49c3 c2bc e473 18bd 73d8 353c
00000020: aa7e 3fbd 5f16 b33c 20d8 68bc 33a1 163d
00000030: ba2c 033d f814 2c3c 2f70 9f3c 396c ba39
00000040: 5323 2a3c 01bc a53c ce27 233d cf3b ea3c
00000050: c8a2 fd3b 8128 d8bc 4b7f 3e3d a8dc c2bb
00000060: 9642 f53b c1fb 623b 543b 5abc ae50 0fbc
00000070: 0751 26bc 60eb 2d3d e82f 103d 68c2 3cbc
00000080: 0759 f33c 60dc d83c ac3e 173d 7d61 af3c
00000090: 3f9c 083d fbd5 0fbc ff6b 823d cc34 4cbc
000000a0: 7341 763c 28b3 2e3d 8a5c 4b3b 2645 393d
000000b0: 4776 513c 715e 103c 0617 cf3b d288 0cbd
000000c0: 4eeb 3bbd da83 10bc e6c4 80bc dfb4 e2b9
000000d0: 9161 77bc 2295 4a3c bce6 39bd ca0f 89bd
000000e0: 40bc 2fbd 8b73 9f3b a9f7 64bb 54be e5bc
000000f0: d4b1 2bbd 1b2e 6cbb d663 163d 8ec7 3c3d
00000100: 3167 063d 23cc 33bd db39 3b39 c092 363d
00000110: 4888 8ebd 0b12 343d eeec 21bd 163a c53c
00000120: 1bff ee3c 2a6b 44bc 3b85 033d 6a1b 33bc
00000130: 029e 3e3d 096f 3f3b 50dd 1b3d 397f 6fbc
00000140: a8fc 9bbc ea5a 17bd 6c22 ebbc dbf3 d33c
00000150: 15bd a8bc 246b 46bd 5f09 f9bc de19 fa3c
00000160: 8029 ab3c e5c8 283d ecf9 bf3d 0fa6 82bb
00000170: 8197 f63d 6d15 5c3d 8c5b 023d bb72 873c
00000180: feeb 28bd 6af5 e2bc 0343 bf3c 7e99 c7bc
00000190: 5281 373d c1f7 10bd 8f9f 003d 775a 3e3b
000001a0: be68 0bbd e6d1 55bd 7ad6 fa3c c9f3 8f3c
000001b0: beb3 b33d 4d5e 903c ecc2 943d a877 013d
000001c0: 7310 b33c 2206 07bd f868 603d d588 3e3d
000001d0: 18a3 7dbc bc08 dc3c f782 5dbc 40b7 01bd
000001e0: ee52 36bd 522a 2dbd 3511 983c e90b be3b
000001f0: a2da 183a bba4 0abd c871 5e3c 822f a4bc
00000200: a360 35bd b070 91bd 57c8 ccbd 3530 07bc
00000210: 7288 bdbd 765c db3b b331 c3bc 9822 db3b
00000220: 4b13 373c 0cd8 7dbd 1890 cd3c a47e 66bd
00000230: 9697 a83a 4f2e 94bc 5dd5 19bd ef6f 9ebb
00000240: 5a37 95bc 5c99 a8bc 69cc 1f3b 3e70 c5bb
00000250: 4c2a f6ba dcac 263c af38 eebc 3382 8cbd
00000260: 7c14 12bd a9b0 713d 9fc8 9bbc 3f51 583c
00000270: 5956 a3bc 4394 193d 5c73 b13b 978a 8d3c
00000280: bdb6 143d cd96 60bd dda1 6e3d 2aa2 813c
00000290: 40de f8bc f827 aabc edab f4bc 7079 1d3c
000002a0: e1de 163c c59f 103c b18d 03bc 5ce9 a4bc
000002b0: dbc4 3abc eada ac3c 6e24 25bd ce6c da3c
000002c0: 8cde cd3c b557 5ebd f22b 0b3d dbd6 d2bc
000002d0: da46 653c dc64 4e3d 4a90 d6bc 7866 763d
000002e0: 2142 4f3d eb33 cebc 288b fb3c 325e e43c
000002f0: 1915 7d3c e606 213c 01cb a3bc bd33 82bd
00000300: 8b62 32bd 9bf9 fe3b b519 cdbc 0b9e 00bd
00000310: 46f2 bfb9 8859 1ebd 7400 ea3d bb0f 2cbd
00000320: 1f1a 32bd e483 813b 35db 563c 6771 37bd
00000330: 909c fd3c 428e e13c cca1 053c f0b8 8bbd
00000340: a66b 5bbc 847a 753c bb83 79bd 45cb 9d3c
00000350: 2f7f 4c3c 5b64 34bd 35fb b23b 04e6 d4bb
00000360: 88c3 60bc 6f5f 34bc 78e3 083c 0bcb cabd
00000370: e78b dc3c 7b48 473d 3c6c 8ebc 6928 89bc
00000380: f2cb 173d 319f 4f3d 59ca 11bc a08e 28bd
00000390: f6b7 0f3d cfc2 223d 8e6f a0bc cd94 64bc
000003a0: 50c9 f93c e432 65bd ec2e b8bc 9fcb debc
000003b0: 360f f83c a82b 6d3c 4ae5 143c 81d5 c2bb
000003c0: f624 09bc 8fd0 1e3d 3c4e d63c f8a3 1c3d
000003d0: 1452 803a 02a6 11bc fa92 2dbc c3c6 47bc
000003e0: 4ba9 48bd 6c98 cabc a2f8 113d d6f1 80bc
000003f0: bf59 b43c a297 01bd 7a76 a6bb 05e2 19bb
-0.055398192 -0.051815026 -0.04259927 -0.05841325 -0.023047568 -0.02377476 -0.037219897 0.011098969
-0.046751656 0.021861253 -0.014211684 0.036774825 0.032025076 0.010503046 0.019462673 0.00035557317
0.0103843985 0.020231249 0.039832883 0.028592972 0.0077403523 -0.026386501 0.046508115 -0.0059467144
0.0074847443 0.003463492 -0.013319809 -0.008747263 -0.010151154 0.0424608 0.035201937 -0.011520959
0.029705537 0.02647227 0.036925003 0.02140879 0.033352133 -0.008779044 0.06368255 -0.01246376
0.015030253 0.042651325 0.00310305 0.04523196 0.012784547 0.008811579 0.0063198833 -0.03431017
-0.0458787 -0.008820498 -0.015718888 -0.0004324084 -0.015098945 0.012364658 -0.04538606 -0.06692465
-0.04290414 0.0048660687 -0.0034937656 -0.028044857 -0.041917637 -0.0036038223 0.036716305 0.046088748
0.032813255 -0.04389585 0.00017855263 0.044573545 -0.06959587 0.04396252 -0.039532594 0.02407555
0.029174378 -0.0119884405 0.03210948 -0.010931829 0.046537407 0.002921047 0.038052857 -0.014617735
-0.019041374 -0.036951937 -0.028702937 0.025873115 -0.020597974 -0.04844202 -0.030399976 0.030529913
0.020893812 0.041207213 0.09373841 -0.003987081 0.12040616 0.05373137 0.031825587 0.0165342
-0.041240685 -0.027704913 0.023347383 -0.024365183 0.044801064 -0.035392527 0.031402167 0.002904562
-0.034035437 -0.052202128 0.030619849 0.0175723 0.087745175 0.017623091 0.07263741 0.031608254
0.02185843 -0.032964833 0.054787606 0.046517212 -0.015480779 0.026859634 -0.013519994 -0.0316689
-0.04451268 -0.042276688 0.018562892 0.0057997596 0.00058309187 -0.033848505 0.013576932 -0.020042185
-0.044281613 -0.071015716 -0.09999149 -0.00825124 -0.092545405 0.006694372 -0.02382741 0.0066874735
0.011174033 -0.061973616 0.025093123 -0.056273118 0.0012862559 -0.018088488 -0.037556995 -0.004835121
-0.01821487 -0.02058094 0.0024383313 -0.006025343 -0.0018780916 0.010173049 -0.029079763 -0.06860771
-0.035664067 0.059006367 -0.019016562 0.013202964 -0.019938635 0.03749491 0.0054153632 0.017277999
0.036307085 -0.054831315 0.058259834 0.015824396 -0.030379415 -0.020771012 -0.029867137 0.0096114725
0.009208412 0.0088271545 -0.008029387 -0.020130806 -0.011399473 0.02110048 -0.040317945 0.02666321
0.025130533 -0.054282863 0.033977456 -0.025737217 0.013993943 0.050389156 -0.02619185 0.060156316
0.050600175 -0.02517124 0.030706003 0.027876947 0.015446925 0.009828305 -0.01999426 -0.063575245
-0.04355101 0.00778122 -0.025036672 -0.03140072 -0.00036610867 -0.038659602 0.11425868 -0.04200719
-0.043481942 0.00395249 0.0131137865 -0.044785883 0.030958444 0.027533654 0.008156251 -0.068223834
-0.013392365 0.014982823 -0.060916644 0.019261966 0.012481495 -0.04404102 0.005462075 -0.0064971466
-0.013718493 -0.011009081 0.008355014 -0.099020086 0.02692218 0.048653107 -0.017385595 -0.016742902
0.03705973 0.050688926 -0.008898341 -0.041151643 0.03508755 0.039736565 -0.019584443 -0.0139514925
0.030491501 -0.055956736 -0.022483312 -0.027196703 0.03028069 0.0144757405 0.00908787 -0.005945862
-0.008370629 0.038773116 0.026160352 0.03824231 0.0009790086 -0.008889677 -0.010594124 -0.012193385
-0.048989575 -0.024730884 0.035637505 -0.015740316 0.02201545 -0.03163875 -0.0050800415 -0.0023480665

body.0.conv.bias f4 [49]
00000000: f9bf 9c3c f0b5 f6bc 9993 803b 72a6 5bbd
00000010: 4046 06bd 88fb 173c 7766 e8bc 8061 dabc
00000020: 6b92 f83c 4f0e f9bb bb5d c43c 3ad0 15bb
00000030: c736 523c 1663 dd3c ca1a 383c 4f6c 0b3c
00000040: 77d0 5cbd 801c 0dbd 8613 40bd 55c1 2f3b
00000050: 6469 5f3c 28ab 62bc 2ea3 f03b 115f 69bd
00000060: 6b37 94bc d95f 36bc b613 febc 1366 3a3c
00000070: 3f6e 2b3d 9e7c c7bc 6a44 1fbd 834b 863a
00000080: b360 11bd 77b7 da3c 5724 ae3c c5cd 45bd
00000090: 4d24 013d 8479 74bd 3f05 113d e880 e6bc
000000a0: 5ed4 91bc 7819 0e39 008e 30bd 3116 76bc
000000b0: 671e 873a 6e43 0dbc 0f70 493c 4baf 9c3c
000000c0: a733 f5bc
0.019134508 -0.030116051 0.003923845 -0.05362553 -0.03278184 0.009276278 -0.028369172 -0.02665782
0.030343255 -0.0076005827 0.023970475 -0.0022859708 0.012830443 0.027024787 0.011236856 0.0085097095
-0.053909745 -0.034451008 -0.04689362 0.0026818116 0.013635967 -0.013834752 0.0073436713 -0.056975428
-0.018092832 -0.01113125 -0.031015258 0.011376875 0.041853186 -0.024351414 -0.038883604 0.0010245893
-0.03549261 0.026698811 0.021257563 -0.04829194 0.03152876 -0.0596862 0.035405394 -0.02813764
-0.01780146 0.00013551663 -0.04310417 -0.015019939 0.0010308743 -0.0086220335 0.012294783 0.019126555
-0.029931856

body.1.conv.weight f4 [49, 49, 3, 3]
00000000: d922 3cbd eb46 e7bb e2e5 993c 7b68 483d
00000010: 60dd 5e3d 6834 11bd a9ae b43c bac2 c53c
00000020: 52de 8c3c f690 73bc c9b8 dbbd 12f9 28bd
00000030: d2c2 813d b3d6 073d f91d cdbc 741b e53b
00000040: 9d76 ac3c c7fd acbd 53f9 563b 0b0b e43c
00000050: 72cf 09bd bf5a 943b 606a 263d 6cb6 dcb8
00000060: 0840 77bc 7eea 27b9 da10 113d 4aaa e83c
00000070: 28ce 8c3c dddd 823d b8a5 8f3c 12cf 193d
00000080: ee36 973d ecbb b1bc 497b 213c 7528 7a3d
00000090: 38d7 443d 37be 033b 5125 cebb db6d 4b3d
000000a0: b402 8e3d ac9b 80bc 6c30 f7bc 0106 773d
000000b0: ba47 dabb b817 a0bc 4008 4cbd 623e 9a3b
000000c0: 91a2 56bd 8627 1dbc f669 30bd 32c9 4ebd
000000d0: edd5 4fbd 9344 d43c f1a2 363b 03e6 f83c
000000e0: 286a acbc ec20 47bc 0db9 0b3d 58f9 c53c
000000f0: 0b7a a0bc 9890 86ba 5bc3 afbc 7e9b d13c
00000100: e2a4 07ba badc a73c 96cd fabc bb35 4e3d
00000110: f6e6 6ebd 4029 fb3c 79dc 8a3c d3c9 72bd
00000120: 9e2b 123d 4e14 2f3c 31ce e43c e065 213a
00000130: a911 0fbc 7f83 e1bc 3216 613d 69a5 0f3c
00000140: bdac 3ebb 1897 b5bc dda6 6a3d afd2 fe3b
00000150: 813d a23d db8e a03d c098 b93d a19f 433d
00000160: 82c6 21bc 83f6 56bc 5493 d4bc 6ff7 633d
00000170: 6aa0 df3b aa0f 923c 4859 fb3b fbec 8f3c
00000180: f7ac a13c cc14 733d d335 c3bc b88e d7bd
00000190: ee98 b93c 3f4c d83b 9092 03bc 9380 0f3d
000001a0: fa13 82bd 80d5 50bd 1d95 7a3d 9944 173c
000001b0: 92c5 ab3b b9ed 02bb 8544 02bc dc84 1f3d
000001c0: 8a0b f13c 2673 203c 3350 56bc 7c62 22bc
000001d0: f89a d43a 0d09 eb3c b895 8abc 99b4 953c
000001e0: 79c2 383c fefb a43c 4e57 233d 41bd e53b
000001f0: f60d 88bc e3a4 0cbd 46e8 aabc 4ef7 df37
00000200: 2694 0ebd a223 173d 030e 7fbb 60a1 553c
00000210: d853 37bd 04b3 3bbd b6e7 61bb b822 03bb
00000220: 95f0 03bc a98f 4abc 4f6f aebb e3f0 babc
00000230: e529 02bd f1c8 68bd 9ac1 3bbd fa46 25bd
00000240: f407 e4ba 110c b23c 3bd2 093d a941 12bd
00000250: 00d1 cbbc 41da 1c3d 8bf5 32bd a8ce 11bd
00000260: bdce e4b9 a385 c5bc a32a c2bc bdc5 333d
00000270: 34d7 2ebd 95b0 593d 4945 6abc 9255 a93c
00000280: 0fa5 16bc d575 fd3c c00d 96ba d071 48bc
00000290: 2ff2 e43c 5ec4 24bd f9cc 363c 6e98 cc3c
000002a0: 3557 a5bc b9e0 4cbb 47c7 af3a 36dd 743b
000002b0: e7e1 de3c 59a0 afbb afeb 1b3b dbf8 763a
000002c0: bdc1 a33c 4454 e8bc 3fb0 8fbc b6c2 3f3d
000002d0: 4051 6f3d 1efe c73c 7166 533d 1a98 843c
000002e0: 55f9 92bc ef0e 343d ba6d 6d3d 04c1 1c3d
000002f0: dec5 9e3c 7103 eabb 46bd 353c d942 1cbd
00000300: a8ec fdbb e74b 85bc 0c8d fcba c64e fabc
00000310: e6d6 ad3a 714d 37bd 20ea dabb da26 03bd
00000320: 87d8 24bc ff32 413c 019e ab3c 0aee 5bbd
00000330: 2050 c5bb d390 eb3c 1075 8c3c 7ffb 11bd
00000340: 6b3e c93c 9aed 7d3c e6f8 37bd a78e 89bc
00000350: 655c c3bc 9169 2b3d 8af1 2d3d 75fd 933c
00000360: 00bd 433c f4a7 253d 11b0 9a3b cc33 84bc
00000370: 749b e1bb 9bba 983c ec90 993c 5978 5c3d
00000380: 2c8a d4bc a934 33bd 645e 19bd b036 89bd
00000390: e87f 09bd a55e 753d 8d04 453d ee96 c8bc
000003a0: 737a 273d bbee d8bc d84c 0ebc 4d6f 953b
000003b0: 436b 4cbc bafa 643b b2a5 43bd 102a 183d
000003c0: 65fa 933c 12dd 1d3d a1b7 9cbc cf09 41bd
000003d0: d7cd da3c d12b cf3c 93b3 19bd a7af 313d
000003e0: 42af 023d ece6 54bc 4ed9 cd3b 34d8 f13c
000003f0: 5fd3 57bd 6d99 4fbd 7ea1 43bd aedd e5bd
-0.04593167 -0.0070580146 0.018786374 0.048927765 0.05441034 -0.03545037 0.02205594 0.024140704
0.017195854 -0.014866104 -0.10728604 -0.041253157 0.06335987 0.033163738 -0.025038706 0.006991798
0.021052653 -0.08446842 0.0032802417 0.027837297 -0.0336451 0.0045274193 0.04062879 -0.00010524396
-0.01509095 -0.00016013716 0.03541646 0.028401513 0.017188147 0.06389973 0.017535076 0.037550993
0.07383524 -0.021696053 0.009856054 0.06107374 0.04805681 0.002010239 -0.0062910696 0.049665313
0.06934109 -0.01569923 -0.030174457 0.06030846 -0.0066613825 -0.01954256 -0.049812555 0.0047071436
-0.05240113 -0.009591943 -0.043069802 -0.050484844 -0.050741125 0.025911605 0.0027868117 0.030383116
-0.021046713 -0.012153845 0.034112025 0.024166748 -0.019589445 -0.0010266481 -0.021455457 0.02558684
-0.0005174411 0.020490993 -0.03061561 0.05034421 -0.05832573 0.030659318 0.016950833 -0.059274506
0.035686128 0.010685993 0.027930351 0.0006156843 -0.008732238 -0.027528523 0.054952808 0.008767464
-0.002909466 -0.022166774 0.05728804 0.0077765803 0.07921887 0.078397475 0.09062338 0.047759656
-0.009873988 -0.013120296 -0.025949158 0.055655893 0.006824543 0.017829735 0.0076705553 0.017569056
0.019735796 0.059346005 -0.023829376 -0.10525268 0.02265593 0.006600886 -0.008030549 0.035034727
-0.063514665 -0.05098486 0.06117736 0.009232664 0.005242058 -0.001997812 -0.007950907 0.038945064
0.029424448 0.0097930785 -0.013080644 -0.009911176 0.0016220501 0.02869084 -0.016917095 0.018274592
0.011276835 0.02013969 0.039878182 0.007011086 -0.01660822 -0.034336936 -0.02086271 2.6698832e-05
-0.034809254 0.036899216 -0.0038918264 0.013038963 -0.044757694 -0.04582502 -0.0034470386 -0.0020009708
-0.008052965 -0.012363353 -0.0053233276 -0.022819942 -0.031778235 -0.056832258 -0.04583893 -0.04035089
-0.001739739 0.02173427 0.033647757 -0.03570715 -0.024879932 0.03829408 -0.0436912 -0.035597473
-0.0004364158 -0.024111575 -0.023701971 0.04388975 -0.042685702 0.053146917 -0.014298745 0.020670686
-0.0091946265 0.030939976 -0.001144819 -0.012234166 0.027947513 -0.040226333 0.011157268 0.024975028
-0.020183185 -0.0031261875 0.001341083 0.0037363297 0.027207328 -0.005359691 0.0023791601 0.00094212376
0.019989843 -0.028360493 -0.017540095 0.04681655 0.058427095 0.024413165 0.051611368 0.016185809
-0.017941156 0.043959554 0.05796597 0.03827001 0.01938146 -0.0071415235 0.01109249 -0.03814969
-0.007749159 -0.016271545 -0.001926811 -0.03055514 0.0013262897 -0.04475159 -0.006680742 -0.032019474
-0.01006139 0.011791944 0.020949366 -0.05369381 -0.0060215145 0.028755581 0.017145663 -0.035640236
0.024565896 0.015498543 -0.044915102 -0.016791655 -0.023847768 0.041848723 0.042466678 0.018065194
0.011946917 0.040443376 0.004720696 -0.01613798 -0.0068849865 0.018643668 0.018745862 0.05382571
-0.025944792 -0.043751393 -0.037443534 -0.06699884 -0.033569247 0.059904713 0.048100043 -0.024486031
0.04088826 -0.026481023 -0.008685313 0.004560387 -0.012476745 0.0034939484 -0.04776544 0.03714949
0.018063733 0.038540907 -0.01913053 -0.047128495 0.02670948 0.025289448 -0.03752477 0.043380406
0.03190542 -0.012994509 0.0062820083 0.029522039 -0.052691814 -0.050683428 -0.047761433 -0.11223923

body.1.conv.bias f4 [49]
00000000: e17f b93c 5018 41bc 2909 6d3c bbe8 99bc
00000010: 8a28 1cbb d134 18bd e91b 01bd ab91 0ebd
00000020: d6da 1abd 9b76 143c 09b8 3e3d bd3a fb3b
00000030: 675c 36bd deff 3f3c 6fbd 79bb af57 9ebc
00000040: 003b de3c 26f3 00bd 2da5 7dbc 9188 c1bb
00000050: e099 e1bc 4490 bbbb c0f7 4e3d a062 89bc
00000060: 4c23 10bb a50c d93c c8d1 26bd 2347 50bc
00000070: 1607 18bc e0ac 8f3c 85d5 09bd 5b2e 063d
00000080: f260 a2bd 2db7 9b3c e550 ae3c cbbb b23c
00000090: 1c52 f33c f5ea 32bd e0b8 153c 5ed1 8e3c
000000a0: 6278 60bc 60cc 65bc 4f70 38ba d41a 41bd
000000b0: 5a6e 2bbd adc1 65bb ac7a 8e3b 0fd3 17bd
000000c0: 132d 37bc
0.022643985 -0.011785582 0.014467516 -0.018787732 -0.0023827874 -0.037159745 -0.031520758 -0.03480689
-0.037806354 0.009061481 0.04656223 0.0076669143 -0.044521715 0.011718718 -0.0038107296 -0.01932892
0.027127743 -0.031481884 -0.0154812755 -0.0059061726 -0.027539194 -0.005723985 0.05052924 -0.01677066
-0.0021993695 0.026495287 -0.040727407 -0.012712273 -0.009279033 0.017538488 -0.033650894 0.03275905
-0.07928647 0.019008243 0.021278808 0.021818062 0.029702239 -0.043681104 0.009138316 0.017433818
-0.0137005765 -0.014025778 -0.0007035778 -0.047144726 -0.041853286 -0.0035058067 0.0043481197 -0.037066516
-0.01118018

body.2.conv.weight f4 [49, 49, 3, 3]
00000000: 3a32 3fbd 3574 16bc 3d63 8fbd a0fe 9dbd
00000010: 6e48 b4bc 083f 05bd b78f b2bc 70e9 5abd
00000020: 07ac 74bc 83ec 0abd a641 83bc c4a9 42bd
00000030: 670a c33c 7afc 7dbb a904 16bd 1344 a63a
00000040: 60e8 06bc 7c18 993c fe79 38bd cc50 44bd
00000050: 8495 07bd 0e41 7c3a c7ab a53b b2a1 c5ba
00000060: 0829 e73b cad3 f33c c40c 70bd 23cf 803c
00000070: 0281 91bd 77e6 1ebc 61da 273d 1eb2 9ebd
00000080: d512 07bd 7c1c 933c c6a4 703c 9dc1 f3bc
00000090: ad32 043d 39da 86bc 4d3a 9f3b e02e 2b3d
000000a0: ca9b e9bc 840f e83c 244c 43bd 185c 11bc
000000b0: 02fb b33c 3538 50bd 177a c9bc 22a2 81bb
000000c0: 4404 973c 2a6e 9ebd 5fff 40bd 16ea 59bc
000000d0: 6cfd b83c c98b 14bd 28d0 353d 0a87 983d
000000e0: 0af1 ee3a e311 e3bb de26 d2ba 6458 a2bb
000000f0: 83bc beb9 e5ac b73d 85c0 9bbc 8586 5e3d
00000100: 253e f63d 15f9 813d 2c09 fe3d 4092 c93e
00000110: 6e96 fd3d 102a 43bd acb0 713b 3b07 5bbd
00000120: 17b5 8b3d 27f1 2e3d a962 123d 2e74 b739
00000130: 17e8 323c c28a cc3b 32d5 7b3c 6313 753d
00000140: 982c 9fbc ec0d 96bc 43c1 14bd 88a9 6c3c
00000150: e465 b93c 5722 0c3c 0042 cbbb aa47 353c
00000160: eba0 593c 88b8 b33c 380a 753c 6125 783d
00000170: 6bab ff3d b26f 6a3c c8a1 40bd 89e8 4b3d
00000180: d67e 043d 1beb 07bd c973 d83c 289c 7a3c
00000190: 36a0 273d b027 cd3d 0d2a a03c 3066 65bd
000001a0: 4f97 353d 821c 463b 5353 2ebd 9c92 253d
000001b0: bca9 2c3d da8b 93bc d2cb 28bd 13bf 37bb
000001c0: 0fb6 0939 fab4 873b bb93 0a3d 4047 b13c
000001d0: ce3f 26bd 4d03 a8bc aefc 883c 25c6 97bc
000001e0: d3b9 12bd 30c4 063d 01bf a53c 2463 dbbd
000001f0: dfeb 47bd 2582 97bd 0779 093d c797 cf3d
00000200: ee76 82bc 78fa a0bc 0f49 3a3d 05d5 7dbd
00000210: 8d72 743d 55b2 5d3d 46ca f73c 8090 efbc
00000220: bc52 a33b 4bf8 16bd dc28 533c e134 91bc
00000230: 8bea 26bd 0cd3 e23b b912 b13b 54d7 a23c
00000240: 8fdf 2ebd 387f 723d fc5d 0bbd c05d bcbc
00000250: 9b61 823d a702 45bc 4645 dbbc 589e 39bc
00000260: 3f06 74bc e762 45bc 5d87 b53c 1983 8abc
00000270: cd25 01bd cb9b 503b 2f35 f93c 71fd 8d3c
00000280: 3b5a e43a 1190 e9bc 2dcd cb3c b467 c43a
00000290: 36dd a2bd 9ef4 abbc 212a 8b3d 44b6 59bc
000002a0: 83c9 77bc 40a7 9b3d 5039 4fbc 5042 173d
000002b0: 2ea1 813c e7cc 3fbd b3e5 653d ebaa a33d
000002c0: 2a7a 61bd da9d 853c 0db5 c23b a342 92bd
000002d0: 2a43 86bd 2c00 d4bc 6aa7 21bd 3ea3 5b3d
000002e0: f3c9 8a3d af7a 893c c2a0 babd 76d2 51bd
000002f0: 03af 0cbd 48fe 633c 7597 cfbb 61fe 923d
00000300: 6b09 42bb 5c47 5cbd aa46 cb3d cd40 c73c
00000310: d342 c23c b730 9b3d 1139 94bb 026f fabc
00000320: 352f efbb c9a9 90bc 0ecf 033c 0b37 9e3c
00000330: be62 07bc 18ba 263c 724f 3d3d 4381 df3b
00000340: f034 f2bc 55a0 2ebc 853e 44bd db23 de3c
00000350: 17f1 89bc fbdf ee3c b105 1c3d e7b9 1abd
00000360: a1a8 a43c 9837 0d3c c93c d63d 6b9c afbd
00000370: 91cd 77bd 4232 cb3c ed55 82bc 4ca9 e5bd
00000380: 1133 bfbc d16e 7b3c f2bd 813b abeb b7bb
00000390: dc9c 663d c1b3 b93c cf6a eabc 51da dfbb
000003a0: f562 ebbc d1ce 123d d818 db3c 0efa 6dbd
000003b0: 6ae1 63bc 844e d2bb d6e1 ecbb f725 943c
000003c0: ddbf 303d 8da8 26bd 4e7d 09bd 3ee5 fb3b
000003d0: e8d6 05bd 4ea1 eb3c 191a b43c 8912 3e3d
000003e0: b928 d1bc 18d1 823d 0ade 1f3d 0d31 d63c
000003f0: 4a4c 20bc 2fc1 813d 982a 6e3d 40c6 883d
-0.04667876 -0.009182979 -0.0700135 -0.077145815 -0.022007193 -0.032530814 -0.021797044 -0.05344528
-0.014933593 -0.03391696 -0.016022515 -0.047525182 0.023808671 -0.0038755224 -0.036625538 0.0012685083
-0.008234113 0.018688433 -0.045038216 -0.047928616 -0.033101574 0.0009622731 0.005055878 -0.0015078096
0.007054452 0.029764075 -0.058605924 0.01572377 -0.071046844 -0.009698502 0.040979747 -0.07748817
-0.032976944 0.017957918 0.014687723 -0.029755408 0.03227489 -0.016461479 0.004859245 0.04179275
-0.028516669 0.02832771 -0.047680035 -0.0088720545 0.021970276 -0.050834853 -0.02459435 -0.0039560953
0.018434651 -0.07735856 -0.04711854 -0.013300439 0.022581778 -0.036266122 0.044387966 0.07447632
0.0018229794 -0.0069296225 -0.0016033312 -0.0049543846 -0.00036380076 0.08968524 -0.019012699 0.054327507
0.12023572 0.06346337 0.12404093 0.39369392 0.12382208 -0.047647536 0.0036878986 -0.053473692
0.068216495 0.04271045 0.03573862 0.0003499104 0.010919592 0.006242127 0.015370654 0.05983294
-0.019430444 -0.018317185 -0.03631712 0.014444716 0.022631593 0.008553109 -0.006202936 0.011064449
0.013282995 0.021938577 0.01495605 0.060582522 0.12483867 0.014308857 -0.047029287 0.04978231
0.032347523 -0.0331832 0.026422398 0.01529602 0.040924273 0.100173354 0.019551301 -0.056005657
0.044333752 0.0030229394 -0.042559933 0.04042302 0.04215406 -0.018011022 -0.041210003 -0.0028037473
0.0001313316 0.004141447 0.033832293 0.02164042 -0.040588193 -0.020509386 0.01672205 -0.0185271
-0.035821747 0.032901943 0.02023268 -0.10712269 -0.04880893 -0.0739787 0.033562686 0.10136371
-0.01592585 -0.019650683 0.04547983 -0.06197073 0.059679557 0.05412515 0.030247819 -0.029243708
0.004984228 -0.036857884 0.01288816 -0.01772541 -0.04075102 0.0069221314 0.0054038432 0.019878067
-0.04269367 0.059203357 -0.034025177 -0.022993922 0.06366273 -0.012024558 -0.02676643 -0.011329256
-0.014894067 -0.012047506 0.022159273 -0.016908215 -0.03153019 0.003183114 0.030420868 0.017332764
0.001742191 -0.028511079 0.024878109 0.0014984519 -0.07952349 -0.020990666 0.06795145 -0.013288084
-0.015123728 0.0760026 -0.012647942 0.036928475 0.015823927 -0.04682627 0.05612726 0.079915844
-0.055048145 0.016310621 0.005941993 -0.07141616 -0.06555779 -0.025878988 -0.0394663 0.053622477
0.067768 0.016782133 -0.09112693 -0.0512261 -0.03434659 0.013915606 -0.0063351938 0.07177425
-0.0029607664 -0.05377899 0.099255875 0.024322892 0.023713505 0.07577651 -0.0045234044 -0.03057051
-0.0072993287 -0.017659085 0.008044971 0.019313356 -0.008263288 0.010176204 0.046218343 0.006820829
-0.029566258 -0.010658343 -0.047911186 0.027116707 -0.016838593 0.029159537 0.038091365 -0.037774947
0.02009994 0.008619212 0.104608126 -0.08574756 -0.060498778 0.024804238 -0.015910113 -0.112139314
-0.02333978 0.015346245 0.003959411 -0.0056128106 0.056301937 0.022668721 -0.028615383 -0.0068314453
-0.02873371 0.035841767 0.026745245 -0.0580998 -0.013908723 -0.006418051 -0.00722907 0.01808451
0.043151725 -0.040688086 -0.033566765 0.00768724 -0.032675654 0.02876344 0.0219851 0.046404395
-0.025532113 0.06387538 0.039030112 0.026146436 -0.009783814 0.06335675 0.05814609 0.06678438

body.2.conv.bias f4 [49]
00000000: e3d5 3c3c df4a 2fbd f151 ddbc de10 343d
00000010: 9fb4 c83b 75e0 49bd 1c2e 08ba 0069 1cbd
00000020: b1ca 103d dae9 17bc edbe 3ebd 6116 59bd
00000030: 547d 273c 2b5c 8fbd 8d34 9c3c f931 07bd
00000040: 5443 52bd 1c26 09bd 5e7d 27bc 48ac bdbb
00000050: 5e50 703c 30b1 fb3c 3932 0a3b 369c 93bb
00000060: f204 df3c 2507 e2bc 4bf8 e3bc 89fd a33c
00000070: 9b8d 663d 7e42 b43c 8a7a 613b b8d3 9b3a
00000080: 1ec2 8b3c bdcc 56bc d9e6 24bc 3605 09bd
00000090: 0bd8 8dbc 35d3 d8bc 1012 1ebd 0321 cc3c
000000a0: 2b29 a03a cdf4 6abd 09be 8abd 54fa bebc
000000b0: 01dd 94bb 56bf 433d aed7 97bc 8e3a 81bb
000000c0: 0cb7 323d
0.011525604 -0.042796012 -0.027016612 0.0439614 0.0061250473 -0.049286325 -0.0005194859 -0.038186073
0.03534955 -0.009272063 -0.0465688 -0.052999858 0.010222752 -0.070000015 0.019068027 -0.033006642
-0.05133374 -0.03348361 -0.010222761 -0.00578836 0.0146675985 0.030724138 0.0021087064 -0.004504706
0.027224038 -0.027591297 -0.027828356 0.020018356 0.05628739 0.022004362 0.0034405314 0.0011888659
0.017060336 -0.013110337 -0.010064804 -0.033452235 -0.017314931 -0.026467899 -0.038591444 0.024918085
0.00122193 -0.057362366 -0.067745276 -0.023312725 -0.0045429473 0.047789894 -0.018535461 -0.003943748
0.0436316

body.3.conv.weight f4 [48, 49, 3, 3]
00000000: 310c 8239 f6cf 193d daf5 553d ffbe dfbc
00000010: 046f d1bd 63da c03d b742 683d 82aa 56bc
00000020: 236b ee3c 5940 b1bc 0b1e d93c 5a60 1c39
00000030: 39b6 21bc 4d44 283d 15c2 9abb 06df ba3c
00000040: f417 06bc 1f69 3abd 9f36 423c ca97 623c
00000050: 66db 2e3d b2df 683d f368 b93c 9fbe 0abd
00000060: 1db3 723c 222b 913c f98e 79bd a5fe e2bc
00000070: 9377 543d 8c69 d33c 5842 d63d 75d0 4a3e
00000080: 762a a5bd 84ff 933c 6100 7d3d 5542 253d
00000090: 165b 2a3c 2c25 ecbb 1581 0b3c 9be7 cebc
000000a0: 95d9 2b38 6e99 ccbc 5dc2 a53b 4f8f e4ba
000000b0: 5c69 01bc 7856 bebd 459b 77bd 392c a7bc
000000c0: bd79 2bbd 3d9a 0bbd ce5c cb3a fef5 c3bb
000000d0: f751 8ebd cb06 54bb 157c 86bb 491d f43b
000000e0: f9ff 2cbd 44b1 343d b0a1 1c3e 8f4e 803c
000000f0: e841 7abc 79ce 13bc a448 9f3d 8c85 703c
00000100: 337f 9bbc 9c8d a7bb 8ae2 253d 354b 4c3c
00000110: c66c ddbc 4e3b dfbb 2188 af3c 7a65 c33c
00000120: d5c5 0b3d c85e 3cbd 0c82 7ebc 6915 c2bc
00000130: fc63 43bd 7c87 663d b96b 3c3d 9c18 0fbc
00000140: 155a bebc 3403 d43c 0ef6 473c 8a41 d83c
00000150: dfe7 6b3d c739 ef3c 948e 6bbc 2984 5bbc
00000160: 9308 dd3c 0276 613d 0b2f 0ebd c0f8 fcbc
00000170: cc55 0e3c 03cc 703c 5bea af3c 7b16 0c3a
00000180: 877a b3bc d45c 213c 8ff7 a83c 8c37 bdbc
00000190: 6edf 71bd a398 1fbd 6a9e 663d 17e1 1bbd
000001a0: 4f18 bfbc d9e0 4e3d 1ed9 f2bd 2a05 893c
000001b0: c4a4 083c 9d8d 8abd a1b0 873b 4286 ecbc
000001c0: 38ad 1a3d ad4a 52bd 638b 2dbc 97db ab3b
000001d0: 4be6 21bc 564e 213d 58f4 a1bc 17d9 ca3b
000001e0: 7b8b 3fbd 0b8a c5bc 0c66 1ebc 9434 2d3c
000001f0: 8c80 20bd 692f 20bc 584e 7d3d 98bf 66ba
00000200: d6ff 5f3c cedb 833d 9b46 ad3d 12ef 08bc
00000210: 400b c9bd 618b 283d d583 b73c bdde cf3c
00000220: e0f2 57bd d9d9 4dbd 9e1b 763d a03e 163d
00000230: 91a7 e2bd 66fa 503b 939c 78bb 3c7d 4a3b
00000240: 00cb 0b3e ebfb 613d 6b7d ba3d c6fc f73d
00000250: 3514 c5bd 991f 55bd ce62 b0bc 67f8 463c
00000260: 1a07 5dbd 6cd9 13bd 7cf4 c2bd 24f7 cbbc
00000270: 62ea 9abd ec49 dfbd 04bd aebc 1ba4 3dbd
00000280: b6e7 fdbb 0a04 173d 89ce 503c 5ef3 95bd
00000290: 54c1 ec3c 869d 0b3d bc89 b5bd 01c5 893c
000002a0: f938 1abd 2f8b 40bc 7d15 8e3d a883 18bb
000002b0: 71f4 943c f52a 38bc 94b6 453d 000a 7f3d
000002c0: b029 4fbb 42cc 3db9 26b0 7fbd 2cb4 4dbd
000002d0: 0af5 b83d fba7 b53d 827f 11bd e1cd f03d
000002e0: 9b7b 5f3e 217f 413d 6639 9c3c bb9f ccbd
000002f0: 9b70 c63d 5883 073c a35f 093d 7465 5bbd
00000300: 8be4 cb3c 6394 1e3d 19ed 1abd d11b ae3c
00000310: 7921 923d fa87 713d 8e27 233e 2cf6 513b
00000320: b376 233c 15b7 fc3c f53a 743d a494 b8bd
00000330: 920f fd3c d7d0 2fbd 8cb2 8b3d d16e 92bc
00000340: 9bfe ebbd e4db 2ebc c1d2 053c 8a5f 4fbc
00000350: 5c81 a33c efc4 163c ae0b 253d 7b05 f43b
00000360: e080 f23d 9f1b 3e3e 891f bd3c 7db5 df3d
00000370: 5321 c2bd 35bd 543e a94a 363d 83f9 a03c
00000380: 251d 003e 2e19 5bbd 76af 3f3c 5755 3dbc
00000390: 776b 66bd 3a06 fc3c ab16 aa3c 276e e6bc
000003a0: c171 3fbd 1f27 1b3b 163b 67bd 34fd 473d
000003b0: b28b 7c3b 5e39 75bd abda 0e3d dabf 17bc
000003c0: 0d2e 85bb 259e 76bd c376 043c 41aa 10bd
000003d0: 9344 8cbd ad1e 183d f07c f33d 55d3 323e
000003e0: c0ad 39be 84e1 453c fb33 afbd 26c8 013d
000003f0: bc00 74bc d7b8 26bd 31f9 34bd fd04 6ebd
0.00024804616 0.037551843 0.052236415 -0.027312754 -0.10226253 0.09416654 0.05670425 -0.013102176
0.029103821 -0.021637129 0.026503583 0.00014913213 -0.009870105 0.04108076 -0.0047228434 0.022811424
-0.008184422 -0.045510408 0.011853843 0.013830135 0.042689703 0.056853957 0.022633051 -0.033873197
0.014813212 0.017720763 -0.060927365 -0.027709315 0.051871847 0.025807165 0.10461873 0.19806083
-0.080647394 0.018066175 0.06176794 0.040346462 0.010397693 -0.0072065797 0.008514662 -0.025256922
4.0972216e-05 -0.024975505 0.0050585703 -0.0017437729 -0.007898655 -0.09293836 -0.06045081 -0.02040683
-0.041864146 -0.03408264 0.0015515329 -0.0059802523 -0.06949227 -0.0032352682 -0.004104147 0.00744978
-0.042236302 0.044114366 0.15296054 0.01566246 -0.015274502 -0.009021395 0.07777527 0.014680278
-0.018981552 -0.0051133167 0.040499248 0.012469103 -0.027029406 -0.0068124896 0.021427216 0.023852099
0.034124214 -0.045988828 -0.015533935 -0.02369185 -0.047702774 0.05628155 0.04600117 -0.008733895
-0.023236314 0.025880434 0.01220466 0.026398439 0.057594176 0.029202355 -0.014377255 -0.013398209
0.026981628 0.05504418 -0.034712832 -0.030880332 0.008687448 0.014697078 0.021474054 0.0005343926
-0.021909012 0.009848792 0.020625858 -0.023097776 -0.05905097 -0.038963925 0.05630342 -0.03805646
-0.02332702 0.0505074 -0.11857818 0.016726095 0.008340064 -0.06765292 0.004140929 -0.028872613
0.03776285 -0.051340748 -0.010592314 0.005244683 -0.009881566 0.039381348 -0.019769832 0.00619043
-0.04676388 -0.024113676 -0.009667885 0.010571618 -0.03918509 -0.009776928 0.061842293 -0.00088023534
0.013671836 0.06438409 0.084607325 -0.00835778 -0.09816599 0.041148547 0.02240173 0.025374765
-0.052721858 -0.050256584 0.06008493 0.036680818 -0.11067117 0.003188753 -0.0037935122 0.00308974
0.13651657 0.05517189 0.09105953 0.121087596 -0.09622995 -0.052032087 -0.021531489 0.012144185
-0.05396185 -0.03609602 -0.09519288 -0.02489812 -0.07564236 -0.10902771 -0.021330364 -0.04629908
-0.0077485694 0.036869086 0.012744554 -0.07321809 0.02890078 0.034085773 -0.08864161 0.016817572
-0.03765199 -0.011751934 0.06937692 -0.0023271833 0.018182965 -0.0112407105 0.048269823 0.062265396
-0.003161054 -0.00018100537 -0.062423848 -0.050220653 0.090311125 0.0886993 -0.03552199 0.11758018
0.21824495 0.04724038 0.019070338 -0.09991404 0.096894465 0.008271061 0.033538472 -0.05356355
0.024889251 0.03871573 -0.03782377 0.021253498 0.07135291 0.058967568 0.15933058 0.00320376
0.009977031 0.030849019 0.05962654 -0.09012726 0.030891214 -0.042923775 0.068211645 -0.017875107
-0.115231715 -0.010672543 0.008167923 -0.012657056 0.019959144 0.009202226 0.04029434 0.0074469424
0.11840987 0.18565224 0.023086326 0.10923288 -0.09479012 0.20775302 0.044504795 0.019650226
0.12511118 -0.05349081 0.011699548 -0.011555991 -0.05625483 0.030764688 0.020762762 -0.028128697
-0.046739344 0.002367444 -0.056452833 0.048825458 0.0038535413 -0.059869163 0.034876507 -0.00926205
-0.0040643276 -0.060209412 0.008084956 -0.035318617 -0.06849017 0.03713863 0.11889064 0.1746343
-0.18132687 0.012077693 -0.08554836 0.031685017 -0.014892753 -0.04070362 -0.04418296 -0.058110226

body.3.conv.bias f4 [48]
00000000: cf72 003c 8f60 80bc 5345 573d a8a7 e5bc
00000010: 3060 35bc b158 143b 1965 243d d9a4 29bc
00000020: 1eb2 27bc e07d 27bd 84bb fd3c ad18 b53d
00000030: ff6e 0ebb fc70 8bbc b4bb 29bd 78a2 a6ba
00000040: 131e bd3c 050a 6cbc 3fe4 27bd e369 8abc
00000050: 0c05 eabc 7820 36bd dbef 3bbd edbb 9dbc
00000060: c836 c4bc cfe5 853d 60d7 7d3c 6cfb 8e3c
00000070: bcbb 863c 7c57 d1bc d895 833b a104 e2bc
00000080: ba12 98bc f8cf 4fbd baff 4f3c 8226 9c3a
00000090: e8b4 ebbb f151 66bc 595c cbbc 4b08 26bd
000000a0: cefa 12bd ebc7 cf3b 9ad7 99bd 4e8f c7bc
000000b0: 7b3d c3bd 60ea 97bc 45c3 3d3d 8569 a939
0.0078398725 -0.015671043 0.052556347 -0.028034046 -0.011070296 0.0022635872 0.040135477 -0.010354244
-0.010235338 -0.040891528 0.030973203 0.08842597 -0.002173364 -0.017021649 -0.041438773 -0.0012713214
0.02308563 -0.014406686 -0.040989157 -0.016896194 -0.02856686 -0.04446456 -0.04588304 -0.019254649
-0.023951903 0.06537973 0.015493244 0.017453872 0.01644694 -0.025554411 0.0040156655 -0.027590098
-0.018563617 -0.050735444 0.012695247 0.0011913332 -0.0071931966 -0.014057622 -0.024824308 -0.040535253
-0.035883717 0.0063409708 -0.07511826 -0.024360325 -0.09533211 -0.018544376 0.0463288 0.0003231281

body.4.weight f4 [48, 48, 3, 3]
00000000: 26cd 243d f9b3 ae3d b403 463c 9c84 253e
00000010: 17bb f8bd 6450 2dbd 977a 813b f141 c4bc
00000020: 6003 d5ba 3415 443c b81d dd3c f7e6 11bc
00000030: 9a7a bf3a 6a27 c43c 6bb9 98bc 908b 213d
00000040: faea 35bd 9a48 35bc f8ae d0bb bfc2 e63c
00000050: 2c99 b43b 0cd7 bc3d e493 c73d 725f d6bc
00000060: e93a 473d 2cd1 223c 557b 1f3d 8747 253d
00000070: 623d 523b dfcc 503b f8dc e33c f9a5 b53c
00000080: 50c2 fbbc bc8a f63b 32d5 26bd d008 92bc
00000090: 9c0d bc3c 125d f83c ab30 6fbc 7e11 4e3b
000000a0: 4457 fcbc 67ea 92bc 8406 9abc 4a00 7a3d
000000b0: 5273 ffbc f63c 62be 1ba8 2f3d 8b64 9e3c
000000c0: a5ec b03c bf37 143c 55d5 8a3c e140 863c
000000d0: 654e 043b 333f 243c 6723 3fbc 1187 3dbd
000000e0: e823 063c fc9d c6bc 6825 bb3c 6953 3f3b
000000f0: 86ef 263c e706 3cbc ab8c f23c e322 4cbd
00000100: 9254 e7bc 7eab 083c 2c18 b33c fe42 2abd
00000110: 03dd 053d c1b1 a83c 40cc 0d3d be88 403d
00000120: 87f8 7d3b 9c0f 7abb 24bb 53bc c4c5 013d
00000130: 7076 7dbc ec66 cebc c2c5 ddbc 7219 18bc
00000140: 7d3d 2fbc c8d5 f0bd 5ada 283e 948b 3e3c
00000150: 03a0 a23d 540b 3cbe 5156 e33c afbe 5d3c
00000160: 6b86 dc3b 2a54 d2bb ec57 f2ba a86c d7bc
00000170: 6371 3b3c 1adb 03bd c49d 54bc 2f64 e6bb
00000180: b54b 95bb 8c40 db3b 2743 8f3d c563 a43c
00000190: 13b7 fcbd 3589 c93b 443f 06be 52a6 07be
000001a0: 984c 19bd 8f73 603d 04f4 443b 98da 273d
000001b0: 8a19 dd3c 1b1a 78bc ecb3 273d d0e4 2fbc
000001c0: 9830 833c 7b53 1abc a3d6 f2bc fa45 b63c
000001d0: 41c7 a43c 218b 2e3d e804 21bd 8a34 613c
000001e0: 4538 ab3d ccba e1bc 74a4 19bc 120c 8a3d
000001f0: ad94 26bd cd04 703c 536d 21bd d4cf 89bc
00000200: b62e ba3c 484a 38bc 2254 b7bc e205 043d
00000210: e16c f13c 82a0 e0bc bf75 fcbb cd1a f3bc
00000220: fa21 7b3c 0c31 d83b 8cca 2cbd 7c4b ccbc
00000230: c6ad 033c d80e 483d 3ede 5d3c e53e 82bc
00000240: 76c2 013d 398b 8d3c 44da 80bb a434 323c
00000250: 1d4a 10bd 9463 563c b8ec a2bc 99d5 bdbb
00000260: 303a 013d 2da7 a5bc 8cac 86bc 33db 85bd
00000270: e83d 143d 77cc 43bb f920 86bd 37a8 23bd
00000280: 3c41 60bd cccc 22bb 7d94 fabc ab48 44bc
00000290: 6249 a83c 6200 0bbd 2aa7 383d 25ac 58bc
000002a0: 98ed 1dbc d214 15bc b78d 273c fe2c 253d
000002b0: 80ef 1b3d c36b eabb d17d 8abc f3a6 a6bb
000002c0: bc26 4f3c c3c0 b73b 8440 36bc 4a06 d63b
000002d0: 60a9 79bc b42f e5ba e922 943b f722 51bd
000002e0: 9b47 223c 874f d53c 7cc2 9b3c a02f 833c
000002f0: bc0c abbb fad3 a1bc b21b e73c de25 90bc
00000300: 10ab 3bbd e66c 75bc 9fdc 803c 803a c63c
00000310: acb7 f23c 3065 363c 8a87 e23c 60bb 6bbc
00000320: 669e ddbc 197e 2e3c 1e29 cf3c f96e 51bc
00000330: 2142 5f3c dbc4 0ebd b434 4b3c 44a6 263c
00000340: e43b 8f3d 3257 d8bb a62a 8c3c dfaa 6e3c
00000350: 7e90 b0bb 1fcf 6f3c b977 2abb 9e6c 6bbc
00000360: fd26 223c d124 16bb 4bbf 553c 0e61 83bb
00000370: ce15 bd3a bb63 873c 727f e0bb dc35 56bd
00000380: a0f7 233d d15a 943b 5836 013c b001 833c
00000390: 6b46 14bd 2723 e13b 48e5 373c dc9c adbc
000003a0: b8ed aebc ec9d 8c3c b913 0c3b 0650 17bd
000003b0: 16d9 e4bc e30d 4dbd b1d2 883d f4ec 7e3d
000003c0: bd73 2fbd fc33 403d dc03 34bc 1e50 20bc
000003d0: d264 7e3c 6552 34bc e6d0 27bc 387e 903c
000003e0: 28a0 ec3c a71f ed3b e3c5 943c 0175 3bbd
000003f0: 96b8 efbb 4018 cbba 5fda a9bc 68f7 18bc
0.040234707 0.08530421 0.012085844 0.16163868 -0.121450596 -0.042312995 0.0039513814 -0.023957225
-0.0016251616 0.011967946 0.02699171 -0.008905164 0.0014608682 0.023944575 -0.018643102 0.039439738
-0.044413544 -0.011064673 -0.006368514 0.028169034 0.0055114236 0.092207044 0.09745005 -0.026168559
0.048640165 0.009937566 0.038935978 0.040351417 0.0032080044 0.0031860394 0.027815327 0.022173868
-0.030732304 0.0075238626 -0.040730663 -0.017826468 0.022955708 0.030317817 -0.014599006 0.0031443532
-0.03080333 -0.017934037 -0.018801935 0.061035432 -0.031182919 -0.22093567 0.042884927 0.019335052
0.021597216 0.009046494 0.016947428 0.016388359 0.0020188328 0.0100248335 -0.011666155 -0.046271387
0.008187272 -0.024245255 0.022844985 0.0029194003 0.010188943 -0.011476255 0.029608091 -0.049837958
-0.028238568 0.008341668 0.021862112 -0.041567795 0.032681476 0.020592572 0.034618616 0.047005408
0.003875287 -0.0038156277 -0.012923036 0.031682745 -0.015470132 -0.025195561 -0.027071837 -0.00928341
-0.010695812 -0.117595255 0.16489545 0.011629958 0.07940676 -0.18363696 0.02775112 0.013534232
0.006729891 -0.0064187245 -0.0018489338 -0.026296929 0.011440608 -0.032191373 -0.012977067 -0.007030986
-0.004556144 0.006691044 0.0699523 0.020067105 -0.12339606 0.0061503896 -0.13110071 -0.1324704
-0.03742656 0.054797705 0.0030052671 0.04097995 0.026989717 -0.015142943 0.04094307 -0.0107357055
0.016014382 -0.009419317 -0.029643362 0.022250164 0.020114543 0.042613152 -0.03931132 0.013745436
0.08360342 -0.027554892 -0.009377588 0.067405835 -0.040669132 0.014649582 -0.0394109 -0.016822733
0.022727352 -0.011248179 -0.022378985 0.032232173 0.029470863 -0.027420286 -0.007704466 -0.029675866
0.015327925 0.0065976437 -0.04218535 -0.024938338 0.008037036 0.04884228 0.013541756 -0.015899131
0.031679593 0.0172783 -0.0039322693 0.010876808 -0.03522693 0.013085265 -0.019888267 -0.005793285
0.031549633 -0.020221317 -0.016439699 -0.065359496 0.03619185 -0.002987651 -0.06549258 -0.039955344
-0.054749712 -0.0024841307 -0.030588383 -0.011980216 0.020542804 -0.033935912 0.045081295 -0.013224636
-0.009639166 -0.009099202 0.010226659 0.04032611 0.038070202 -0.0071539595 -0.016905697 -0.00508582
0.012643512 0.005607696 -0.01112378 0.0065315114 -0.015238136 -0.001748553 0.004520763 -0.051058736
0.009904767 0.026038898 0.019013636 0.01601392 -0.005220024 -0.019754399 0.028211448 -0.017596181
-0.045817435 -0.014979577 0.0157302 0.024197817 0.029628597 0.011132523 0.02765252 -0.014387935
-0.02705307 0.010650181 0.02528816 -0.012782806 0.013626606 -0.034855705 0.012402702 0.010171477
0.06993845 -0.0066021914 0.01711018 0.014567106 -0.0053883186 0.014636784 -0.0026011302 -0.014369158
0.009896991 -0.0022910128 0.013046096 -0.0040093726 0.0014426054 0.016527047 -0.00685113 -0.052297458
0.040031075 0.0045274277 0.007886492 0.015992016 -0.03619997 0.0068706456 0.0112240985 -0.02119296
-0.021353588 0.017165147 0.002137406 -0.03694155 -0.027935546 -0.05006207 0.06680811 0.062237695
-0.042834986 0.046924576 -0.010987248 -0.009784726 0.015526967 -0.0110059725 -0.010242676 0.01763831
0.028884962 0.0072364393 0.018160766 -0.04576588 -0.0073157055 -0.0015494898 -0.02073401 -0.00933633

body.4.bias f4 [48]
00000000: 3ba7 c7bb 56aa 90bc 5380 e4bc 52b7 d5ba
00000010: 2378 92bc af58 9cbc 98ab d9ba e039 19bc
00000020: 4f17 0abd 31fa 263b d856 33bc 85e3 e4bc
00000030: 3165 013b 223e 11bc 2615 8fbc 42de f93a
00000040: 8664 abbb 512e 1bbc 0922 073c d9e0 833b
00000050: d6b0 b2bc 1685 4e3c 7ab2 013b eecb d9bb
00000060: 4661 513c 9164 833a c4bf e5bb edf5 513c
00000070: 65e8 36bb 6f1e 4cbc 0be7 9b3c 7316 053c
00000080: 10a9 60ba 07fb f13c 7063 833c 4a5a e739
00000090: 84c0 c03c 390d ea3b dfe0 313b 7b13 c43c
000000a0: 218d a63c ba62 9dbb f25f 103d eac1 9c3c
000000b0: bea4 6dbb 2c22 973c 1cab 6b3c 41ba 983b
-0.0060929335 -0.017659348 -0.027893221 -0.0016305244 -0.017879551 -0.019085256 -0.0016606925 -0.009352177
-0.033713635 0.0025478716 -0.010945998 -0.027940521 0.0019744153 -0.008864911 -0.017466139 0.001906343
-0.005230489 -0.009471492 0.008247861 0.0040246067 -0.021812838 0.012604972 0.0019790218 -0.0066466248
0.012779539 0.0010024478 -0.0070113856 0.012814981 -0.0027909514 -0.012458428 0.019031068 0.008123028
-0.0008570114 0.029538644 0.016038626 0.00044127024 0.023529299 0.0071426895 0.002714209 0.02393507
0.020330967 -0.004803029 0.03524775 0.019135434 -0.0036261524 0.018448912 0.014384057 0.004660875
