model/x4_270_480.onnx (onnx, 436057 bytes, 12 tensors)

stem.conv.weight f4 [49, 3, 3, 3]
000000 87 43 73 3e df 6b de bc 8e 1d ae 3c 88 b8 9e be
       0.23756228 -0.027151046 0.021254327 -0.3100016
000010 a1 90 54 3d fc 3c 8e bc 99 2d 0a 3e bb db 42 bd
       0.05189574 -0.017363064 0.13493957 -0.047572833
000020 36 15 52 3c c1 3a d6 bd 99 68 9e 3e 7e b8 17 bd
       0.01282244 -0.10460425 0.30939177 -0.03704118
000030 77 14 06 3e c8 ab 12 3c c9 1c 3e be cd 72 16 be
       0.13093744 0.008952089 -0.18565668 -0.1469223
000040 3b 90 21 ba a4 aa 41 bc 7a 66 29 be 4f 2b 89 be
       -0.00061631546 -0.011820469 -0.16542998 -0.26790854
000050 a1 ba ff 3c cd cf 89 3e 64 24 28 be 6b b2 59 3e
       0.031216921 0.26916352 -0.16420132 0.21259467
000060 2d 75 25 3d bf b1 c6 bb 79 cd 1d bb 55 72 06 bc
       0.04039495 -0.0060636695 -0.002407877 -0.00820597
000070 b1 29 4d be 5d 61 36 bd 38 b3 c9 3d f6 96 4a be
       -0.20035435 -0.044526447 0.098486364 -0.1978415
000080 91 5f 95 bd 1e 29 4f be 62 e6 4b bd 8c f5 e4 bd
       -0.072936185 -0.20230529 -0.049780257 -0.11179647
000090 a7 26 38 be 67 7d 46 be c5 2c 55 be ab 33 a7 bd
       -0.17983495 -0.19383775 -0.2081786 -0.08164152
0000a0 1f 69 e7 bd 9d 43 b7 3d 65 a5 00 be 38 d5 19 bd
       -0.11299347 0.08948443 -0.12563093 -0.037556857
0000b0 db 9d 6c be 42 31 17 3d 34 6d 34 be 7a a3 8e 3c
       -0.23107092 0.03691221 -0.17619783 0.017411936
0000c0 34 09 2c be 40 03 c3 3d 2f 83 30 be f7 da 20 3e
       -0.16800386 0.09522104 -0.17237543 0.15708528
0000d0 53 e7 27 bd 02 97 0b 3e d3 4b 1f 3d 91 51 13 bd
       -0.040992092 0.13631824 0.03889067 -0.03596646
0000e0 71 ed 4a 3d 53 a4 a7 be c3 bd 52 3c 9f a8 1f bd
       0.049542848 -0.32742557 0.0128626255 -0.03897917
0000f0 fb dc d9 3d b8 46 d8 3c fa 3f 71 3d d8 ea 8c 3d
       0.10637852 0.026400909 0.058898903 0.068807304
000100 8e 98 25 3e 48 82 c4 3c c8 a4 d9 be 86 66 18 3d
       0.16171476 0.023987904 -0.4250853 0.03720715
000110 fc d6 84 bd 64 94 19 3d 0b a6 0c 3e b4 b8 88 3d
       -0.064863175 0.037495032 0.13735215 0.06675854
000120 77 2f 74 bd e0 74 3a 3b 1f ed 66 bd d6 79 8d be
       -0.05961558 0.002845101 -0.05637848 -0.27632016
000130 d1 62 03 3e 90 c5 93 3d b7 27 3b 3d 08 24 3d bc
       0.12830664 0.072154164 0.045692172 -0.011544235
000140 16 67 73 bd d7 06 ab bd 5b fd 71 3d c2 e4 93 bd
       -0.059424482 -0.08350914 0.05907951 -0.072213665
000150 3d c8 8c 3d 42 65 cd 3c 3e 3b e7 3d 9a 03 a5 3c
       0.0687413 0.025072698 0.112905964 0.020143319
000160 cf 81 5b 3d 0b ec a6 bd 63 a4 fa bb 64 74 8f 3d
       0.053590592 -0.081504904 -0.007648991 0.070046216
000170 0f c6 04 3e 67 fa ef 3d 27 e2 39 be 8e 68 7d 3e
       0.12966178 0.11717682 -0.18152677 0.24746916
000180 ca d9 25 be 5e 4c 6d be 39 b0 be bd 9b 01 0f 3e
       -0.16196361 -0.23173663 -0.093109556 0.13965456
000190 57 a9 e4 bd 53 bd 06 3d 05 d0 93 bd 42 e9 be 3d
       -0.111651115 0.032895397 -0.07217411 0.09321834
0001a0 88 77 b1 bb 40 e6 bf bd 4f 32 de 3c bb 65 cb bc
       -0.0054158606 -0.093700886 0.027123598 -0.024828782
0001b0 f8 18 e5 3d 48 8f 29 bc 51 f8 cd 3d 4a 18 95 3d
       0.11186403 -0.010349102 0.10057128 0.072800234
0001c0 51 62 9b 3a 58 1c 20 3e e8 6e 32 bd ec 68 99 3c
       0.0011854862 0.15635812 -0.0435628 0.018726788
0001d0 0a 60 f1 3d 9d 1c 88 be 09 4e 20 bd ef 1c 11 be
       0.11785896 -0.2658433 -0.03913692 -0.14171194
0001e0 bb 89 94 be 3b 86 27 be 0e d8 93 be 50 5d e5 bd
       -0.2901133 -0.16359799 -0.28875774 -0.111994386
0001f0 fe 9b 96 be 26 0f 26 be 26 a1 4d 3d 5e b1 53 3e
       -0.29415888 -0.16216716 0.05020251 0.20673129
000200 0a 37 63 3c e9 34 c3 3d 0d b3 8a 3e c4 e7 c8 3d
       0.013868103 0.09531576 0.2708973 0.09809831
000210 a9 2e 04 3e 98 37 0f 3e 33 69 0b 3d 6d f8 4c 3d
       0.12908424 0.13986051 0.034035873 0.050041605
000220 28 98 92 bd 6c fc 26 be 39 51 61 3c 49 0e 84 3d
       -0.07157928 -0.16307229 0.013752275 0.06448037
000230 b1 b7 57 be 89 38 40 bd 21 79 b2 3e a2 7a 5a 3d
       -0.21066166 -0.046928916 0.3485804 0.053339608
000240 cb 2c 7b ba d3 ce 13 bd 07 b7 a5 3c 66 33 0e 3d
       -0.0009581565 -0.036085915 0.020228876 0.034716986
000250 7d 01 13 3e a0 1e 5a be 20 3b 88 3d c0 cf 0e be
       0.14356036 -0.21300745 0.06651902 -0.13946438
000260 d9 7f 74 3d 24 f0 88 bd d0 ab b4 3d 57 6b fd 3d
       0.059692238 -0.06686428 0.08821833 0.12373989
000270 ad b3 1f bd b5 9d 38 be 4c 62 e4 3e 38 77 3f bd
       -0.03898971 -0.1802891 0.44606245 -0.046744555
000280 4e 3d 1d be a1 e1 d2 bd 1b de 08 bd 15 43 83 be
       -0.15355417 -0.102969415 -0.03341494 -0.25637117
000290 f6 2b 8a bd 2b a0 20 be db 35 c5 3d 91 05 1b 3e
       -0.06746666 -0.15686099 0.09629413 0.15138842
0002a0 a1 9f f5 3d a3 49 0b 3d cb c2 18 3e 65 4c 69 bc
       0.119933374 0.034005772 0.14918058 -0.014239405
0002b0 b6 b8 8f be 8e fb 40 be 96 2b 4f 3e d2 d6 f2 bd
       -0.2807061 -0.1884596 0.2023147 -0.1185738
0002c0 2e 88 5f be ef b1 55 3d a0 20 01 be d2 e6 ec bd
       -0.21829292 0.052171644 -0.12610102 -0.11567463
0002d0 94 54 92 3e f2 c1 05 3e 07 26 eb 3d 92 26 94 3e
       0.28580153 0.13062266 0.114818625 0.28935677
0002e0 c5 de 2a 3e c5 7d 1d 3d 4f dc 1e bd 84 bc ca bc
       0.16686542 0.03845002 -0.03878432 -0.024748094
0002f0 6c 1e 94 bd b5 79 1d 3e 59 a6 7d 3d 8d 0d 16 bd
       -0.07232365 0.15378459 0.06192622 -0.036634017
000300 b2 97 d2 3d 03 6e 90 3e d4 02 21 3e b2 3c 1d 3e
       0.1028284 0.28208932 0.15723735 0.15355185
000310 1e 13 1a 3e e7 4e 49 3e c4 b2 26 be fc ed 89 bd
       0.15046355 0.19659005 -0.16279131 -0.06734845
000320 d3 0b d2 bd db ce b0 bc 52 2d 45 be 5e d0 6b 3c
       -0.102561615 -0.021583011 -0.1925557 0.01439294
000330 59 27 3b be 2b 93 ab bd c4 b9 ad 3d 95 df 36 3d
       -0.18276729 -0.083776794 0.084826976 0.04464682
000340 d9 4f 1d be f0 a3 d2 bd 13 58 15 3d 0f f0 67 3d
       -0.1536249 -0.10285175 0.036460947 0.056625422
000350 03 3c c9 bd c0 14 cd bd 84 c3 90 ba 12 28 42 be
       -0.098258995 -0.100137234 -0.0011044596 -0.18960598
000360 c6 56 e2 bc e2 df a5 be f0 cf e2 be da cb 68 bb
       -0.027629267 -0.32397372 -0.4429927 -0.0035521896
000370 7e f1 20 be e6 44 a0 be f3 ce 60 3c d9 1f 0d 3d
       -0.15717122 -0.31302565 0.013721216 0.0344542
000380 33 53 b0 bd f6 60 50 3a 41 93 81 bd 10 48 ec be
       -0.08609619 0.00079490186 -0.063269146 -0.4614873
000390 c2 88 2a 3c b2 ac 9c 3e a7 51 8b bd dd 5b 90 bd
       0.010408582 0.30600506 -0.06802683 -0.070487715
0003a0 aa a4 f0 3d 47 f0 aa bd 36 40 3c 3d 34 58 c7 bd
       0.11750157 -0.083466105 0.045959674 -0.0973362
0003b0 53 bf 61 bf 0f 57 93 bb db 7e 69 3e 24 2c d9 3c
       -0.8818256 -0.004496462 0.22802298 0.026510306
0003c0 cd c4 03 3d ff 35 ca bb ae 4c 5b 3d d1 01 d8 bc
       0.032170106 -0.0061709876 0.053539924 -0.026368054
0003d0 b7 a2 ad 3c 86 5d f0 bc 41 fa 9b bc 86 60 56 be
       0.021195753 -0.02934147 -0.019040229 -0.20935258
0003e0 18 87 a8 3c a5 43 29 bd d1 26 a9 3d 08 00 68 3e
       0.02057223 -0.041324276 0.08259357 0.22656262
0003f0 e3 44 0b bd 08 c6 36 3d a5 ff c7 bd dc 27 8e 3d
       -0.034001242 0.04462245 -0.09765557 0.06941196

stem.conv.bias f4 [49]
000000 39 2a e3 3d 54 6b 1f bd eb ff 29 3c 54 f3 d2 bc
       0.11092038 -0.038920715 0.010375957 -0.025750794
000010 b8 54 71 bd 4c 2d ac 3c 0f 92 82 be d5 b0 36 3e
       -0.058918685 0.021017693 -0.2550206 0.17840894
000020 be 73 16 36 cb 82 b7 3c 95 b6 5c 3d e7 22 40 bb
       2.2419113e-06 0.022401234 0.05388506 -0.0029317678
000030 3e 9b 45 bd 9c b8 19 be 45 1e c0 bc 29 16 a8 3d
       -0.048243754 -0.15011829 -0.023451934 0.08207352
000040 a1 da 9a bb e3 b6 8c be 07 91 68 bb 40 55 fa 3b
       -0.0047257696 -0.27483281 -0.0035486834 0.007639557
000050 3e c3 d7 3c 3c f7 58 3e f8 a6 88 3d 9e 28 07 3d
       0.026338216 0.21188062 0.06672472 0.03299772
000060 9f 9b 43 bc b4 52 8b bc bb fc f2 39 9d 09 37 3d
       -0.011938958 -0.01700721 0.00046346136 0.044686902
000070 bb 67 bf 3b ab a7 33 be 06 82 c4 be 0a 19 01 3e
       0.005841223 -0.17544429 -0.3838045 0.12607208
000080 0b 4f 26 3d 8a ed 2c be 76 18 76 3d da 80 16 3e
       0.040602725 -0.16887489 0.06008192 0.1469759
000090 ee cd 1c be 89 10 8d be af 4d 21 3d 87 2b c0 3c
       -0.15312931 -0.27551678 0.039380725 0.023458255
0000a0 c7 bb e2 3c 06 b2 41 be 52 2a 75 3b bc 50 f0 3c
       0.02767743 -0.18915567 0.0037409258 0.029335372
0000b0 2d c4 1f be cb d6 0d be 80 c7 88 be 13 09 e1 be
       -0.15602179 -0.13851468 -0.26714706 -0.43952236
0000c0 e0 6d 71 bd
       -0.058942676

body.0.conv.weight f4 [49, 49, 3, 3]
000000 c9 ed 87 3e 79 d6 60 bc 36 e3 a8 bc 14 68 d1 3e
       0.26548603 -0.013723009 -0.020616155 0.40899718
000010 68 e8 f3 bd ee 35 85 be d2 d5 0d be 81 5a 98 be
       -0.11909562 -0.26017708 -0.13851097 -0.2975655
000020 28 38 21 bd 89 d6 34 bc 16 a2 b8 bc db 4c 6a b9
       -0.039360195 -0.011037477 -0.022538226 -0.0002234461
000030 58 0e 27 3d cc 73 f8 bc bf 81 3d 3c b0 e9 d5 3c
       0.040785164 -0.030328654 0.011566578 0.026112407
000040 97 1e e7 bb b3 79 3d bc 37 e3 a4 3c dc be 1e 3e
       -0.007053207 -0.01156466 0.020127876 0.15502495
000050 15 cf ce bc 2a 82 9b 3d a0 c9 49 be 05 49 f9 be
       -0.025245229 0.07593186 -0.1970582 -0.48688522
000060 d3 98 8e bd 79 05 4c be 8b bd 16 be 2a 14 fd 3d
       -0.06962743 -0.19923963 -0.14720742 0.123573616
000070 7b 58 2a 3e 19 6c d4 3c 6b eb 1b be 95 ec eb 3d
       0.16635315 0.025930451 -0.15226524 0.11519734
000080 f8 58 82 be 00 b9 aa bd 81 2b 18 be b1 82 95 bd
       -0.25458503 -0.08336067 -0.14860345 -0.07300318
000090 8e 87 fe bd 73 1b 31 3d ed 02 97 bd 73 d8 45 3e
       -0.12428199 0.04323907 -0.07373605 0.1932085
0000a0 f8 48 1a be 1e 3c 9c bc f4 e5 0b bc 3f 0b 73 be
       -0.15066898 -0.019071635 -0.008538712 -0.23734759
0000b0 3d c1 25 3d dc 81 06 bd 26 b1 92 3d 48 41 59 be
       0.04046749 -0.032838687 0.07162695 -0.21216309
0000c0 7c 27 c9 3d b8 05 48 3d 1f 50 40 3c 67 83 82 be
       0.09821984 0.04883358 0.011737852 -0.25490877
0000d0 1b 1b 47 be 69 8e d6 bc 82 18 24 bd f0 1c 85 bd
       -0.19443934 -0.026190953 -0.040062435 -0.0649966
0000e0 27 7b ad bd 1f f6 0a 3e 6c 7e 62 bc 34 7c 1f be
       -0.08470755 0.1357045 -0.013824087 -0.15574723
0000f0 29 63 1a 3e 9f 61 0d 3e 29 4c 2b 3d f4 7f c8 bd
       0.15076889 0.1380677 0.04182068 -0.0979003
000100 6d 51 a6 3d fd be a1 3d e9 f5 94 3c 2e 11 1a 3e
       0.081209995 0.07897756 0.018183665 0.15045616
000110 65 f1 56 3c 82 39 1a 3d 63 1e d8 3d ee e6 69 3c
       0.013119076 0.0376525 0.10552671 0.014276249
000120 3f 85 bf bd 64 d0 34 bd ef 03 59 3e 42 dd a0 be
       -0.093515866 -0.04414405 0.21192907 -0.31418806
000130 1f 42 9d be 31 d3 8c be 03 c6 8a 3f 97 ac 17 be
       -0.3071451 -0.27504876 1.0841678 -0.14811932
000140 2a 51 90 bc 44 43 17 bd 2e e4 ef bc b8 0a 94 3d
       -0.017616827 -0.036929384 -0.02928361 0.07228607
000150 ac e9 4e 3e a8 44 33 3e 0e 61 a7 bd 68 97 cd bd
       0.20206326 0.17506659 -0.081728086 -0.10038644
000160 e5 fe 8f bd 8b e2 2b 3d f0 a8 af 3d 6c 28 2f be
       -0.07031039 0.041964095 0.08577144 -0.17105263
000170 f1 2d 97 3c fd 9e 0e bd e1 8e 86 be f9 8f 84 be
       0.018454524 -0.03481959 -0.26280883 -0.25891092
000180 54 3a 9f 3d b0 04 de 3c cb e1 39 bd 1f 72 93 bd
       0.07774797 0.027101845 -0.04538135 -0.07199501
000190 c3 8e e7 bd 0f d4 70 3d 74 d0 45 3a c2 4a e5 3d
       -0.113065265 0.058795985 0.00075460155 0.111958995
0001a0 22 1c 03 bc 02 c3 39 bc 4e 20 27 be 45 95 93 bc
       -0.008002313 -0.011337997 -0.16320917 -0.018015513
0001b0 53 13 eb 3c 1b 86 ac 3d 92 2e 46 3b 94 f8 58 3c
       0.028695738 0.08424016 0.003024016 0.013242859
0001c0 4e 88 03 be 2f d8 7f 3c 18 96 99 3e 12 74 7e 3d
       -0.12844965 0.015615507 0.29997325 0.062122412
0001d0 f3 33 e8 3d de c5 27 ba ae 0b 6d bd 9d 86 8a 3d
       0.113380335 -0.0006400029 -0.057872467 0.06763957
0001e0 16 a7 97 bc e7 26 83 bc 12 0a 67 3d a5 d2 53 bc
       -0.01851229 -0.016009761 0.05640609 -0.01292864
0001f0 f7 a3 ac 3c 4a 25 0e 3d ff 6e c4 bd b7 23 72 3d
       0.021074278 0.03470353 -0.09591483 0.05911609
000200 f4 14 b5 bd 09 5f ec bc a0 21 f3 3c 15 ac 76 b9
       -0.08841887 -0.02885391 0.02967912 -0.00023524494
000210 6f 34 a8 3b 4f 7a ea bc 04 a2 bf bc 6b 08 4a bd
       0.0051332037 -0.028622774 -0.023392685 -0.049324434
000220 dc 0b c4 3d 86 a7 83 bd d1 63 86 bc a2 6f bf 3d
       0.095725745 -0.06428437 -0.016405018 0.09347464
000230 a3 7e 05 3e 7d 25 3f bd 6e 55 1d 3e a4 1c 09 3e
       0.1303659 -0.04666661 0.1536462 0.13389832
000240 14 d0 62 3d 30 d8 24 bd b7 b0 85 bd 0f 6a 2c 3e
       0.05537422 -0.040245235 -0.06527846 0.16837333
000250 3d 30 a4 bd 74 28 27 be 61 22 b4 bc 3a f6 d1 bc
       -0.08017013 -0.16324025 -0.02198905 -0.025630105
000260 df c3 7e bd 92 b0 86 3c e4 d6 9f 3c e4 aa 89 3b
       -0.062198516 0.016441617 0.019511648 0.00420128
000270 64 61 31 be d3 3c a8 bc 6e e9 d5 bd fe 0a 7a be
       -0.17322308 -0.020536816 -0.10444914 -0.24418256
000280 38 bc ad be cb e5 bf bb b3 00 01 bd f0 9a 33 be
       -0.33932662 -0.005856251 -0.031494807 -0.17539573
000290 0d b9 fe bd 5f 46 82 3c b1 75 86 3d 83 7c 90 bd
       -0.124376394 0.015902696 0.065654166 -0.07054999
0002a0 c0 f2 6d bd 41 f6 74 3d ff 7d 34 bd 03 2d cb 3d
       -0.058092833 0.05980516 -0.04406547 0.09920695
0002b0 ae b3 0d 3e 22 7e cd bb c4 9c 90 3d 83 bc f4 3d
       0.13838074 -0.0062711397 0.07061151 0.11950018
0002c0 60 f8 14 3e 2d bc 0f 3d 01 fb 0e be 6c 73 30 3d
       0.14547873 0.035091568 -0.13962938 0.043078825
0002d0 f4 4b 59 3e 53 ed f2 3c 2c a0 28 3e 4f ac 83 3e
       0.2122038 0.02965418 0.1646735 0.257174
0002e0 a0 bc 18 be ed 0a 4a 3e 57 ec c7 bd 92 d3 0c bf
       -0.14915705 0.1973073 -0.09761875 -0.5501033
0002f0 c4 e3 04 bd fc 7b f0 bd 5a 6b b5 3d 2d ab 5b bd
       -0.032443777 -0.11742398 0.08858366 -0.053630043
000300 c1 95 9c bd e0 ad c0 bc 77 5a 8a bb 5b 97 cf 3b
       -0.07645751 -0.02352041 -0.00422221 0.0063351816
000310 44 00 f7 3c 06 b0 9d bd fe 37 74 3d b4 24 c1 bd
       0.030151494 -0.076995894 0.05962371 -0.09430829
000320 7e 21 3f be e7 19 07 be 68 27 72 3f 26 6f b7 be
       -0.1866512 -0.13193475 0.9459138 -0.35826987
000330 01 0d 09 bf 9c 2a 70 3e 0e 44 21 3c 1a 92 5b 3e
       -0.5353547 0.23453754 0.009842886 0.21442452
000340 4b 39 28 3d 78 24 81 3d 5c ca 41 be 55 14 75 be
       0.041070264 0.06305784 -0.1892485 -0.23933537
000350 71 8a dc bd d3 d5 68 be a3 89 83 be f0 97 95 bb
       -0.10768593 -0.22737817 -0.25690946 -0.0045652315
000360 7a cc 28 3d e2 b1 5e bc 0c 35 2b be 7c c1 da 3c
       0.04121063 -0.013592215 -0.16719455 0.026703589
000370 c5 a2 1c bd 00 99 8a bd 6a c4 20 3d 35 b3 02 3d
       -0.038241167 -0.06767464 0.039249815 0.031909186
000380 82 31 2c 3d e4 35 7a be 3a 1e f8 bd 8d 28 9e 3b
       0.0420394 -0.2443462 -0.1211514 0.0048266114
000390 b9 3a ae 3c d2 83 91 be f1 25 7a 3d cc 90 4d 3e
       0.021268236 -0.28420883 0.06107134 0.20074767
0003a0 76 41 72 3e 52 d9 bf 3d ad dd 80 3d 25 1d 2c 3c
       0.23657784 0.093676224 0.06292281 0.0105049955
0003b0 8a 99 89 be 00 ed e5 3d de 8c 9f bd 86 c1 cc bb
       -0.26874954 0.11226845 -0.0779054 -0.0062486557
0003c0 8d 21 e0 3c 41 07 1c bc cc a7 9c bd 2a e3 fb 3d
       0.027359748 -0.009523214 -0.07649192 0.122991875
0003d0 c4 ae 26 bd 0c 4e 47 3e ff 0b 0b be 57 aa 14 be
       -0.040694013 0.19463366 -0.13578795 -0.14518104
0003e0 2c 6c 2f 3e 76 a5 06 bf 62 8a bc 3d 8a 5c e2 bd
       0.17131108 -0.52596223 0.09206082 -0.11052807
0003f0 71 b9 ad be 86 50 c0 bd fb cf 59 bd 5f d0 22 bc
       -0.33930543 -0.093903586 -0.05317686 -0.009937375

body.0.conv.bias f4 [49]
000000 2b 8f 1e be bc 7e b9 bc 74 4e 68 be 8d 9b c3 bb
       -0.15484302 -0.02264344 -0.22686177 -0.005969471
000010 39 0f 74 bc d5 05 63 bd 4b 84 ca bd 31 72 3a bc
       -0.0148962075 -0.055425484 -0.09888514 -0.011379764
000020 ee 47 6a bc 4b 55 6b 3d 6d d5 8b 3d 5d 8c 4b 3d
       -0.014299376 0.05745439 0.06827817 0.049694408
000030 10 85 66 3d 76 28 0c bd 71 92 8c 3d 58 3d 94 bd
       0.056279242 -0.034218274 0.06863869 -0.07238263
000040 eb 82 d0 3c 9a 45 fe 3a 61 5e 74 bd 45 b6 fa bc
       0.025453052 0.0019399405 -0.05966032 -0.030604491
000050 88 5a 90 3a 39 01 f6 bd 8f 3a 83 bd b8 af 3e bd
       0.0011013309 -0.12011952 -0.064076535 -0.046554297
000060 42 d0 30 bd cf fa e3 bc ed 41 a2 ba 7d f0 9f 3c
       -0.04316736 -0.027829556 -0.0012379267 0.019523853
000070 ad b8 6b 3d b4 83 c0 bd 81 5c 0c bd 6f 93 d4 bd
       0.057549167 -0.094001204 -0.034267906 -0.10379683
000080 d0 07 fa bc 75 72 f5 bd a6 60 85 bd f8 07 5a be
       -0.030521303 -0.119847216 -0.06512575 -0.21292102
000090 95 b2 8e 3c d3 cc e5 bc 61 1f ad bd 14 ca 5f bd
       0.017419139 -0.02805177 -0.08453251 -0.054636076
0000a0 cb 4d 94 be 6d 08 2a bd 27 79 a3 bb 65 f3 c6 bd
       -0.289656 -0.04151194 -0.0049888077 -0.097143926
0000b0 69 31 80 3e 0f 1e b4 bd 79 70 78 3b 94 23 8c 3a
       0.25037697 -0.08794796 0.0037908836 0.0010691755
0000c0 94 df 0a be
       -0.13561851

body.1.conv.weight f4 [49, 49, 3, 3]
000000 bd 7a 27 39 cb 73 8a bc 40 2f e4 bb d1 b9 7b bc
       0.00015972085 -0.016900918 -0.0069636405 -0.015364126
000010 3d f2 7c bd 36 de a5 bc 08 65 d1 3c 6f d6 49 3d
       -0.061754454 -0.02024756 0.02556087 0.049276765
000020 5f 59 99 3c cf 26 a0 3c 63 e3 97 3b 3d e7 7c bb
       0.018719373 0.019549755 0.004635261 -0.0038589977
000030 72 bc 0c 3d 1a 28 a8 bd 81 c7 08 bd 0a 21 e6 3b
       0.034359403 -0.08210774 -0.033393387 0.0070229815
000040 76 c3 18 3c bd 95 32 3c 0c f2 1c bc c9 63 89 bb
       0.009323945 0.010899958 -0.009579193 -0.0041928035
000050 7e 65 7f bb 3c e3 f2 bc 50 d2 24 bc 1e a3 1f bc
       -0.0038970406 -0.02964937 -0.010059908 -0.00974348
000060 aa 46 e5 bc c2 e3 b2 3b b9 71 17 3b ad 18 17 bd
       -0.027987797 0.0054592798 0.0023108555 -0.036888767
000070 b9 7d 38 3d 10 b1 a6 3a c7 0f 3b bd 39 98 af 3e
       0.045041773 0.0012717564 -0.045669343 0.34295824
000080 40 5e c7 3c 50 d9 5f bc 3c 6c f2 bc c2 82 cc bc
       0.024336934 -0.013662651 -0.029592626 -0.024964694
000090 55 68 cc bc b3 06 9c 3b 38 e8 b2 3b 0b 2a 88 bd
       -0.024952093 0.004761541 0.0054598115 -0.06648644
0000a0 0a f9 75 bd 1f a0 29 bc dc fe 91 be 1d 64 c3 3c
       -0.060051955 -0.010353117 -0.28514755 0.023851449
0000b0 fc 4d 50 3b 97 fd 46 3c 66 ac 20 3b 72 cf 84 b8
       0.0031784764 0.0121454215 0.002451682 -6.33289e-05
0000c0 73 1e 07 3d b1 c6 9b bc 91 b0 bd ba 68 c3 16 bc
       0.032988023 -0.019015642 -0.0014472177 -0.009201862
0000d0 b1 55 05 3c 3a 0c a4 3b 91 f1 22 3c 08 a8 74 bc
       0.008138106 0.0050063403 0.009945289 -0.01493264
0000e0 34 aa 27 3c e3 bb 9e 3c 83 b2 0a bd fa ea a9 bc
       0.010233451 0.0193767 -0.03386165 -0.020741928
0000f0 1e b9 c8 3c 00 bf 7d 3b d6 ed cc 3b 6e 76 22 bd
       0.024502333 0.0038718581 0.006253938 -0.039663725
000100 79 8f 17 3d 4c 13 ea 3b 98 83 1f 3d f1 cd 3e bd
       0.03700206 0.0071434136 0.038943857 -0.04658312
000110 88 82 ce 3c 4a 1c 0b 3d 88 93 72 bc 7f ab 26 bd
       0.025208727 0.033962525 -0.014805682 -0.040690895
000120 75 3d 8b 3a e2 6d a7 3b f5 26 90 bb 28 43 9d b9
       0.0010623174 0.0051095346 -0.0043991753 -0.0002999541
000130 c5 05 77 3c ac ff a6 3b ec 14 e0 bc 42 99 5e bc
       0.015077059 0.0050963964 -0.027353726 -0.013586344
000140 9f bf 86 bb 87 6c 33 3b 44 fe 2a 3c 98 d9 53 3c
       -0.0041121985 0.002737792 0.010436598 0.012930296
000150 06 bc 4a bd f6 fa f2 3d fe 7f 8f 3d 09 c1 c4 bd
       -0.04949572 0.11864273 0.070068344 -0.09607131
000160 aa be a5 bd 47 73 7e bd e4 7c 1c 3d e1 e9 21 bd
       -0.08093007 -0.062121656 0.038205042 -0.039529685
000170 67 25 9d 3c 2b 0c 41 3d 08 0f 51 be b2 9e 09 3c
       0.019182874 0.047130745 -0.2041589 0.008399652
000180 5b c1 7e 3d 3b 67 57 3c 3f a0 39 3c e6 01 33 ba
       0.062196117 0.013147171 0.01132971 -0.0006828591
000190 dc 33 33 3c b5 25 f4 b8 07 53 62 3c 18 db 3e 3c
       0.010937657 -0.0001164185 0.013813741 0.011648916
0001a0 f3 66 c2 3b ab 06 42 bc a9 e4 53 bc 6a 07 2e 3b
       0.0059326827 -0.01184241 -0.012932935 0.0026554712
0001b0 69 ea 7b 3a d8 0c 11 3d 44 ad c5 3b 5f e8 e8 3b
       0.000960982 0.03541264 0.0060326178 0.007107779
0001c0 b4 a9 9f 3d 75 19 b8 3c 7e d3 4b 3c 71 0a 32 bc
       0.0779604 0.022473076 0.01244056 -0.010866747
0001d0 c5 13 1a bc 55 c4 9e bb 7e 25 09 bc 8f 1f 91 3a
       -0.0094041275 -0.004845182 -0.008370755 0.0011072027
0001e0 0a 12 8f bc 4e cf 70 3d 66 b0 05 3d 64 d8 75 bc
       -0.017464656 0.05879145 0.03263893 -0.015005205
0001f0 53 1c 2c bc 11 0a 51 bb 70 64 d9 3c 31 72 2c bc
       -0.0105048 -0.003189687 0.02653715 -0.010525272
000200 f3 f4 61 bc cb 59 0a ba d8 62 a0 bb b8 93 3d bd
       -0.013791311 -0.00052776624 -0.0048945956 -0.046283454
000210 40 4f 30 3c a9 4f 50 bd e6 56 8a bc fb 67 b4 3b
       0.010761082 -0.05085722 -0.01688714 0.0055055595
000220 35 3e ee bb 60 06 76 3b 78 49 8d bc e3 a4 1f bd
       -0.0072705992 0.003754042 -0.017246947 -0.038975608
000230 a3 6c 91 ba 20 3c bc bc 0f 9f 87 bb 57 5a b3 3b
       -0.0011094998 -0.022977889 -0.0041388343 0.005473416
000240 bb ca 31 3b 93 80 ad bc 29 c7 de 39 60 42 0b 3c
       0.0027128893 -0.021179473 0.00042491526 0.008499712
000250 24 5a 14 bc e4 78 26 bc 11 62 c3 3c 69 10 d1 3c
       -0.009054694 -0.0101606585 0.023850473 0.02552052
000260 19 10 1e 3b 74 5e ab ba 33 af db ba 46 15 df bb
       0.0024118482 -0.0013074414 -0.0016760587 -0.006807956
000270 91 85 92 3b f1 92 10 3c db 8d 38 bc ea 2d 68 3b
       0.0044714888 0.008824096 -0.01126429 0.0035427758
000280 55 d6 14 bd e0 3b 4b bc c0 88 10 3d af 40 10 bd
       -0.036337215 -0.012404412 0.035286665 -0.035217937
000290 1b a7 37 bd 51 da 98 3b eb b7 25 3d 37 90 81 bc
       -0.0448371 0.004664697 0.0404586 -0.015815837
0002a0 3b a6 d3 3c 44 81 04 bd 2a d1 45 bd c8 6d 02 3b
       0.0258361 -0.03234984 -0.048295178 0.001990186
0002b0 ef ef 74 3b c5 df c1 3b 06 a1 47 3c 18 57 13 3d
       0.0037374457 0.005916568 0.012184387 0.03597173
0002c0 a0 53 47 3c 52 23 f0 3a 69 e2 a4 3c 30 5c d8 3b
       0.012165934 0.0018321073 0.020127492 0.0066027865
0002d0 40 10 5a 3c 83 e4 18 3d 7d a2 e9 3b 43 0f fe bc
       0.013309538 0.0373273 0.007129966 -0.031013137
0002e0 be d7 87 bc 83 38 9c 3b 90 2b 10 3d eb f0 09 3c
       -0.016582366 0.004767479 0.035197794 0.008419256
0002f0 fe e3 00 3d 3a 78 91 3b 2e b5 ca bc 57 dc 90 bb
       0.03146743 0.004439381 -0.024744596 -0.004420798
000300 95 e4 58 3c 52 3c 0c be 75 35 1f bd 20 4e 48 3d
       0.013238092 -0.13694885 -0.03886934 0.04890263
000310 92 31 9c 3d 05 bc 2c 3d 9f e6 84 bc c6 10 14 bd
       0.07626642 0.042171497 -0.01622325 -0.03614881
000320 05 cb b1 39 b3 d4 b6 bb db fe 5b be 61 3b a4 3b
       0.00033911332 -0.005579555 -0.21483938 0.0050119613
000330 1f 4c c7 3d ec 9a 2c 3e 25 f0 6b 3d ec 6c 3b 3b
       0.09731316 0.16855973 0.057602067 0.0028598858
000340 8d a5 ab bb ac a3 ff 3a 06 68 06 bc 57 af a1 3b
       -0.005238241 0.0019503734 -0.008203512 0.004934232
000350 95 6c a1 3b 1b b2 74 3c 12 51 dc 3b 01 80 11 3c
       0.004926274 0.014935042 0.0067235315 0.008880616
000360 d1 14 ed 3b 11 b6 6c b9 ee ec a2 bc 6a 62 36 3d
       0.0072351475 -0.00022574539 -0.019888368 0.04452745
000370 9c 9a 78 3c 4d 43 cf bb 42 f2 12 3b 4a 9a 35 3c
       0.0151735805 -0.0063251616 0.002242223 0.011084149
000380 e9 0b 1f 3d df 69 e6 3a 3e 75 49 39 9a d3 45 bc
       0.038829718 0.001757916 0.0001921253 -0.0120743755
000390 8d 51 93 bc 30 a9 5f 3c 4e 28 b6 bc 07 7c aa 3c
       -0.017983222 0.013651177 -0.022236016 0.020811094
0003a0 f2 7f 1c bd 59 72 08 bd 64 81 8c 3c 17 24 02 3d
       -0.038207956 -0.033312175 0.017151542 0.0317727
0003b0 9e 57 c5 3c 75 cc ad 3d 25 d6 5e 3e 12 ea 9a 3d
       0.02408963 0.08486263 0.21761377 0.075641766
0003c0 e0 3c 35 3d dc 78 cf 3d a6 eb e4 3c 3a 9e 11 3a
       0.044247508 0.10130474 0.027944397 0.00055548886
0003d0 9a d1 96 bb 54 21 1d 3b 0f d5 a8 bc 69 ef f9 bc
       -0.004602623 0.0023976164 -0.020609407 -0.030509667
0003e0 9d dc 83 bb d2 7d 10 bc cc 1a 85 3c 90 78 8e 3b
       -0.004024102 -0.00881906 0.01624813 0.0043478683
0003f0 69 e7 e4 bb c1 7f af ba 30 0c ff 3b 62 50 8b bc
       -0.006985594 -0.0013389514 0.0077834353 -0.017006103

body.1.conv.bias f4 [49]
000000 8e f1 74 bc 76 e9 47 bc bb 3d d5 be 6e 74 48 bd
       -0.014950169 -0.0122016575 -0.4164866 -0.04893916
000010 26 70 13 bc c5 99 dd bc 6f 75 e4 bb a7 4e 81 bd
       -0.008998906 -0.027050862 -0.006972007 -0.0631383
000020 3f 09 98 bc f5 e2 2a 3c 04 d5 1e bd 87 66 a5 ba
       -0.018559096 0.010430087 -0.038777366 -0.0012619057
000030 f8 71 81 bd 82 e6 11 3d 80 e7 c5 bc 39 c0 f3 3c
       -0.06320566 0.03562022 -0.02415824 0.029754745
000040 0f c8 92 bc 01 f6 8a bb 91 88 f1 bc 64 1a 77 bd
       -0.017917661 -0.0042407517 -0.029484065 -0.060327902
000050 06 5d bf bd 3a a2 79 3c 11 04 3a bd 3e d1 39 bd
       -0.09343915 0.015236432 -0.045414034 -0.045365565
000060 0a c8 9f bd 12 3a 87 bd d8 55 4d bd a9 bb 07 3d
       -0.07801826 -0.06602873 -0.050130695 0.03313795
000070 f2 7b 2d 3d fb 70 a4 bd 61 fb 49 3d 98 a7 0d 3c
       0.04235453 -0.08029362 0.049312 0.0086459145
000080 21 6a 03 bb 38 98 51 3b d9 fe c8 bc e2 db 97 3b
       -0.0020052271 0.0031981599 -0.024535583 0.0046343664
000090 66 e4 88 bd fe ef bb bc cb ea 1f bc 59 30 c6 3c
       -0.066841885 -0.022941586 -0.009760569 0.024192976
0000a0 29 00 20 bc 91 72 2e bd aa 54 8e bd 73 69 45 bd
       -0.009765663 -0.042589728 -0.06949742 -0.048196267
0000b0 e4 23 76 3b f8 51 86 3c a0 56 63 bd dc 41 8f 3d
       0.0037558014 0.016396508 -0.055502534 0.069949836
0000c0 dd 05 97 3d
       0.07374165

body.2.conv.weight f4 [49, 49, 3, 3]
000000 5a 74 1c 3e 2a 04 d7 bc be 90 5b bd 07 68 fc bc
       0.1527876 -0.026247103 -0.053604834 -0.030811323
000010 46 01 36 ba d8 c5 87 3d cb 34 1e be 47 53 83 3d
       -0.0006942939 0.066295326 -0.15449826 0.06412368
000020 f1 c3 15 3c 7f 64 dc bc 03 88 ee 3c 26 39 12 bc
       0.009140954 -0.026903389 0.02911759 -0.008924758
000030 f0 30 40 bd c4 eb 47 3d 8c ce 97 bd aa 43 0f bd
       -0.04692167 0.048808828 -0.074124426 -0.03497664
000040 19 16 63 bc 65 e2 0c bc 24 96 9d 3d ec a0 fe bd
       -0.013860249 -0.008598899 0.07694653 -0.12433037
000050 9d d4 02 3e af f1 5f 3d 62 9d 76 bd 26 46 c0 3e
       0.12776418 0.054673847 -0.060208686 0.3755352
000060 7e c6 9f bd 72 dc 01 3d 85 14 7e 3d 8d aa ef bc
       -0.07801531 0.031704374 0.062031288 -0.02925613
000070 09 3a 8e 3d d0 7f 90 3c 07 17 82 bd 61 ee fd 38
       0.06944663 0.01763907 -0.06352048 0.000121083816
000080 6c 22 d3 bd 0f 15 a4 3d b9 1f 54 bd 0f f7 9b bb
       -0.103093 0.08011829 -0.051788066 -0.0047596763
000090 9f e8 b0 3c 87 1e b0 3d 0d be 38 bc 13 50 99 bd
       0.021595297 0.08599573 -0.01127578 -0.07485976
0000a0 f1 c1 2f 3d 4f 2d 3e bc 2f 32 1a bc 85 4d 61 3d
       0.042909566 -0.011607482 -0.009411379 0.05500557
0000b0 4c ea a6 bd 9b 01 9d bd e4 52 f9 bc e4 90 8c bd
       -0.08150157 -0.07666322 -0.030435033 -0.06863573
0000c0 d7 3d f8 bd 4d 8c 42 bd e1 47 96 bd ed 9b 85 3c
       -0.1212117 -0.047497083 -0.073379286 0.016309703
0000d0 f4 29 bc 3d 12 84 a6 bc bf ee 58 3d 0e 71 21 be
       0.091876894 -0.020326648 0.05296206 -0.15765783
0000e0 03 a4 8c 3d 06 d8 df 3c 42 bf 45 be 93 42 a0 bd
       0.0686722 0.027324688 -0.1931124 -0.07825198
0000f0 8e b7 80 3c b4 2c 9c 3d 23 37 04 3d b4 d2 0b bd
       0.015712526 0.07625714 0.032279145 -0.03413649
000100 5c b8 1a bd 07 1b b8 bc 3d ee 9c bc 2a de 2a 3d
       -0.037773475 -0.022473825 -0.01915657 0.04171578
000110 f4 cb 83 3c b6 a7 e1 bc 9a 7d b6 bc 30 4d 60 ba
       0.016088463 -0.027545791 -0.022276688 -0.00085564237
000120 ff 9f a5 bd 83 65 72 be c9 8c bc bd 6c 3b 28 3e
       -0.080871575 -0.23671536 -0.0920654 0.16428918
000130 5b 50 3d 3e 23 21 47 3e c4 11 0c bd 8f e1 82 3d
       0.18487684 0.19446234 -0.03419663 0.06390678
000140 72 fa 37 bd 83 3f da bd 0f 59 ba bc 3c 6f f1 bc
       -0.044916578 -0.10656645 -0.022747545 -0.029471986
000150 ff 19 d6 bd 63 99 03 3d 6d 08 28 3d 6b 70 a5 bd
       -0.10454177 0.032128703 0.04102366 -0.08078083
000160 59 bf dc 3d ac 6b a2 3c 83 00 97 3e 5b e1 2f 3e
       0.10778684 0.019826733 0.29492578 0.1717581
000170 bd 81 1b 3d e4 79 fc bd 58 7c 37 3e 7b 9e 05 3d
       0.037965525 -0.12327936 0.17918527 0.032621842
000180 f8 27 89 3d 0f 11 01 bc d0 49 44 3d e5 ea 2e be
       0.066970766 -0.007877602 0.047921956 -0.17081793
000190 03 d3 25 3e d3 db da 3c ee 12 cc bd eb 14 7f 3d
       0.16193776 0.026716148 -0.09964548 0.06227581
0001a0 f8 68 b3 bd c2 a5 d1 3d a4 38 44 be d8 cd 8b 3d
       -0.087602556 0.10236694 -0.19162232 0.06826371
0001b0 7c c1 e3 3c ce ec 99 3b db a5 17 3d 2d 99 3a 3d
       0.027802221 0.004697419 0.037023406 0.045556236
0001c0 a5 4a d9 bc 34 ad 96 bc 05 83 08 bd be d3 cd 3c
       -0.026524851 -0.018393137 -0.033328075 0.02512538
0001d0 b9 fa bb 3c bd f7 b8 bb fa 39 84 bd 79 e8 c4 bd
       0.022946702 -0.005644767 -0.06456371 -0.09614653
0001e0 a6 83 d9 bc fd e5 10 be d2 97 26 3e a7 d2 e0 be
       -0.026552033 -0.14150234 0.16268852 -0.43910715
0001f0 6e c2 21 bf 4c 3f d8 3d 30 19 9a be e0 b6 14 3e
       -0.631873 0.10558948 -0.30097342 0.14522886
000200 fa 50 c1 3d 9b 4f ef 3d c4 54 76 bd 83 92 dc bd
       0.09439273 0.116851054 -0.060139433 -0.107701324
000210 d4 5c ea 3c 6c fe 54 3e 06 05 07 be 15 0d a5 3d
       0.028608717 0.20800179 -0.1318551 0.08059136
000220 01 01 13 3f 3a f5 8c be 6b cc 0f 3e d4 96 f5 3e
       0.57423407 -0.27530843 0.14042823 0.47966635
000230 33 7d 5a bd 69 88 20 3e 47 96 43 bd ef d0 02 3b
       -0.053342056 0.15677036 -0.047750738 0.001996096
000240 95 be f2 bd 72 de b8 3c f3 b5 9d 3d b0 b2 09 3e
       -0.11852757 0.022567008 0.0770072 0.1344707
000250 3a 23 0c 39 35 39 c3 bd 49 c7 4a bd 51 74 1e bb
       0.00013364563 -0.09532396 -0.04950646 -0.0024178217
000260 a4 04 06 bc b7 8a 97 bc 25 2a 33 3c 52 62 70 bb
       -0.008179817 -0.018498762 0.010935341 -0.0036679697
000270 53 3f 79 3d 66 a0 a8 bd 2f 37 4b 3c 2e a5 43 3d
       0.060851406 -0.082337186 0.0124032935 0.04776495
000280 94 21 76 bd 14 15 4a 3d 25 5b d3 bc 3e ae d8 3c
       -0.060090616 0.049336508 -0.025800297 0.026450273
000290 54 bb 51 bc 37 f7 19 3d 64 0e 3a 3d 0a bb 10 3c
       -0.01280101 0.037589278 0.04542388 0.008833656
0002a0 e6 49 02 bd 1e b5 7c bb 9b 5b b8 3b b1 cf 9d bd
       -0.031808756 -0.0038560103 0.0056261546 -0.077056296
0002b0 10 dc e2 bd 2e 56 aa bc 22 3d e7 bc fa c3 b1 3d
       -0.1107713 -0.020793047 -0.028227393 0.08679958
0002c0 59 c7 89 bb ad 8d ef 3c 0c 00 03 3d cc c7 a7 3b
       -0.0042046723 0.029242361 0.031982467 0.005120253
0002d0 02 ac 05 bc 34 12 87 3d 46 5b f9 bb d4 b4 8e be
       -0.008158686 0.06595269 -0.0076097576 -0.27872336
0002e0 e4 32 42 3e 76 a0 46 bc ab 5e c0 bd 54 f9 12 be
       0.18964726 -0.012123218 -0.093930565 -0.14352924
0002f0 46 1a 04 3c ca ce 63 3e 4c 45 d5 bd aa a5 5c bd
       0.008062905 0.22246853 -0.10413608 -0.053868927
000300 f7 7d d2 3e d0 5b 18 be a4 7c 79 3c 87 79 14 3e
       0.4111173 -0.14878774 0.015227471 0.14499484
000310 35 5d d8 bd 82 e0 16 bd f2 83 b8 bc b5 99 9c 3c
       -0.10564653 -0.0368352 -0.022523854 0.019116262
000320 71 f2 74 bd 73 44 50 3e e5 77 a4 be e3 c1 94 bd
       -0.059801523 0.20338611 -0.32122722 -0.072635435
000330 3f 6d f9 bc 89 d6 7a bd c3 9c d6 ba 03 d9 b2 3c
       -0.0304476 -0.061239753 -0.0016373623 0.021831995
000340 6e 01 8c 3c 57 7d 21 bd 80 96 3d bd a6 3f eb bc
       0.017090525 -0.039426174 -0.046286106 -0.028716873
000350 24 7b cf bc fe 65 05 3d 21 77 15 3d 21 0e 26 bd
       -0.025327273 0.03256797 0.036490563 -0.040540818
000360 d2 36 6f be 1d 55 50 3e d0 76 ab 3c af 15 02 be
       -0.23360756 0.20344968 0.020930678 -0.12703584
000370 cd 43 96 bd c7 bc 81 3d 44 1f 37 bb 1f f9 77 bd
       -0.07337151 0.063348345 -0.002794222 -0.060540315
000380 3d 09 a4 3c 0c 54 d0 bb 88 38 0b 3d d1 51 3a bc
       0.020023936 -0.0063576754 0.03398946 -0.011372046
000390 06 7d 27 3d 19 5c 85 bd e8 74 c3 3c ee 89 ae bc
       0.040890716 -0.06511707 0.023859456 -0.021306004
0003a0 f1 25 b8 3a cf 5d 16 bc 41 45 92 bc 05 93 a6 38
       0.0014049393 -0.009177639 -0.017855288 7.942881e-05
0003b0 57 c7 c5 bc a9 7b 00 3c 17 b7 1b 3d d4 4e 04 bc
       -0.024142904 0.007841983 0.038016405 -0.008075435
0003c0 56 02 32 bd d6 44 14 bc 3a bd 5f bc 9f 0e b9 bd
       -0.04345926 -0.009049615 -0.013655955 -0.09035992
0003d0 7c 9c 5d be f7 11 62 3d 6d 8f c1 3e c6 69 d0 be
       -0.21641725 0.055192914 0.37804738 -0.407057
0003e0 6c a2 90 3d 19 d6 09 3d 5a 20 1d bd a3 4d 9e 3a
       0.070622295 0.033651445 -0.03836093 0.0012077581
0003f0 f2 51 54 3c 0f ae 37 3d 2d 9c d5 bd 8e d1 9c 3d
       0.01295899 0.04484373 -0.10430179 0.07657157

body.2.conv.bias f4 [49]
000000 b8 02 6a bd 61 1e a8 bc 15 be b3 bc 72 7d 8e bd
       -0.0571315 -0.020522298 -0.021941224 -0.069575205
000010 1e 6e 81 3c 2e ab cc bc c5 04 a4 be f1 fb 8c bd
       0.015799578 -0.024983969 -0.3203489 -0.068839915
000020 34 50 30 3d 01 fd 22 be f9 cb bf 3c f4 79 26 bd
       0.043045238 -0.15916826 0.023412691 -0.040643647
000030 10 1b 89 bc a9 d2 89 bd 0d bd 16 3c 2a 99 a2 bd
       -0.016736537 -0.06729633 0.009200347 -0.0793937
000040 a3 50 88 bd 60 62 56 bd 88 d3 48 bd 35 57 2d bd
       -0.06656005 -0.05233991 -0.049029857 -0.042319495
000050 2f e8 cf bc 03 52 3c ba d9 6f f8 3b e2 8b 68 3b
       -0.025379268 -0.00071838516 0.0075816927 0.0035483767
000060 e5 5f 9c bd 8b 67 e5 bc 4b 40 2d bd b9 f1 45 3d
       -0.07635478 -0.028003475 -0.042297643 0.048326228
000070 a5 91 a2 bc cc 60 d8 b9 83 3d c3 bc 3c c1 b7 bc
       -0.01984484 -0.0004127085 -0.023833042 -0.022431009
000080 ac 61 c2 bd d9 61 f5 3c cf 01 31 3d f9 08 6f bc
       -0.09491286 0.029953884 0.043214615 -0.014589542
000090 72 54 cc bc 42 92 89 bd 03 29 08 bd 65 03 b1 bd
       -0.02494261 -0.067173496 -0.033242237 -0.086432256
0000a0 d3 35 d9 bc db 6f 21 bc 4a e6 47 bd bb a2 41 3c
       -0.026514923 -0.009853329 -0.048803605 0.011818583
0000b0 9a 1d 81 bb 96 19 ca bc 3b 95 42 3c fd 18 f9 bc
       -0.0039402964 -0.024670403 0.0118764 -0.030407423
0000c0 b5 8d fb 3c
       0.03070722

body.3.conv.weight f4 [48, 49, 3, 3]
000000 e6 3c 0b bd e0 1a ff be 49 0c 2e 3d 4a bc 81 bc
       -0.033993624 -0.49825191 0.042492185 -0.015836854
000010 e4 ac ae be 27 57 f6 3d b9 7c 93 bc 53 bc f1 bd
       -0.3411628 0.12028342 -0.018003808 -0.11803498
000020 cb 04 6b 3d 13 43 3e 3d 3d 39 35 3d 47 eb 4d 3d
       0.057377618 0.046450686 0.04424404 0.050273206
000030 1a e1 74 bc 18 ac c6 3d 4c 5f 0c 3b f7 c4 5d 3d
       -0.0149462465 0.09700793 0.0021419106 0.05414292
000040 55 9a 59 bd ad e7 65 3c 03 a2 5d 3d 92 77 39 3d
       -0.053125698 0.014032287 0.054109585 0.045280047
000050 70 b7 5f bb 4c 75 72 bc e7 03 8b be 6b db 0d 3d
       -0.0034136437 -0.014798474 -0.27151415 0.03463308
000060 fa 59 07 bb 15 e2 10 3c c2 dc b0 3c 63 77 45 3d
       -0.0020652995 0.008842965 0.02158964 0.04820956
000070 9a 57 85 3c 55 f8 a3 bb 8d 70 1e 3c 86 b4 32 bc
       0.016277123 -0.0050039687 0.009670389 -0.010907298
000080 e2 0b ec bc bf d0 bf 3c 6c 97 0d 3d ac 7e 78 3d
       -0.02881426 0.023414968 0.034568235 0.06066768
000090 6d 42 4a 3d ec ea 3e be 79 23 cb bd c5 5e 93 bd
       0.049379755 -0.18644303 -0.09918875 -0.0719581
0000a0 2e 73 86 bd 25 ea a0 3d ae 3f d1 3a b2 8a d3 bd
       -0.065649375 0.078571595 0.0015964413 -0.103291884
0000b0 8d fa b8 bd 12 22 0d be 1d 24 29 3d 4d 29 cb bc
       -0.09032164 -0.13782528 0.041294206 -0.024799967
0000c0 f7 e0 02 bd f0 6b 17 3e 66 7f 42 bd f0 7f 3c bd
       -0.031952824 0.14787269 -0.047484778 -0.04602045
0000d0 22 ed 8c bd b9 09 42 bd 7f 98 45 3d f2 26 7f 3d
       -0.06881167 -0.047372553 0.048241135 0.062293
0000e0 52 3f ce bd 48 e2 56 3c f1 44 c5 be 65 31 69 be
       -0.10070671 0.013115473 -0.3852916 -0.22772749
0000f0 6d c7 63 3b 4f 75 9d 3c 56 f5 09 3d 03 95 8f bd
       0.0034756318 0.019220976 0.033681236 -0.070108436
000100 3e 04 8b 3c 8f a4 e8 3c b6 a8 2e bb cd 85 cb bc
       0.016969796 0.02839878 -0.0026650853 -0.024844075
000110 6a 74 84 3c da 46 10 bd 18 cd 0a bc ce 0c e6 bc
       0.016168792 -0.03522382 -0.00847175 -0.028082278
000120 ae 60 30 3d 21 89 0c bc b9 c8 65 3a 6d 7b f0 3d
       0.04306095 -0.008577616 0.0008765567 0.117422916
000130 15 f2 91 bb 8a 21 25 bd 45 ee 56 bd d2 88 40 3d
       -0.0044539073 -0.04031519 -0.052473325 0.047005482
000140 7c 85 00 3d f4 6d b1 3c 12 9e 42 be 27 1a bb 3b
       0.0313773 0.021658875 -0.19005612 0.0057099047
000150 f2 a1 6e 3d 28 ee cc bd 2a 6c f1 bb fd 48 2f 3d
       0.05825991 -0.10006362 -0.0073676305 0.042794216
000160 8e be 88 3c 0a b4 34 bb 89 03 14 bd e4 89 4b 3e
       0.016692426 -0.0027573132 -0.036136184 0.1987682
000170 16 98 78 bb f2 2f 02 3d b5 ab 15 3e 5b f1 e0 be
       -0.0037932447 0.031784005 0.14616282 -0.4393414
000180 9b b8 33 bd 4b e9 be bc 0f 0c 82 3b 29 45 0b 3e
       -0.043877225 -0.023304602 0.0039687227 0.13600601
000190 65 66 cc bd 0b 11 08 bd 5a 80 31 be 2a ee 71 3e
       -0.09980468 -0.03321938 -0.17334118 0.23626009
0001a0 79 4d 0e bc 78 02 14 bd 09 58 38 bd d5 2e 57 3d
       -0.008685463 -0.036135167 -0.045005832 0.052534897
0001b0 d6 5c fd bc fd 96 8f bd ba 13 1b 3d d9 d1 f9 3c
       -0.030928057 -0.070112206 0.03786061 0.030495571
0001c0 e8 8a 86 be 4f 54 70 3c 2f 38 a2 3d 37 0e 35 3c
       -0.26277852 0.014668538 0.079208724 0.011050752
0001d0 fe 45 6b 3c db 14 36 3d f2 9d 90 bc a6 ed 6d 3c
       0.014359949 0.044453483 -0.01765344 0.014521992
0001e0 ef cd a0 3c 7d 4e 93 3c 27 f0 49 3d 4b ac 20 bd
       0.019629447 0.017981762 0.049301293 -0.03922681
0001f0 03 bb 5f 3c 97 f2 e3 bb 8d bb 77 3c f8 e9 b1 bd
       0.013655427 -0.006956409 0.015120399 -0.08687204
000200 02 42 82 bc a1 93 2a bd 43 5d 22 bd ff 42 ff bc
       -0.015900616 -0.041644696 -0.039639723 -0.031159876
000210 a0 31 aa 3d 8b a7 61 3d 2f 4e f8 3c d1 8b 4b bd
       0.083102465 0.055091422 0.030310718 -0.049693886
000220 2f be 3a 3c 25 28 7e be 99 db 97 bd 08 03 31 bc
       0.011397882 -0.24820001 -0.07414932 -0.010803945
000230 be 96 5f 3d de a0 62 bd 99 31 fd bd 0c 11 dc 3d
       0.05458712 -0.055329196 -0.123629756 0.10745439
000240 b2 53 80 bc 7b 4a 20 3d 7a b9 11 bc 10 95 79 bc
       -0.015664909 0.03913353 -0.008894319 -0.015233293
000250 6a 51 53 bb 3f 92 8b 3b 36 4d 43 bd 7c 48 14 3d
       -0.0032244571 0.0042593773 -0.047681056 0.03620194
000260 4b e4 34 3d de 07 2c 3e 36 36 98 bb 88 39 e8 bd
       0.04416303 0.16799876 -0.0046451343 -0.11339098
000270 53 e6 9f ba 38 f4 4b be 03 c9 24 bd 1a fc bb 3c
       -0.0012199379 -0.19917381 -0.040230762 0.02294736
000280 aa 30 a8 bd e9 a2 41 bd 0c 41 93 3c 76 d5 b4 3c
       -0.08212407 -0.047274504 0.017975353 0.022074442
000290 21 68 9d bc e0 b5 d6 bc c2 b9 fa 3b 39 b7 1b bc
       -0.019214692 -0.026209772 0.0076515386 -0.009504133
0002a0 30 f0 6c 3b 17 c0 f5 bc 6b fd a0 bc fb 0f 6f 3c
       0.0036153905 -0.029998822 -0.01965209 0.014591212
0002b0 62 92 58 3e c9 de a9 bd f6 e2 83 be f9 32 17 3e
       0.2114959 -0.08294446 -0.25759095 0.14765538
0002c0 b2 4d 2f 3d 86 1f 45 3d 56 2f 09 be d7 98 07 bd
       0.042798705 0.048125766 -0.13396963 -0.033104744
0002d0 2c dd 17 3d d6 17 96 bc 35 99 0c bc c1 b4 1a 3d
       0.03707616 -0.018321913 -0.008581449 0.037770037
0002e0 ed 78 4c 3d 8c 66 44 bd eb aa cf 3b 24 fb 2a 3d
       0.04992001 -0.04794936 0.0063375137 0.041743413
0002f0 06 c6 8f 3b ba a9 62 bd ad 3c 81 3d f4 84 4d bd
       0.00438762 -0.055337645 0.06310401 -0.050175622
000300 c8 ec 79 bb 3b af a8 be 35 50 23 3d cc 92 06 3d
       -0.0038135517 -0.3294619 0.039871413 0.03285484
000310 b2 a9 4c 3e 20 c0 4e 3d 57 27 3c 3e 33 64 c1 bc
       0.19986609 0.050476193 0.18374382 -0.023607349
000320 6a 3d 83 bc a0 68 58 be da f2 42 3e 18 34 07 3d
       -0.016020495 -0.21133661 0.19037953 0.033008665
000330 fd ce 85 bd 23 55 48 be 41 b5 cd bb 66 a0 c8 bd
       -0.065336205 -0.19563727 -0.0062777107 -0.097962186
000340 23 a6 1c 3e 08 94 bb bd 64 73 23 3e 17 14 91 be
       0.15297751 -0.09159094 0.15961987 -0.2833564
000350 d4 c6 8e 3e 29 54 c4 bc 01 b3 53 bc 13 ad 01 3d
       0.2788607 -0.023965912 -0.012921096 0.031659197
000360 e4 9b f0 3c 6e 6d 4b 3d e3 79 83 bc 55 c0 1f 3c
       0.02937121 0.049664907 -0.016049331 0.009750445
000370 bf 2a 26 3d 3b 30 17 3d 44 b5 48 3c 29 e2 a7 bb
       0.04056811 0.03691123 0.012250248 -0.005123396
000380 35 b4 bb bc ea fa 60 bc 73 b9 00 3e 50 c7 73 3c
       -0.022913078 -0.013731698 0.12570743 0.014879063
000390 24 da 90 3d cb 0a 64 be 37 6a ac 3d e6 89 a6 3b
       0.07072857 -0.22269742 0.084186964 0.0050823567
0003a0 4c 19 1c 3d 1d 26 a0 3d b3 62 08 3c 9f 73 1d bd
       0.038110062 0.078197695 0.008324313 -0.038440343
0003b0 d6 90 01 3d d7 39 5e 3c 4b f4 3d bd 45 d4 3c 3c
       0.031632267 0.013563595 -0.046375554 0.011525218
0003c0 95 cb 8f 3c f3 b7 0c 3d 88 2f 46 bc f6 60 25 3d
       0.01755313 0.034355115 -0.012096293 0.040375672
0003d0 47 ac a1 bd fc 1a ab 3d f6 1b 9d bd b9 c8 39 3d
       -0.078941874 0.08354756 -0.07671349 0.04535744
0003e0 12 e4 8d bd d1 91 ea bc 23 8c f9 bb ea b7 82 bc
       -0.069282666 -0.028633984 -0.0076155826 -0.015956838
0003f0 82 cb 2a 3d c9 70 fc bc b3 93 c2 3b b6 ac 2c bd
       0.041697986 -0.030815499 0.0059380173 -0.042156897

body.3.conv.bias f4 [48]
000000 2d 96 c7 bc 97 01 78 bc 6d 5c f5 bb 6a 44 ad bc
       -0.024363602 -0.015137098 -0.0074878247 -0.021150786
000010 52 9b 4a bd f5 f6 5e bd 8e 52 b3 bb 80 59 ac 3c
       -0.04946453 -0.054434735 -0.005472488 0.02103877
000020 b8 2f 41 bc b6 01 99 3a 35 38 2d bc a1 c0 94 bc
       -0.011791162 0.0011673484 -0.010572483 -0.018158259
000030 58 ce 3a bd 81 66 e0 bb f1 8d b2 3d a8 22 78 ba
       -0.04560694 -0.006848157 0.087184794 -0.00094656134
000040 bf 18 15 bb 2c 42 76 3b 58 cf 99 bd 92 58 5f bc
       -0.0022750346 0.0037576063 -0.07510251 -0.013631957
000050 2c 38 6b bd ca e3 7a bd df 11 83 3d 73 de c9 bc
       -0.057426617 -0.061252393 0.06399893 -0.024642205
000060 7d 89 3c 3b c5 e2 a6 bb f7 84 70 ba a0 b1 2a bc
       0.0028768473 -0.005092951 -0.0009175087 -0.010418326
000070 21 7f fc bc 31 26 56 bd c5 ec d2 bc ce 90 73 3a
       -0.030822339 -0.052282516 -0.025747666 0.0009291292
000080 4a a4 10 bc 2d 97 23 bd 20 37 3b bd e8 83 16 bc
       -0.008828232 -0.039939094 -0.04570687 -0.009186722
000090 24 3c 53 3c cd 7e 72 bb 56 1e d8 3b cc 25 1e 39
       0.012892757 -0.0037001849 0.006595413 0.00015082135
0000a0 6e db 71 3b fe 71 84 bc cb bb 54 3d cf c4 cb 3a
       0.0036904472 -0.016167637 0.051936906 0.0015546324
0000b0 16 85 06 3c 85 b8 47 3c db 89 82 bc 9c 3a 1f bd
       0.008210441 0.012189989 -0.015934875 -0.038874254

body.4.conv.weight f4 [48, 48, 3, 3]
000000 d6 f4 29 bd 0a 0e e6 3c e7 52 a6 3b 40 97 ec 3d
       -0.04149326 0.028082866 0.0050758007 0.11552286
000010 28 a7 18 bd be 0e 68 3c 72 2d ad bb 5c 5a 7a ba
       -0.037268788 0.014163671 -0.0052849585 -0.0009550208
000020 15 5b 57 bb e0 0a a0 bc 89 70 b3 3c b0 c2 40 bc
       -0.0032860686 -0.019536436 0.021904247 -0.011765167
000030 b2 4b 8a 3d 7f 0a a4 3c 94 fb 26 bb 9e 28 4c 3d
       0.06752719 0.020024536 -0.0025479542 0.049843423
000040 f8 1e 7e 3d e8 c2 f6 3b c1 6f b3 bd d8 40 8f 3c
       0.062041253 0.007530559 -0.0876155 0.017486975
000050 1c ea 22 bc 82 75 88 3c bb 41 ab bd 21 81 00 bc
       -0.009943511 0.016657595 -0.083621465 -0.007843287
000060 0c be b6 3c 2b d4 55 bc 1c 3a 0f b9 79 34 85 3b
       0.022307418 -0.013051073 -0.0001365919 0.004065093
000070 ce 83 b8 bc ee 4a ec ba d2 36 8b 3b f7 8f 90 be
       -0.022523787 -0.0018027702 0.0042484784 -0.28234836
000080 cd c7 b8 3b 4a 1d 03 bc 70 10 55 3c d3 f5 a7 bb
       0.0056390525 -0.0080025885 0.013004407 -0.00512574
000090 bf 82 22 3c 28 f2 39 3c 1f ba 70 3b 74 e3 65 3c
       0.009918868 0.011349238 0.003673203 0.01403128
0000a0 9d 87 ec 3c aa 20 fc 3b d4 b9 e7 3b 2a 69 1c 3c
       0.02887326 0.0076943235 0.007071713 0.009546557
0000b0 c2 88 02 3c 46 8d 2b bc 68 ac f3 bc ba 8c 27 bd
       0.007967176 -0.010470694 -0.029745296 -0.04090569
0000c0 92 f3 ff 3c 19 78 7e bc a4 41 08 3d b3 c6 1d 3d
       0.031244073 -0.015531563 0.033265725 0.038519572
0000d0 16 db a9 3b 16 fc c2 3b 96 9e 0c 3e 08 d1 89 be
       0.005183588 0.005950461 0.1373237 -0.2691729
0000e0 ff c1 8b bc e8 dd 77 bb 18 9a 84 3b 82 ff e0 bb
       -0.017060278 -0.0037821475 0.0040466897 -0.0068663964
0000f0 e1 6a 85 bb fb 05 c5 bb 12 73 36 ba 64 34 fa bc
       -0.004071579 -0.006012676 -0.0006959896 -0.03054256
000100 82 5c e1 bc 34 ab 92 bc 6b 3b 8b bc 5e 93 01 bd
       -0.027509931 -0.017903902 -0.016996106 -0.03163468
000110 ec 77 43 bc b9 5f 8e bc a9 9b 64 bc b6 54 9e bc
       -0.011930447 -0.017379628 -0.013953128 -0.019327503
000120 76 11 5d bd 47 bf 48 bd cb 3d f6 ba 3e 67 f2 3d
       -0.05397173 -0.04901054 -0.0018786726 0.11836098
000130 8a 51 a2 bc 0c 50 c2 3a 08 2e ca 3c 11 92 4e 3d
       -0.019814271 0.0014824881 0.024680153 0.05043227
000140 80 cb ca 3c 5f 05 25 3d 0a 77 ce bd c0 86 a3 bd
       0.02475524 0.040288325 -0.10081299 -0.07984686
000150 e0 c3 66 3d 3e c8 cd bd 3f 8b 74 bd 75 60 cc 3c
       0.056339145 -0.10047959 -0.059703108 0.024948338
000160 c8 85 57 3c 23 e4 ba bc b0 c3 9a bb d5 d8 64 3b
       0.0131544545 -0.022813862 -0.004723035 0.003491928
000170 86 f3 5a bd b8 d7 04 3e 60 32 98 3e e1 b5 86 bc
       -0.0534549 0.12972915 0.29725933 -0.016444148
000180 46 66 83 3b dd e7 29 3d f9 d9 ff bc 52 dc 8c 3d
       0.0040099947 0.041480888 -0.031231867 0.0687796
000190 f4 11 04 3d ea 5b 55 3c 26 20 c7 3d 7c 2a 6e bd
       0.032243684 0.013022402 0.09722929 -0.058145985
0001a0 da b7 a2 bc a6 dc 1a bc 6d 87 67 bd 41 7a ab bd
       -0.019863058 -0.009452021 -0.056525636 -0.083729275
0001b0 42 74 49 bb d2 75 2e bb de 2d 35 bb d8 c8 3c 3b
       -0.003073946 -0.002662052 -0.0027645747 0.0028806236
0001c0 11 f0 52 bd 88 23 d1 3d 93 c9 ac bb 27 6c 8c bd
       -0.051498476 0.10211855 -0.005273053 -0.06856566
0001d0 ab 7c 09 3c cf fa c6 bc 7b 3b 56 bb e8 d2 5b 3c
       0.00839154 -0.024289517 -0.0032689262 0.013416983
0001e0 3b 83 62 bd 5e 2e 73 3d 4d 94 0d 3c aa 54 c2 bb
       -0.055300932 0.05937039 0.008641315 -0.005930503
0001f0 b5 47 de 3b 84 55 e4 3a 35 5c 70 bd b6 a5 b0 3c
       0.0067834505 0.0017420505 -0.058681685 0.021563392
000200 15 00 a3 3b 0c 32 dc bc 1e 6d be 3c a6 ff 9d 3c
       0.004974375 -0.026879333 0.02324539 0.019286942
000210 51 87 19 bc 44 d3 81 3d 89 a7 a4 bc e0 8d c5 3c
       -0.009370641 0.06339124 -0.020099418 0.024115503
000220 26 a4 b2 3e 57 34 e4 3d d7 6a cc bd eb 12 31 be
       0.3489086 0.111427955 -0.099813156 -0.17292373
000230 4a f6 6f 3d d4 12 bf bd 78 9b 36 be fe 56 5d bd
       0.05858449 -0.09329763 -0.17832744 -0.05403804
000240 2b 7c 6a bc 89 69 a8 39 00 08 5f bc 40 29 e0 3c
       -0.0143118305 0.00032122087 -0.013612747 0.02736342
000250 13 74 3d 3d e8 3e 77 bb 76 57 eb 3b 93 9f a3 3b
       0.046253275 -0.0037726704 0.007182057 0.004993388
000260 dd 96 65 bc 3f a1 91 3d c6 86 38 3e 49 6f ee 3c
       -0.014013019 0.071108334 0.18020162 0.0291058
000270 e5 6f 32 be c4 ac 81 3c 57 80 0a 3d 39 66 9e bd
       -0.17425497 0.015829451 0.0338138 -0.07734341
000280 85 e7 52 bd ef fd 66 bb 43 69 19 bc eb aa 34 bb
       -0.051490325 -0.003524657 -0.009363475 -0.0027567695
000290 de 3a bf bb 38 57 22 bc 52 8d 29 bc 4e fd 9e bb
       -0.005835875 -0.00990849 -0.010348635 -0.0048519736
0002a0 f4 04 d9 bb a6 91 ab bb 6e 38 92 bb f7 f0 c0 bd
       -0.006622905 -0.0052358685 -0.0044622933 -0.094209604
0002b0 ca 4b 0f bc 09 db cf b7 4f 38 0d be cb c1 91 3c
       -0.008746097 -2.477832e-05 -0.13791011 0.017792603
0002c0 68 20 8b bb 56 7e a9 3b e6 50 da bb 3a 1d 1c bc
       -0.0042458065 0.005172531 -0.006662476 -0.0095284525
0002d0 7e 1b 30 3d a5 26 2e bd aa 7d 3d bc b9 ae 0c 3b
       0.04299497 -0.042517323 -0.011565605 0.0021466448
0002e0 60 be 0c bd 4a 62 1d 3d c5 6a e7 3c 0a 30 38 bd
       -0.034361243 0.038423814 0.028249154 -0.04496769
0002f0 f4 64 13 3d fc 22 cf 3b 5f 2b 52 3d 46 db f9 bc
       0.03598495 0.006321309 0.051310893 -0.030500066
000300 a3 06 05 3c ae 91 a0 bc 2a f7 cf 3c f1 38 7f bd
       0.008119258 -0.019600715 0.025386412 -0.062310163
000310 24 7c d8 bc c6 7a e1 bc 13 0e 2e bd 1f 96 b9 bc
       -0.026426382 -0.027524363 -0.04249389 -0.022654591
000320 cb 33 e4 3b ac d1 4c bd 6a 38 f2 bb ab 0c 91 ba
       0.006964182 -0.050004646 -0.007391979 -0.0011066397
000330 7e 93 94 3c af 42 3b 3d a5 f4 3c 3d 2b 09 26 3c
       0.018136736 0.04571789 0.04613175 0.010134022
000340 5e 26 91 3e 94 bf 29 3c 7b c0 af 3b fe 19 97 bc
       0.28349584 0.010360617 0.0053635216 -0.018445011
000350 02 5f 19 3d 2f 15 81 3b 8f fb 26 3b cb 0f f2 3b
       0.037444122 0.003939293 0.002547953 0.0073871366
000360 30 b1 0d 3d fb 85 88 3d 0f 33 8a bc f9 b9 cd bd
       0.034592807 0.0666618 -0.01687005 -0.10045237
000370 fe fc 32 3d 5e d4 78 bc 45 45 f7 3c 26 80 e4 3c
       0.043698303 -0.015187351 0.030184397 0.027893137
000380 37 f8 29 ba e3 fc 14 3d ca 53 96 3d d6 2f 74 3d
       -0.0006483825 0.036373984 0.073402 0.059615932
000390 7b c0 e5 3d 27 29 2a bf f6 91 9f 3d d3 07 b7 3b
       0.11218353 -0.66469043 0.07791512 0.0055856495
0003a0 7e 57 6d 3d 3d 12 94 3d d2 fd da bd e2 96 2d be
       0.057944767 0.07230041 -0.10692944 -0.16952088
0003b0 bd cb 00 bd 6c f8 c8 bd 0e 17 4e be 70 64 25 3e
       -0.0314443 -0.09813008 -0.20125982 0.16151595
0003c0 32 21 6e ba 87 12 1e 3e 9a bb 25 3e fa e6 50 bd
       -0.0009083926 0.15436755 0.16184846 -0.051001526
0003d0 c0 ec ae bc bd 89 d3 3c 8a 15 90 bc 4c 2d 98 3e
       -0.021353126 0.025822515 -0.017588396 0.2972206
0003e0 90 e3 cd 3c fc 62 32 bc cb 98 ba bb f4 d8 b7 3c
       0.025132924 -0.0108878575 -0.005694484 0.022442318
0003f0 15 22 2f 3b ef 39 51 3a 3d 38 f1 bb bc e3 fa 3b
       0.0026723195 0.000798135 -0.0073614405 0.0076565426
