model/x4_224_320.onnx (onnx, 437112 bytes, 12 tensors)

stem.conv.weight f4 [49, 3, 3, 3]
000000 6e 86 4f be 3b a7 47 be 20 99 01 3e 50 0f b7 3d
       -0.20266125 -0.19497387 0.12656069 0.089384675
000010 c5 db 40 bc ec 61 12 3e 15 f4 ed bc f7 65 23 be
       -0.011771147 0.14295167 -0.029047051 -0.15956865
000020 fa bb f0 bd 85 14 d0 bd 24 7b 86 3c b6 59 78 bd
       -0.11754604 -0.10160164 0.01641614 -0.06063243
000030 fb b6 c9 3d a3 3f 1b be 8a 84 77 3d f9 69 66 3d
       0.09849354 -0.15160994 0.060429133 0.056253407
000040 37 26 c9 3d f6 be 3b 3d eb ac d4 bd 82 43 6c bd
       0.09821742 0.04583641 -0.10384544 -0.057681568
000050 38 b0 c1 bd ec 5f 1a be 4b fa ee 3d 2d b3 0d 3e
       -0.09457439 -0.15075654 0.11668833 0.13837881
000060 7e 58 2c 3e 88 c4 0d be 68 55 06 3e 49 70 26 3e
       0.16830632 -0.13844502 0.13118517 0.16253771
000070 cb 33 63 3d 38 c6 3f be e9 af 5f bc 36 54 8d 3d
       0.055469315 -0.18727958 -0.01365278 0.069008276
000080 cd 48 16 3e 03 25 97 bd e5 31 02 3e 99 91 1c 3e
       0.14676209 -0.07380106 0.12714346 0.15289916
000090 b7 7e 59 be fc c0 0c bd 11 47 96 3d cc 03 84 3d
       -0.21239744 -0.03436373 0.073377736 0.06446037
0000a0 60 c8 08 bd 56 aa b5 3a 6d e5 91 bd 4e 9c 1e 3e
       -0.033394217 0.0013859968 -0.071238376 0.15489313
0000b0 8e e8 26 be b0 20 df bc 5c d6 cd 3d cc 7b 3e be
       -0.1629965 -0.027237266 0.100506514 -0.18601912
0000c0 eb f0 2f be bb 23 d3 3c 26 e4 e4 3c 63 b9 37 bc
       -0.17181747 0.025773874 0.02794082 -0.011213633
0000d0 1b 37 a0 3c c3 2e e2 3d 3d 15 4d be 16 5b 21 3d
       0.019557526 0.11044075 -0.20027633 0.039393507
0000e0 db 57 05 be 5c 3e 44 be fc 7f 3d be 32 b7 28 3e
       -0.13021795 -0.19164413 -0.18505853 0.16476133
0000f0 c4 fa 4f 3d 51 1e a1 ba 59 26 ae bd fc 55 3c bd
       0.050776258 -0.001229236 -0.08503408 -0.04598044
000100 0b c6 12 3e 6d 1f 4c 3d a5 09 51 bc 95 24 49 bd
       0.1433336 0.049834657 -0.012758647 -0.049107153
000110 08 dc de 3d 78 cd 97 3c bd 6c 55 3d f9 d5 88 3d
       0.108818114 0.018530592 0.052105654 0.06681437
000120 8f f1 3f 3d 44 4c 35 3e 82 8b b0 3d ff 19 88 bd
       0.046861228 0.17704874 0.08620359 -0.06645583
000130 df e4 fa 3b 73 52 12 3e 59 05 63 3d cf 8d e2 3d
       0.007656678 0.14289264 0.05542502 0.11062204
000140 34 a9 1a 3e 07 a7 d5 bc ed 47 2f bd 1c 03 d4 bd
       0.15103608 -0.026080621 -0.042793203 -0.103521556
000150 07 7a 11 3e c1 a5 70 bd cd ec 57 be f6 34 d1 bc
       0.14206706 -0.058751825 -0.21086426 -0.025537949
000160 e8 53 31 3d b4 82 2c 3e ae 5a 18 3d 04 d4 a5 3d
       0.04329291 0.16846734 0.037195854 0.080970794
000170 2d 34 96 3d d8 33 76 bd 44 29 9f 3d 59 2b 71 bd
       0.073341705 -0.060108036 0.07771543 -0.05887923
000180 3b 6a 7b bd ed c5 dc bd 45 5b d0 3d 71 a9 8f 3d
       -0.061380606 -0.10779939 0.10173658 0.0701474
000190 a5 ed 1a be 45 d5 87 bd ab 4b 66 3e a7 d2 ac 3d
       -0.15129717 -0.06632475 0.22489803 0.08438616
0001a0 2c 42 78 3a 3a 35 f7 bd 90 1b 55 bd 89 1f 38 be
       0.00094703096 -0.12070699 -0.05202824 -0.1798078
0001b0 80 fd 77 bc 0f 92 cf 3d c7 0c e5 3d 02 2a 8b bd
       -0.015136123 0.1013528 0.11184078 -0.06795122
0001c0 10 f9 9a bc 11 31 0c 3e 1c 93 e8 bb bc 5c 31 3d
       -0.01891759 0.13690592 -0.007097615 0.04330133
0001d0 4b 06 08 be 98 84 a8 3d 3a 47 fe bd 0f 28 07 3e
       -0.1328365 0.08228415 -0.12415929 0.13198875
0001e0 3a 67 4b 3e 12 dc 53 3e 4e 93 33 3e 27 a2 49 bd
       0.19863597 0.20689419 0.17536661 -0.049226906
0001f0 5a d1 01 be 7a fc 1f 3e fc 2a 8f bd 2a 6e bb bd
       -0.12677518 0.15623656 -0.069906205 -0.091518715
000200 a6 63 19 3e e0 89 9a 3b 52 fb 36 be 40 1f 1d be
       0.14979419 0.004716143 -0.17869309 -0.15343952
000210 c8 49 0c bd fd 7a af bd ab bf 4a bd 49 56 12 3e
       -0.03425005 -0.0856838 -0.049499195 0.14290728
000220 29 42 09 3d 59 39 f2 3d e4 8c c0 bd e8 2e 4d 3e
       0.03351036 0.118273444 -0.09401873 0.20037425
000230 26 1b 1c 3e 92 da d1 bd 8c 43 03 be 38 a7 54 be
       0.15244731 -0.10246767 -0.12818736 -0.20766914
000240 56 cd 9f bd da 08 d8 bd 0a a8 9d bd 69 12 b5 3d
       -0.078028366 -0.10548563 -0.076980665 0.08841402
000250 b8 1e 51 3e c2 55 fa 3c ab ae 06 3e f5 5b f9 ba
       0.20421875 0.03055847 0.13152568 -0.0019024598
000260 6a ec fb bc 61 f3 11 be 30 37 6e 3d aa fd f5 bc
       -0.03075238 -0.14252998 0.0581581 -0.030028183
000270 58 01 f5 bd 4e 82 34 be 4a 28 ea 3d d2 1d f3 3c
       -0.11963147 -0.17627832 0.11433466 0.029677305
000280 b7 7e 1f 3e e5 d7 56 bd 81 bf 0a 3e 8d d4 dd 3d
       0.15575682 -0.052451987 0.13549615 0.108315565
000290 a2 36 c4 3d 97 93 07 3e 2d 7d b2 3d e3 d4 8a 3c
       0.09580733 0.13239895 0.08715282 0.016947215
0002a0 95 5c 37 3e 93 c8 bc bb 05 8b 81 bc bc 0d 85 3d
       0.17906411 -0.005761215 -0.01581336 0.0649676
0002b0 27 10 20 be 7b 92 4b be 25 12 37 be 62 6d 0a 3e
       -0.15631162 -0.19880097 -0.17878015 0.13518289
0002c0 94 14 1b be 64 64 88 bc 90 34 d6 bc ab 7c fd 3d
       -0.15144569 -0.016649432 -0.02614811 0.12377294
0002d0 d8 c7 15 3e ea 80 0d 3e 48 18 27 3e f4 8f 3a be
       0.14627016 0.13818708 0.16317856 -0.18218976
0002e0 13 b5 62 3d 81 9c 55 be e3 2e 0e bd 7b 96 4a 3d
       0.055348467 -0.20860483 -0.034712683 0.049459916
0002f0 9d 70 bb bd 90 b9 d4 3d c9 b4 c5 3b 63 a9 b0 3d
       -0.09152339 0.10386956 0.006033514 0.08626058
000300 55 2f 21 3b bd 6b 1b be 6a c4 ab 3d 05 07 a1 3d
       0.0024594862 -0.15177818 0.083870724 0.07862667
000310 bd 75 41 be 43 b9 e6 bd 1b 10 74 3d d9 1e e1 3d
       -0.1889257 -0.112658046 0.059585672 0.10992212
000320 d1 69 1f 3e 15 5c 6d bd 0e c7 22 be 11 2e aa 3a
       0.1556771 -0.057949144 -0.15896246 0.00129837
000330 d8 66 1f 3e 52 17 35 3d d1 8a 15 3e 5f 03 15 bd
       0.15566576 0.044211693 0.14603736 -0.036380168
000340 18 28 9f 3d 51 3f 8d 3d f3 4e 1a 3e 74 91 65 3b
       0.07771319 0.06896842 0.15069179 0.0035029324
000350 2b d2 c1 3d 7f a4 be bc 32 ae 7b bd 1e 72 1f 3d
       0.094639145 -0.023271797 -0.061445422 0.03892719
000360 d4 da 6e 3d 60 87 fe 3d ec 61 16 be b0 27 f4 3d
       0.05831416 0.124281645 -0.14685792 0.11921632
000370 00 c9 36 3e 9a b5 f4 bd a3 09 19 be c5 16 af 3c
       0.17850113 -0.119487 -0.14945082 0.021373162
000380 8e 46 78 3d 2e 2a 13 3d 85 d7 ee bd 03 4f a1 bd
       0.06061416 0.035928898 -0.11662201 -0.078763984
000390 67 33 c2 3b 82 93 84 bd d9 71 dc 3c 86 d4 0d 3e
       0.005926538 -0.064734474 0.026909756 0.13850603
0003a0 f3 d0 37 be 3e 01 f6 bd 2e e8 bf 3d a9 be 4f 3d
       -0.17950802 -0.12011956 0.09370457 0.050718937
0003b0 ca ef 72 bd b2 22 6e be a2 f5 0b be 5b 9d da 3d
       -0.059310712 -0.23255423 -0.1366792 0.106745444
0003c0 28 d2 1a 3e 61 c8 8e bd 66 ca af bd e1 25 40 bd
       0.15119231 -0.06971813 -0.08583526 -0.046911124
0003d0 0e ad 8d bd b8 dd 1a 3e a1 d3 a8 bd 0e 33 45 be
       -0.06917773 0.15123641 -0.0824349 -0.19257757
0003e0 c5 d7 3a be 56 93 80 3c 2e 76 dd 3d 0c 2b af bd
       -0.18246372 0.015695255 0.108135566 -0.085531324
0003f0 c5 30 31 3d 14 0d 05 3b 3c 08 88 bd 61 11 79 3d
       0.0432594 0.0020301985 -0.066421956 0.06080759

stem.conv.bias f4 [49]
000000 17 e1 2b 3e c8 fe 58 3c e5 96 9c 3d 99 66 27 be
       0.16785084 0.013244338 0.07645968 -0.16347732
000010 ce 1d d6 bc 58 eb 28 bc bf da 35 3e ec a7 41 be
       -0.026137259 -0.010310017 0.17759226 -0.18911713
000020 4f bc ca 3d 32 3c 3b 3e 2e 7b 1f bd 40 48 17 3e
       0.09899198 0.18284681 -0.038935833 0.14773655
000030 eb b9 2d be d0 8c 07 be 79 12 b8 3d 96 55 15 be
       -0.16965453 -0.1323731 0.089878984 -0.1458343
000040 15 4e c4 3d eb 74 27 bd e2 ff bf 3c ec 68 a2 bc
       0.095852055 -0.040882986 0.023437444 -0.019825421
000050 20 ed 37 3c c3 97 31 3b a8 6e de bd 17 a6 05 3e
       0.011225969 0.0027098514 -0.1086095 0.1305164
000060 d3 ec 1e 3e ec 41 18 3e 87 ed 19 be 1f bf 35 3e
       0.15520029 0.14868897 -0.15032016 0.17748688
000070 b9 b8 4a bd 1d 1f 4d 3d a0 66 80 3d 21 c2 c4 3d
       -0.04949257 0.0500785 0.06269574 0.0960734
000080 d6 61 d2 3d 20 e0 db 3d c3 de 22 be 19 0f 29 be
       0.10272567 0.10736108 -0.1590529 -0.16509666
000090 03 a3 df 3c 59 1e e9 3d 77 e7 4a 3d 27 25 0d 3d
       0.02729941 0.113827415 0.04953715 0.03445926
0000a0 24 bc 24 bd 99 c5 39 be 55 21 9f 3d b4 a4 92 3d
       -0.040218487 -0.18141784 0.077700295 0.07160321
0000b0 b6 48 ba 3c 52 62 be 3d d8 0a 05 3e 14 30 3c ba
       0.02273975 0.09296097 0.12992418 -0.0007178795
0000c0 06 17 22 be
       -0.15829095

body.0.conv.weight f4 [49, 49, 3, 3]
000000 21 53 a5 ba ab ab 18 bd af 14 1a bd ef 6f 64 bc
       -0.0012613275 -0.03727309 -0.03761738 -0.013942703
000010 39 45 e9 3b 01 ed ae 3a 43 47 36 bd 15 7c c9 3b
       0.0071188477 0.0013345779 -0.044501554 0.006148825
000020 9c 26 12 bd 3f e0 a6 3c 91 14 d0 3c f4 d8 ce bb
       -0.035681352 0.0203706 0.025400432 -0.006312484
000030 65 20 b5 bd 52 8b bd bd 12 01 9f bd 47 00 ad bb
       -0.088440694 -0.09255089 -0.07763876 -0.005279574
000040 b0 cc 01 bd d8 48 a5 bc c8 a7 b6 3b 19 04 97 bc
       -0.031689346 -0.020176336 0.0055742003 -0.018434571
000050 14 1e 82 bd db 19 3b 3d d8 0a 87 3b f9 92 04 3c
       -0.06353393 0.045678955 0.0041211657 0.008091682
000060 82 1d 1b 3d 39 e5 4a bc 23 a3 10 3d fe 6a c0 3c
       0.037869938 -0.0123837525 0.03531183 0.023488518
000070 7f ef 9a 3d 50 11 c8 3d 3d da e4 bd 23 1e cc 3d
       0.075652115 0.09768927 -0.11174438 0.099666856
000080 9a 6e 3b be 45 40 60 3d c4 60 e1 3d bb b6 07 3c
       -0.1830391 0.054748792 0.11004785 0.008283312
000090 46 f0 e8 3d 8c 9f 90 3d cf d9 07 3e 34 0f 8f bc
       0.113739535 0.07061681 0.13266681 -0.017463304
0000a0 92 0d 62 bd bb 23 15 bd af c4 00 bd b1 bc d5 bd
       -0.055188723 -0.03641103 -0.031437572 -0.10436381
0000b0 a2 80 56 bd ee 02 aa 3e ed 61 82 3e cd b8 eb 3d
       -0.052368768 0.3320536 0.25465336 0.11509857
0000c0 79 09 a1 bd f9 2f 48 bd 4e b3 9a bb 6f 0e 71 3d
       -0.07863135 -0.048873875 -0.004721082 0.058851656
0000d0 86 aa bf bd 5e b8 58 bd 77 92 16 bd a2 eb 64 3d
       -0.09358697 -0.0529102 -0.036760774 0.05588878
0000e0 79 48 4d bd ed eb 9b bb c6 0b aa bc f3 bf 0e bd
       -0.050117943 -0.004758349 -0.020757567 -0.034851026
0000f0 5c 6f 38 bd c0 72 3c 3d 1d c1 f8 bc 93 51 88 3b
       -0.045028076 0.04600787 -0.030365521 0.004160115
000100 e3 59 db bc 76 0e 2f bd 0d c1 17 3d 6e ea c3 bc
       -0.02677626 -0.0427384 0.037049342 -0.023915496
000110 6d a5 ea bb 78 9a 49 bb ab d1 b5 3c ee ea a3 bc
       -0.0071608336 -0.0030762237 0.022194704 -0.020009484
000120 a3 cd d5 bb 2e 70 26 bd 9a d7 27 3d 1f 58 4c bd
       -0.006524758 -0.040634327 0.040977098 -0.049888726
000130 cb 56 0f bd 23 00 04 3d a6 68 9f 3d a7 04 4b bd
       -0.03499488 0.032226693 0.07783632 -0.049564984
000140 71 d7 31 bd 01 5e 7e bc 80 e2 1c bd e6 8b f4 bb
       -0.04341835 -0.015525342 -0.038301945 -0.0074629663
000150 52 de 3c 3d 59 de b7 3c 42 5f 87 bd 5c 67 72 3d
       0.04611046 0.02244489 -0.06609966 0.059180602
000160 a9 89 91 3d cc 2f 02 3c 20 ef 9b bc b3 d8 93 bc
       0.07106335 0.007945966 -0.019034922 -0.018047666
000170 d6 98 4c bd 41 aa 1f 3d 28 05 19 3d 08 91 d0 bc
       -0.049950443 0.038980726 0.037358433 -0.025459781
000180 e8 02 7d 3d ee a3 db 3c f2 28 e3 3c 7a 11 e9 bc
       0.06177035 0.026811566 0.027729485 -0.028450716
000190 df 60 98 bc 82 23 5b 3c 6b 47 47 3d 91 64 50 3c
       -0.01860088 0.013375165 0.048652094 0.012719289
0001a0 7c 79 24 bd b3 00 80 bb 28 5e 02 bc b1 e3 e0 3b
       -0.04015492 -0.0039063334 -0.007957019 0.0068630804
0001b0 b8 7f 52 3d a1 71 71 3d df 65 3e 3d 6b 86 87 bd
       0.051391333 0.058946256 0.04648387 -0.06617435
0001c0 c4 64 b9 3b 2e 67 78 bc 1e c0 82 bc 78 2a 9e 3d
       0.005657764 -0.015161319 -0.01596075 0.07722944
0001d0 f3 cf 3e 3d 43 fe a1 bc 27 e8 60 3d 96 35 0c be
       0.046585035 -0.019774562 0.054908898 -0.13692316
0001e0 e9 0d 00 be a1 8b a4 bb da ed db 3b 7e 22 33 be
       -0.12505306 -0.005021528 0.0067117037 -0.17493626
0001f0 5e ec f0 bd 00 a1 f3 3d 8f b5 57 bd ec 65 0d 3b
       -0.117638335 0.11895943 -0.052663382 0.0021575643
000200 87 53 86 bd ce 01 b8 3c 86 67 c2 bc 73 bb 05 bd
       -0.065589 0.022461798 -0.023731004 -0.03264947
000210 dc 66 dc bc 13 96 01 bd eb 9f ab bc c3 04 82 bd
       -0.026904516 -0.031637263 -0.020950278 -0.063485645
000220 99 e6 b6 bd 20 50 02 bc 79 b0 46 bd 1b 16 91 bd
       -0.08930702 -0.007953674 -0.04850814 -0.070842944
000230 18 6b f5 ba f6 b3 35 3d f2 25 e7 3b 19 57 0f 3d
       -0.0018723933 0.044361077 0.007054084 0.034995172
000240 f0 f7 03 bd f7 66 82 3c c8 d3 36 3c 62 ec 1a 3d
       -0.032218874 0.015918238 0.011158891 0.03782309
000250 13 b4 c1 38 3c 9c 7b bd c2 43 4f bd be dd fc bc
       9.2364986e-05 -0.061428294 -0.05060173 -0.030867454
000260 56 a8 e2 bc 00 8b e8 bb 8a c3 a0 3d 62 bf fe 3c
       -0.02766816 -0.007096648 0.07849796 0.031097118
000270 ad 49 f2 bc 35 bf a8 3d 93 0f 25 bd 0a f2 58 3d
       -0.029576147 0.08239595 -0.040298056 0.0529652
000280 c3 52 4a 3d 40 52 0e bd fa a9 19 bc 2a 6b d4 bc
       0.049395334 -0.03474641 -0.0093789045 -0.025930006
000290 d9 c7 83 3c 54 92 34 bc ca 7f 41 3d 63 fe 50 bd
       0.016086506 -0.0110212155 0.04724101 -0.051023852
0002a0 b0 57 c5 bc 8d e0 24 3d 36 8b 5e 3d 64 61 2d 3e
       -0.024089664 0.04025321 0.05433198 0.16931683
0002b0 19 92 c8 3d 8c ee f7 3d 69 95 d2 3d c9 05 1d 3e
       0.09793491 0.12106046 0.10282404 0.15334238
0002c0 66 92 0c 3c 02 2b 96 3b e0 87 62 3c 99 8e b4 3b
       0.008579826 0.0045827636 0.01382634 0.005510163
0002d0 17 4d 3e bc 26 7a 48 bc 80 c9 95 bd 84 ab 16 3d
       -0.011615059 -0.012236154 -0.07313824 0.036784664
0002e0 88 52 86 3c 49 26 33 3d 93 a0 72 bc 5d ef 9a 3c
       0.016396776 0.043737683 -0.014808792 0.018912965
0002f0 d2 44 70 3b f2 83 de bc 39 5b 79 3d 11 cf a8 3d
       0.0036662114 -0.027162526 0.060878012 0.0824262
000300 4a cc 10 be 5b c8 67 bd 1c ec 9e bb 35 2f 87 3c
       -0.1414043 -0.05658756 -0.004849924 0.016502002
000310 f1 e6 d8 3d 92 65 e3 bc e8 4f 73 3d 64 7a 71 bd
       0.105909236 -0.027758393 0.059402376 -0.05895461
000320 eb 71 1c bc 2f 2b 01 3c f7 65 74 bd a5 3b 37 bd
       -0.009548645 0.007883831 -0.059667554 -0.044734616
000330 94 8e 4d 3d 1d 06 60 3d c6 d7 48 bc 35 ef 41 bd
       0.0501848 0.05469333 -0.012258476 -0.047347266
000340 c7 c4 21 bc 45 a6 8e bd 68 fc 57 3d 21 44 5b 3d
       -0.0098735755 -0.06965307 0.052730948 0.05353177
000350 c9 4d c2 3b 87 8f 5a 3d ae 97 52 3d d6 9a 52 3d
       0.005929683 0.053359535 0.051414184 0.051417194
000360 50 d4 1c 3d 36 82 0f 3c c8 c7 5e bd 40 8a 45 bd
       0.038288414 0.008759072 -0.054389745 -0.04822755
000370 f4 34 12 bd 42 a0 56 3c e6 6c c2 bb 53 05 ae bc
       -0.03569503 0.013099732 -0.005933392 -0.021242773
000380 28 86 9a bd 4b 41 a1 bc f0 b1 b5 bc ce e1 b0 3d
       -0.075451195 -0.019684454 -0.022179574 0.08636819
000390 2e 41 65 3c c2 61 cc bd 6a 92 3e bd c4 4a a8 bd
       0.013992591 -0.09979583 -0.04652635 -0.082173854
0003a0 ac 19 a0 bd 5c 8e 45 bd 74 b8 ec 3d b9 ed 4e 3d
       -0.078173965 -0.048231468 0.11558619 0.05051968
0003b0 6f d8 b3 bb 1a c4 5f bd c0 8b b4 bd 32 8c 96 bd
       -0.0054884474 -0.054630376 -0.08815718 -0.07350959
0003c0 8f d7 fd bc b4 3b 19 bd af 07 60 bc 0a 73 5a 3d
       -0.030986575 -0.037410453 -0.013673707 0.053332366
0003d0 c2 be 1e 3d 48 b1 69 3c f6 58 0d bc ff b9 f0 bc
       0.03875614 0.014263459 -0.008627167 -0.029385565
0003e0 96 00 23 bc 6e 15 d2 3d 62 95 43 bd 0b 23 36 3b
       -0.00994887 0.10257994 -0.047749884 0.0027791883
0003f0 4b c2 2c 3e 0c a2 33 3b 0c 46 a5 3e 33 40 00 3e
       0.16870992 0.002740982 0.32280004 0.1252449

body.0.conv.bias f4 [49]
000000 7e fd cf bb 47 7f 39 bd 44 80 ee 3c f2 3a 50 3a
       -0.0063473573 -0.045287397 0.029113896 0.0007943354
000010 ea fe c3 3c 66 e5 d5 bc 85 5b 22 bc fd 3f 74 bb
       0.023925263 -0.026110362 -0.009909515 -0.0037269585
000020 94 ce fd 3b ae ce 2f 3d 45 ae 41 bb cb 69 c7 3c
       0.0077455733 0.042921714 -0.0029553336 0.024342438
000030 e2 3e 09 bd ec c1 40 3c bc 9b 03 bd 11 a1 e7 3a
       -0.033507235 0.011764985 -0.03213094 0.0017671903
000040 5e ee 1f bd 72 6a 69 bd 09 47 8c 3c 9f 7c ef bc
       -0.039045684 -0.05698628 0.017123716 -0.029234229
000050 eb 8c 64 bc 2d 62 40 3d c9 99 13 3d fc 57 2d bd
       -0.013949613 0.046968628 0.036035333 -0.042320237
000060 07 99 00 bd 78 9b c2 bc fd 6f a6 3c 15 a8 85 3b
       -0.03139594 -0.023755774 0.020317072 0.004078875
000070 11 c0 20 3b 97 1a ea 3c f7 57 28 bd b7 49 15 bd
       0.0024528543 0.028577132 -0.041099515 -0.036447253
000080 f8 09 2b 3d 23 37 f9 3b ee 6c 99 bc bc 2c e4 bb
       0.041757554 0.0076054498 -0.0187287 -0.0069633406
000090 61 6d cd bc 7e d5 cb bc ae 68 da 3c 71 b1 38 bd
       -0.02507657 -0.024882074 0.026661243 -0.045091096
0000a0 1f 79 9b 3c 22 fe e1 3c 3f f6 dc 3b b7 a8 9d bc
       0.018978653 0.027587 0.006743222 -0.019245489
0000b0 01 11 fc bc 42 11 38 bd f3 03 eb 3b 43 66 51 bd
       -0.030769827 -0.044938333 0.0071721016 -0.051122915
0000c0 40 90 64 bc
       -0.0139504075

body.1.conv.weight f4 [49, 49, 3, 3]
000000 78 b0 6e 3c e3 09 ff 3b 02 c2 3a bd 2e de 9c bb
       0.014568441 0.007783161 -0.045595177 -0.004787228
000010 f3 85 de 3c ff c7 eb bc 11 cc 88 3d 65 29 5e 3d
       0.027163481 -0.028781889 0.066795476 0.054238696
000020 9c a0 08 bc cf 28 01 3d f2 67 14 3c 93 63 83 bc
       -0.0083390735 0.03153306 0.009057986 -0.016038692
000030 d0 22 23 bd d3 bc b6 3c 69 8b 3a 3c d2 17 d9 ba
       -0.03982812 0.022306835 0.011385777 -0.0016562885
000040 54 75 79 bd e1 25 24 bd 43 a3 06 bd 7a cf 29 bd
       -0.06090291 -0.040075187 -0.032870542 -0.04145763
000050 7b af aa 3c 9d f7 f5 bc ce 5b 1b bd e3 90 4c b8
       0.020835629 -0.030025298 -0.03792935 -4.8772326e-05
000060 67 99 15 bc 4d 9e 49 bc 36 5d 23 bd ac 69 53 bd
       -0.009130812 -0.012305808 -0.039883815 -0.05161445
000070 04 65 11 3c 1c 1e 3e 39 a3 f0 5a bd fa fc 3f bd
       0.008874182 0.00018131029 -0.053452145 -0.046872117
000080 e4 0e 36 bd 9a 06 4f bb 84 9e 57 bd bb 46 cd bc
       -0.044447795 -0.0031589628 -0.052641407 -0.025058141
000090 66 4d 82 ba 5e ef 8b bc 7b 5c f6 3b bc f5 8c 3c
       -0.000994128 -0.017081913 0.0075183487 0.017207019
0000a0 ff bd 7b bd c7 ec 04 bd fc 4c 39 bd 33 6a 07 3b
       -0.06146049 -0.03245237 -0.045239434 0.0020662665
0000b0 94 8f 80 bd 33 c2 9b bc 20 e9 12 bd e0 16 81 bd
       -0.06277385 -0.0190135 -0.035866857 -0.06303191
0000c0 0f 8d 34 3c 66 78 75 bd 9b 0e f6 3b 00 28 71 bd
       0.011019959 -0.059929274 0.0075090653 -0.058876038
0000d0 1f 33 ca bc 16 0d 2a bc 87 77 07 bd 38 e8 bd bc
       -0.02468258 -0.0103790965 -0.033072975 -0.02318202
0000e0 83 c6 7c bd a3 4f 16 bd 7d e5 ff bc cf 90 8e bd
       -0.061712753 -0.03669704 -0.031237358 -0.06961214
0000f0 ae ac c0 bc 74 13 5e bc d9 1c 77 3c 86 18 c6 3b
       -0.02351984 -0.013554443 0.015082561 0.006045404
000100 d8 aa 3e bd a6 c3 c3 3c 19 2d 9c bd 28 9b 86 bc
       -0.046549648 0.023897003 -0.07625789 -0.016431406
000110 a5 1a 5e 3c 70 8e 49 bd 8d 33 3a 3d ec ad 4e bd
       0.013556157 -0.049208105 0.04545932 -0.050458834
000120 fe cd 40 3c 3e 47 c8 bc 43 59 fa bb a9 14 a1 3c
       0.011767862 -0.024448033 -0.0076400354 0.019663172
000130 c4 3e a2 ba 10 9a ad bc 9d 36 14 ba 9c 07 53 bd
       -0.0012378325 -0.021191627 -0.000565389 -0.05152093
000140 28 af 52 bd fc a5 03 3b 99 ae 47 bd 20 5d a6 3b
       -0.051436573 0.0020087948 -0.048750494 0.0050770193
000150 87 a6 43 3b c8 9d 22 bd f1 bd 03 bd 66 c0 ae 3c
       0.0029853897 -0.039701253 -0.032163564 0.021331977
000160 99 95 ae bc ed cb 35 bd 9c f9 99 bc 78 dc ca 3b
       -0.021311568 -0.044383932 -0.01879578 0.0061908327
000170 0f dd 90 bd 39 bc e9 3c e6 bb 44 bd 75 42 84 bd
       -0.070734136 0.028532134 -0.048030756 -0.06457988
000180 b4 f2 ef 3b 30 4b a7 bc ba 3e ae bb 5b 70 87 3c
       0.0073226336 -0.020421594 -0.005317536 0.016533067
000190 bb b2 99 3c 03 ad 21 3b a7 84 78 bc 92 44 27 3d
       0.018761983 0.0024669773 -0.0151683455 0.040836878
0001a0 3b 6e f2 3c ad c3 28 3b 8a 1a 3b bb 78 fd a5 3c
       0.029593578 0.0025751397 -0.0028549754 0.020262465
0001b0 1b 1a 36 3b 2f b5 80 bd 6a 94 5d bd 09 38 c9 bc
       0.0027786556 -0.06284558 -0.054096617 -0.024562852
0001c0 e8 c0 90 bd e1 ae 2d bd fd 75 e1 bc 2e df 14 3c
       -0.07068044 -0.042403106 -0.027522082 0.009086413
0001d0 67 9c 04 3c 32 c4 25 bd 6e 55 56 3b 7d 1c bb 3c
       0.00809393 -0.04047031 0.0032704729 0.022840733
0001e0 12 54 48 bd cb 7e ae 3b 10 db 9b bb 2f 46 75 bd
       -0.0489083 0.0053251735 -0.004756339 -0.059881385
0001f0 9f 9e 04 bd 58 59 db 3b 2f 55 3a 3d 36 2f 59 3d
       -0.032377835 0.006694 0.045491394 0.05302354
000200 c9 36 3f bd 39 f9 eb bc f4 da 07 3d be f1 5f 3c
       -0.046683107 -0.028805362 0.033167794 0.013668476
000210 22 ce 3c 3d 7d da 1a 3c 9a 7b cf 3b ae 0d 7b 3d
       0.04609502 0.009451506 0.006331873 0.061292343
000220 08 9b 0e bb 15 36 26 bd e9 b5 2c 3d 8c 3f f6 bc
       -0.0021759886 -0.04057892 0.04216567 -0.030059598
000230 45 3a 78 3c ed bd c6 bc eb 31 d0 3c eb 35 30 bc
       0.015150611 -0.024260486 0.025414428 -0.010755043
000240 81 4a 03 bd 19 7f 6c bc 50 d3 7c bd 25 7a db bc
       -0.032053474 -0.014434599 -0.06172496 -0.026791641
000250 96 bc b4 3c 42 cd 27 bd 0f 8c c0 3c 50 4b f5 3b
       0.022062581 -0.040967233 0.023504285 0.0074857846
000260 7d 57 b8 3c f3 78 eb ba b3 fb 68 bc 49 c9 f0 3c
       0.022502655 -0.0017965123 -0.014220166 0.029392855
000270 1d b5 ff bc 11 7f e6 bb 53 2c 2d 3d 0f ed 39 3d
       -0.031214291 -0.0070341905 0.0422786 0.045392092
000280 0f ed c9 ba d1 c8 9f 3c 8b 46 f7 3c e6 df 77 3b
       -0.0015405732 0.019504936 0.030185005 0.0037822663
000290 c2 43 bc 3c 3c 0a 0e 3d 68 2f 28 3d ca 7d c1 3c
       0.022981528 0.03467773 0.041060835 0.023619551
0002a0 b4 b6 fb bc 40 34 51 bc 6a 95 07 3d da 39 06 3d
       -0.030726768 -0.012768805 0.033101477 0.032770015
0002b0 8d 36 56 bd 9f e6 16 bd 15 2e d5 bc ca 17 23 3c
       -0.052298117 -0.03684103 -0.02602295 0.009954402
0002c0 71 8a ad 3b 3c a3 b2 3c 1a 5a 97 bc 79 79 03 bd
       0.0052960445 0.021806352 -0.018475581 -0.032098267
0002d0 ae 05 a8 3c 88 70 70 bd a8 dc 7a bd 71 18 25 3d
       0.02051052 -0.05870107 -0.06124559 0.040306512
0002e0 07 dc e6 3c 12 fd 12 3c 77 ca c0 bc db 3c 0f bd
       0.02818109 0.0089714695 -0.023534043 -0.034970146
0002f0 15 bc 08 bc 41 d9 5c bb 54 4b 8e bc a4 0c 17 bc
       -0.0083456235 -0.003369883 -0.017369904 -0.009219322
000300 9e d9 3a bc bb 58 11 bd d0 5d a8 3c ba 6b d0 bc
       -0.011404423 -0.03548501 0.020552546 -0.025441993
000310 a9 f6 1d 3c ca bb 8e 3c 70 d9 49 bd 31 cf 27 3b
       0.009641328 0.01742353 -0.04927963 0.0025605673
000320 7d 4c 9f bc 63 39 4f bd c4 07 9a 3b 72 ae 97 3b
       -0.019445652 -0.050591838 0.0047006328 0.00462895
000330 2a a2 4d bc de d8 e2 ba f9 fb 2f bd 47 84 71 bc
       -0.01255087 -0.0017307063 -0.04296491 -0.01474101
000340 32 31 1f bd 06 86 30 3d 10 c5 ca bc 96 bb 09 3d
       -0.038865276 0.043096565 -0.02475217 0.03362616
000350 0c 31 5a bc 3c b5 eb bc 28 3f f2 bc a3 a3 54 3b
       -0.013317358 -0.028772943 -0.02957113 0.0032446168
000360 53 42 18 3d e9 17 f3 bb 7a f7 dd bc 38 a0 1d 3d
       0.037172627 -0.007418622 -0.027095545 0.038482875
000370 25 40 05 bd 99 14 17 bd d3 14 a3 3a 21 0a 0b ba
       -0.032531876 -0.036884878 0.0012442119 -0.00053039385
000380 eb c3 37 bc 57 cc ba 3c 7c ba 6a 3b f0 ea 4f 3c
       -0.011216144 0.022802515 0.003581672 0.012690291
000390 13 71 b7 3c d9 a1 2c bd aa 6a 57 bd fc 2e ff 3c
       0.022392785 -0.042146537 -0.052591957 0.031150334
0003a0 7e 8d 54 3c c5 45 12 3c 9e 0b 3b bd 42 74 3f bc
       0.0129731875 0.008927767 -0.045665376 -0.011685433
0003b0 08 a0 10 3d e3 7f 1a 3d b3 fe 32 bd fc 8d 95 3c
       0.035308868 0.03771962 -0.04369993 0.01825618
0003c0 52 09 4b bc ff 81 c6 bb 29 ab 8d 3c 1b e4 6d 3c
       -0.012392359 -0.006057977 0.01729353 0.014519717
0003d0 0a 2b 24 bc f1 64 7e bd 2c 1e ca bc 52 f9 ce 3b
       -0.010020027 -0.062107984 -0.02467259 0.0063163424
0003e0 2c c9 0a bd 87 0c 97 bc ca 70 38 3d da a2 9f bd
       -0.03388326 -0.01843859 0.04502944 -0.07794733
0003f0 5f ca 53 bc 3c 5e e0 bc 4f 00 bf bc a0 93 99 3c
       -0.012926667 -0.027388684 -0.023315577 0.01874715

body.1.conv.bias f4 [49]
000000 8b d2 61 bd 20 b3 03 bd 9f e4 1c bd eb 12 3c bc
       -0.05513243 -0.03215325 -0.038303968 -0.01147912
000010 b4 e8 83 bc b9 50 30 bd 94 f5 18 3d 5f 0f 11 3d
       -0.016102172 -0.043045733 0.037343577 0.03541505
000020 c0 ec 8c 3c 17 50 9a 3c e1 9e 17 bd 60 52 1d bd
       0.017202735 0.018837018 -0.037016753 -0.038408637
000030 22 d9 06 bc eb 7b 88 3c be 2b 28 3d e2 f6 9d 3c
       -0.008230479 0.016660651 0.04105734 0.019282762
000040 8a a7 d3 bb df ec 9b bd b4 da 94 3c c2 28 ac 3c
       -0.006459181 -0.07613539 0.018170692 0.021015529
000050 ef 53 1a bc 99 b9 13 3c 07 7f b6 3c 08 83 01 bd
       -0.009419425 0.009016418 0.022277368 -0.0316191
000060 4e 3d 2b bd 52 a3 fc bc db 71 c9 bc 10 f0 03 3b
       -0.04180651 -0.030839596 -0.024590423 0.0020132102
000070 50 40 7f 3c e7 97 1a bd b2 54 10 3c 18 04 0e bd
       0.015579298 -0.03774252 0.008809255 -0.034671873
000080 3d e3 18 3d c6 5b c7 bc 61 76 4d 3d 98 6e 01 3d
       0.037326086 -0.024335753 0.050161723 0.03159961
000090 09 14 54 bc 4e d5 0d 39 63 c2 b2 3c 32 09 83 bd
       -0.01294423 0.0001352627 0.021821206 -0.06398238
0000a0 0f b9 c5 3b b1 82 b0 bc 97 ea 75 bc 19 9e 2f bd
       0.0060340236 -0.021546694 -0.015009544 -0.042875383
0000b0 25 d6 97 bc a0 da e9 bc b3 38 bc bc 02 9a 3d 3d
       -0.01853473 -0.028546631 -0.022976255 0.04628945
0000c0 93 98 22 bd
       -0.039696287

body.2.conv.weight f4 [49, 49, 3, 3]
000000 c9 33 71 3d 2d d5 93 bc ab 4c 81 bc dd b4 d1 3a
       0.058887277 -0.018045986 -0.015783628 0.0015999336
000010 8e 4f 67 3c 15 45 cc bc 05 42 52 3d cb 9d f7 bc
       0.014118088 -0.024935285 0.051332492 -0.030226609
000020 c6 20 95 3b 19 5f c7 bc a2 67 80 3c d1 ec a2 3c
       0.004551026 -0.024337338 0.015674416 0.019888313
000030 8e 04 19 3d 76 25 89 3c 7f d8 08 bc a1 5d b1 3a
       0.03735786 0.016741496 -0.008352398 0.0013531932
000040 69 15 20 bd d5 05 4b bd fb de bd 3b 01 7c 51 bd
       -0.03908292 -0.04956611 0.0057944036 -0.05114365
000050 52 1d 7a bc 9b b1 07 3c e7 4c 88 bd 63 71 2e bd
       -0.01526578 0.008282091 -0.06655293 -0.042588603
000060 79 b0 fb bc 02 01 26 3c 66 91 08 bd d6 b3 cb bd
       -0.030723797 0.010132076 -0.033341788 -0.0994641
000070 8e 11 70 bd 61 56 79 bc 0e 9a 0c be 0b b4 96 bc
       -0.05861049 -0.015218348 -0.13730642 -0.018396398
000080 2e ed c8 3c 11 45 17 be 31 b3 a4 3a 37 bc 07 3c
       0.024527159 -0.1477244 0.001256561 0.00828462
000090 24 62 55 3c ca 36 44 bd 57 bd 54 3d 41 e5 4a 3d
       0.013023887 -0.047903813 0.05193838 0.04953504
0000a0 4b f7 5d bc 3f 4e 1e 3e 0f e6 52 bd 16 8b a7 bd
       -0.013547729 0.15459536 -0.051488932 -0.081808254
0000b0 78 26 22 3e 62 4e 1c bd 0d c1 a6 bd a9 b6 d0 bc
       0.15834987 -0.03816069 -0.0814229 -0.025477724
0000c0 80 79 04 bd f5 54 5f 3d 7b 64 5e bc 17 7a de bc
       -0.032342434 0.05452438 -0.013573761 -0.027157826
0000d0 b7 d8 3a bd a2 94 3f 3c e9 c2 12 bb c4 6f 93 bd
       -0.04561683 0.011693152 -0.0022394008 -0.07199052
0000e0 04 ae 3a bd 8b 3b a3 3c 35 a5 16 bd 8e 59 08 bd
       -0.04557611 0.019925853 -0.036778647 -0.03328853
0000f0 0e 92 6a bd a9 7d 90 3c 87 ba bb 3c fa 5b 0f 3d
       -0.057268195 0.017638044 0.022916092 0.034999825
000100 90 76 c0 3c 19 8e ce 3b 5b 6c 28 3d 7c 58 e2 3c
       0.023494035 0.0063035605 0.04111896 0.027630083
000110 19 0d 29 bc 20 85 b2 3c 96 93 3d 3b e7 ca 74 3c
       -0.010318064 0.021791995 0.002892708 0.014940954
000120 3b a6 a7 3c 83 71 1e 3d 49 8d f7 bc 0e ce d9 3c
       0.020465007 0.038682472 -0.030218737 0.026587512
000130 a4 b3 4b 3d 8f 77 86 bc a2 f0 00 3d ea db 96 3c
       0.049731866 -0.016414432 0.031479485 0.01841541
000140 99 b5 46 bb 84 a7 5a bd 9e dd 06 bc be 2f 6c bd
       -0.0030320643 -0.05338241 -0.008231549 -0.057662718
000150 27 a9 da 3c 5e ce d4 3a c1 cc 26 bd 06 59 d9 3c
       0.026691986 0.0016235819 -0.040722612 0.026531707
000160 4c de be bc f9 63 dd bc 9f 5e 1d bd b3 93 dd bc
       -0.023299359 -0.02702521 -0.038420316 -0.027047968
000170 d8 8d f2 bc bf 7e 37 bb 5f 71 2c 3c 54 fa 04 bd
       -0.029608652 -0.002799913 0.010525077 -0.032465294
000180 88 8a 8b bc b8 ec 92 bc 46 bb 13 3d 81 2f 08 bd
       -0.01703383 -0.017935142 0.03606727 -0.03324843
000190 ba c9 0c 3d bc ea 92 39 0b cf b7 bc d6 ff 02 3d
       0.03437207 0.0002802218 -0.022437593 0.031982265
0001a0 8a de 00 3d 58 89 2b bd 84 d6 9d bb 32 b9 02 bd
       0.03146223 -0.041879028 -0.004816832 -0.031914897
0001b0 84 04 22 3c 28 27 61 3c 28 35 69 bc 64 4f c4 3c
       0.009888772 0.013742246 -0.014233865 0.023963638
0001c0 53 3d 92 bc 2e 3a a1 bb 14 87 5b bb 8a 88 ed bc
       -0.017851507 -0.0049202656 -0.003349726 -0.028995771
0001d0 b7 32 3d bd 62 b0 43 ba 2b d5 46 bc 73 ec 90 bc
       -0.046190944 -0.0007464943 -0.012135784 -0.017690873
0001e0 6c 42 b0 3c 6e 06 2f bd 9d 80 fb 3c 67 c5 28 bd
       0.021516047 -0.04273074 0.030700976 -0.041203883
0001f0 bf f3 7a bc 76 c2 1f 3d 2e a7 f5 bc 3f 06 0b bd
       -0.015316903 0.03900381 -0.029986944 -0.033941504
000200 5d b2 2c bd 77 a6 fb 3b 1b d8 e3 bc 2b 82 c5 bb
       -0.042162288 0.0076797563 -0.027813008 -0.00602748
000210 70 f8 d9 3c ce 3a 94 bd c9 15 4d 3c 6a 38 4c bd
       0.026607722 -0.072377786 0.012517401 -0.04985849
000220 b6 04 ff bb 8b 4d 0c 3c 95 f5 c0 3b fa 8d 95 3c
       -0.007782544 0.00856341 0.0058886507 0.018256176
000230 23 22 c4 3b 70 a0 90 bc 8b 28 b0 bc e8 f6 36 bd
       0.0059855147 -0.017654628 -0.021503707 -0.044669062
000240 59 70 fd bb ad 64 83 bc 85 53 1c 3d d5 0b 0e 3d
       -0.00773434 -0.016039217 0.038165588 0.034679253
000250 f7 b8 cc bc c6 13 3c bc 12 01 23 bd 1f 4d 27 3d
       -0.024990542 -0.011479324 -0.039795943 0.040845033
000260 96 6a b8 3c 38 19 4d bc 7f eb 3a bc d1 8d 1a 3d
       0.022511762 -0.01251822 -0.011408686 0.037732903
000270 dc a1 f8 bc 7d ad 83 3c 6d b0 08 bd f9 16 3d bc
       -0.030350618 0.016073937 -0.033371378 -0.011541122
000280 45 b8 37 3b 77 db 11 bd af 81 ec 3c a8 65 01 bb
       0.0028033417 -0.03560969 0.028870432 -0.001974443
000290 cf 67 e6 3c 78 f4 2e bd 06 8f fa bc 78 47 04 bd
       0.028125672 -0.042713612 -0.030585777 -0.03229472
0002a0 24 f1 0f bd dd a1 13 bd ca b5 ce 3c 99 2e 03 3c
       -0.03514208 -0.036043037 0.025233168 0.008006715
0002b0 4e 01 c6 3c f8 b6 c2 bc 47 4d fd bc fb 3a d2 3b
       0.024170544 -0.023768887 -0.030920638 0.0064157224
0002c0 c4 db 45 bc 23 55 79 bd 09 74 58 bd 34 b9 ad bc
       -0.012076322 -0.06087221 -0.052845035 -0.021206476
0002d0 4a 8a 13 3c 3a 64 cb 3c ed 9f 2a bc f6 1f 23 bd
       0.009005139 0.024828065 -0.010414106 -0.039825402
0002e0 8d 66 49 3d 80 9d a8 3c 7f af 69 bb 03 25 24 bd
       0.049170066 0.020582914 -0.0035657582 -0.04007436
0002f0 4e 98 d7 bc d9 c7 47 bc 8e 9f 02 bd c7 94 14 3d
       -0.026317742 -0.0121936435 -0.031890444 0.036274698
000300 7d 79 57 bd e2 40 e4 3b e7 23 3b 3c 2e d1 99 3c
       -0.052606095 0.0069657424 0.011422134 0.018776502
000310 07 9e cd bc e9 41 d4 bc 3f 98 9a bd 90 b9 1a ba
       -0.025099767 -0.025910335 -0.0754857 -0.0005902285
000320 04 d6 a2 bd 39 e9 03 3e 0f e0 d7 3d ef 33 1b 3e
       -0.079509765 0.12881936 0.10540783 0.1515653
000330 a8 70 ae bb 3f 30 17 3d d0 3f bd bb 21 38 a7 3c
       -0.0053234883 0.036911245 -0.0057754293 0.020412507
000340 5b b4 c1 bc d9 f9 03 3d a6 59 a4 3c 04 84 53 3d
       -0.02364557 0.032220695 0.020062279 0.05163957
000350 cf a5 5f 3d 74 8a b1 3b a3 4d b6 bc 06 83 44 3d
       0.054601487 0.005418116 -0.022253817 0.047976516
000360 89 e6 6b ba c3 1f 97 3c b9 5e 04 bc 5f d7 30 bb
       -0.0008998891 0.018447762 -0.008079224 -0.002698384
000370 1a e5 63 bb f2 5a 06 3d 05 b8 be 3c 7d bb fd 3c
       -0.0034774006 0.032801576 0.023281107 0.03097319
000380 7c ff 52 3d 26 86 27 3d a8 9a 8f bb 31 73 48 bd
       0.05151318 0.04089942 -0.00438245 -0.04893798
000390 2d 46 d6 bb 28 a5 03 3d a1 d8 a7 3c e9 85 fe 3b
       -0.0065391273 0.032139927 0.020489039 0.007767428
0003a0 d2 be 83 3d 5f 19 3d bb 41 e2 92 3a 52 fc 2b bd
       0.064328805 -0.0028854234 0.0011206345 -0.04198868
0003b0 51 ea 86 bc 2a 59 55 bb 9d 09 b7 3c 8b 2f a3 3a
       -0.016469153 -0.0032554367 0.022343451 0.0012450082
0003c0 da 15 54 bb de fb 9d bc 48 a0 2c bd 5d 1c 52 bd
       -0.0032361657 -0.019285139 -0.042145044 -0.05129658
0003d0 e7 ac be bc ad 8d 84 bd 37 b7 92 bd 01 89 3b bc
       -0.023275806 -0.06472335 -0.07163852 -0.0114462385
0003e0 67 8d 70 bd 42 88 46 bd 53 1a 43 bd 1e 54 60 3c
       -0.0587286 -0.04846979 -0.047632527 0.01369193
0003f0 a8 d0 1f 3c a9 d1 8d bc 40 9e 20 bb 24 f1 5a bd
       0.009754337 -0.017311888 -0.0024508387 -0.053452626

body.2.conv.bias f4 [49]
000000 ed 42 a9 3c e6 ae 67 bb db 7c 0e 3d b6 cf 74 bc
       0.020661796 -0.003535205 0.03478704 -0.0149421
000010 38 02 ed bb 8a d4 93 39 56 ec b6 bb df 1a 5f bd
       -0.0072329305 0.0002819638 -0.0055823727 -0.054468986
000020 86 7c de bc 71 6b 3c bd 7d fd 18 bc 41 f2 a5 3c
       -0.027158987 -0.0460009 -0.00933778 0.020257117
000030 08 e0 5b bb cb 4b f0 3c b8 d7 d0 39 89 c0 ac 3c
       -0.003355028 0.029333016 0.00039833575 0.021087902
000040 db 1b 15 bd a5 3f 1b bc 18 47 1c 3d 05 8e 0e bd
       -0.03640352 -0.009475623 0.038153738 -0.03480341
000050 cb 94 d8 bc ce f1 d4 3c 3a 4b d8 bc 97 6e e5 bb
       -0.026438138 0.025994208 -0.026403058 -0.0070017087
000060 71 f0 55 3c a3 d0 b4 3c a3 3c 59 ba af 34 28 3d
       0.013057814 0.022072142 -0.00082869286 0.041065868
000070 25 f3 6d 3c 33 fd 21 3d a7 4c 9a 3b 6e 73 4e 3c
       0.014523302 0.03954811 0.0047088447 0.012600763
000080 61 e8 0d bd 63 ab 00 bd 34 96 3d bd a6 01 42 3d
       -0.034645442 -0.031413447 -0.046285823 0.047364853
000090 f3 07 f6 bb 88 d0 5e 3c 66 71 6a bb 4d 10 7e 3b
       -0.007508272 0.013599522 -0.0035773157 0.003876704
0000a0 0f 70 26 bd a0 75 4c bd 34 47 53 bd d0 58 91 3a
       -0.04063421 -0.049916863 -0.051581576 0.001108909
0000b0 e9 6a b6 3c cc 42 8c 3b cd 22 d8 bc d5 37 35 bd
       0.022267776 0.0042804237 -0.026383782 -0.0442427
0000c0 8d 13 35 bd
       -0.0442081

body.3.conv.weight f4 [48, 49, 3, 3]
000000 4b 7c d1 bc 52 a8 8a bd 54 3a 81 bb 81 03 56 bd
       -0.025571963 -0.06770386 -0.003943721 -0.052249435
000010 24 e1 a8 bb 35 dc 27 bd af d0 c6 bc 7b 1c d9 3a
       -0.005153792 -0.04098149 -0.02426943 0.0016564274
000020 d6 62 99 bc 9f 2b 19 3d a9 5d 51 3d 36 10 ca 3b
       -0.018723886 0.037395116 0.051114712 0.0061664833
000030 e7 d2 05 bd 57 88 26 3d 71 1e d3 3c ac 78 eb 3c
       -0.032671835 0.040657368 0.025771352 0.028744064
000040 ac bd b9 3c 42 01 e5 3a cb ee 81 bc 17 b7 c2 3b
       0.02267345 0.0017471688 -0.015860936 0.005942236
000050 65 e7 23 bc 6f 8c da 3c 3b b3 95 bc 0a 0c b4 bc
       -0.010003899 0.026678292 -0.01827394 -0.021978397
000060 ee d1 d4 3b bd 3f 9e bc 0f fd cb 3c 0d 5d ba bd
       0.006494752 -0.019317502 0.024900941 -0.09099779
000070 56 96 1b 3e 5f da d0 3c e0 86 72 3d 59 f0 3f 3e
       0.15194067 0.025494752 0.059210658 0.18744029
000080 99 54 05 3c 62 1f a0 bd 52 81 a3 3d 79 ea 98 bd
       0.008137845 -0.07818486 0.0798365 -0.07466597
000090 70 fa e3 3c 49 3d 61 bc 44 1d 00 bd 89 48 29 3b
       0.027829379 -0.013747522 -0.03127791 0.0025830588
0000a0 06 b3 cc 3c 4b 60 0b 3d 2a 14 a2 3a 11 fb ff bc
       0.024987709 0.03402738 0.0012365628 -0.031247647
0000b0 e7 4e 0a bd 19 4c 99 bc 69 10 01 3c e7 01 67 bd
       -0.033766653 -0.018713044 0.007877448 -0.0563983
0000c0 6a 26 31 bd 20 0b 2b bd ce 57 28 bc ba 17 b4 bc
       -0.043249525 -0.041758657 -0.0102748405 -0.02198397
0000d0 67 8b a6 bc 8b 93 11 bd c5 11 f0 bb 09 bf d8 3b
       -0.020330144 -0.0355411 -0.007326337 0.00661457
0000e0 fe b6 34 bd ff 30 9d 3d 7a 21 83 3d 37 70 42 3c
       -0.044119827 0.07675361 0.064028695 0.011867574
0000f0 25 84 a9 3b 12 5f f1 3d 4d e8 85 3c 13 59 2c 3c
       0.0051732236 0.11785711 0.016346121 0.010519284
000100 83 3f 16 bd b0 72 a3 3c 9f b6 20 3d 04 55 de 3c
       -0.036681663 0.019952148 0.03923666 0.027140148
000110 79 78 29 3b 4f 4a 2f bd fa 86 10 ba b1 a8 16 3d
       0.002585916 -0.042795476 -0.0005513277 0.03678197
000120 0a 90 a5 bc 8a cd 38 bd fb 25 94 bc 1c 22 98 39
       -0.020210285 -0.045117892 -0.018084517 0.00029017113
000130 e3 75 84 bd b7 52 3a 3c fa 22 63 bc b8 35 a5 bd
       -0.064677976 0.01137226 -0.0138633195 -0.08066887
000140 f4 2c f7 bc cb 4c bc bb 91 41 cc bc 7e 8c 24 bc
       -0.030172803 -0.005746459 -0.024933608 -0.010043262
000150 be 33 ea 3b 56 32 1e bd 80 0c 8f bc c8 bd 9d bc
       0.0071472814 -0.038622223 -0.017462015 -0.019255534
000160 3a 70 53 3c f9 45 4b bd 6d 48 a5 bd e4 04 fd bc
       0.012905175 -0.049627278 -0.08070455 -0.030886121
000170 1b af a7 3d 2c a7 b1 bc df 2f 32 bd 3d 1c 25 3c
       0.081876956 -0.02168616 -0.043502685 0.010077533
000180 88 47 18 bd 54 a6 bc bd 83 69 4b 3d a4 af 16 3d
       -0.037177593 -0.09211412 0.04966117 0.036788598
000190 a6 94 27 3c 6f 6b 9e 3b 13 11 89 3c 10 31 af bc
       0.010228312 0.0048345844 0.016731774 -0.0213857
0001a0 09 3c 1a bd 30 a7 33 bd 61 bd f1 bc 1b 44 a0 3c
       -0.03765491 -0.043860614 -0.029509248 0.019563725
0001b0 c8 aa f8 3a 7a 64 84 bc c0 a4 ea bc 71 17 04 3d
       0.0018971795 -0.016161192 -0.028643012 0.032248918
0001c0 2e e2 95 3c 09 bd ad 3c 31 07 2b bc d4 93 07 bd
       0.018296327 0.021208303 -0.010438726 -0.033099964
0001d0 ba b6 c9 3c e1 f1 d7 3b 51 39 88 bb 26 78 63 bb
       0.024623264 0.0065901135 -0.0041572233 -0.0034709065
0001e0 5f 63 2f bd d4 d7 0f bd 2e 90 a3 3c e7 2b 29 bc
       -0.042819377 -0.03511794 0.019966211 -0.010325409
0001f0 fe d9 f4 3c 91 0e 84 bb c1 b9 aa bc ec 6d bf 3c
       0.029889103 -0.0040300568 -0.020840527 0.023367845
000200 bc c8 2d 3d 7b 71 f9 3b dd c2 83 bc 68 4d 43 3c
       0.042427763 0.007612405 -0.016084129 0.011920311
000210 4d 89 aa 3c f0 0e e0 bc ee 13 2b bb a4 65 d1 bc
       0.020817423 -0.027350873 -0.0026104408 -0.025561161
000220 aa c6 d4 3a 2a 46 05 3d 89 66 e2 bc 54 98 02 bd
       0.0016233523 0.032537617 -0.027636783 -0.031883553
000230 6f 1f 3c bc 95 45 26 3c cb 62 40 3c be 34 aa bc
       -0.011482104 0.010148426 0.011742304 -0.020777103
000240 07 82 21 bc 0f 7c 41 3b f9 16 5d 3b 9c 33 18 bd
       -0.009857661 0.0029523408 0.0033735617 -0.037158594
000250 1a 94 11 bd 4b 75 16 bd 32 34 30 3c 85 ca b2 bc
       -0.03554163 -0.036732953 0.010754632 -0.021825084
000260 a3 eb fa ba 25 bf d4 3c 2f b3 f3 3c 0a 5d b4 3c
       -0.0019143712 0.025970051 0.029748527 0.02201702
000270 32 df f2 bc cb 0c 38 ba 84 29 00 bd dc 15 48 bc
       -0.029647443 -0.0007020949 -0.031289592 -0.012212243
000280 1b 83 b1 3b 1f 04 8f 3c f4 8a a4 3c ae 43 06 bd
       0.0054172403 0.01745802 0.02008579 -0.032779388
000290 d4 82 89 bd d5 2a 4b bd 18 4c ce bc 9b 5f 8a 3b
       -0.067144066 -0.049601395 -0.025182769 0.004222823
0002a0 45 ca 33 bb 5f 7b 3e bd 41 7c a1 bb 2f 2d 1f 3d
       -0.0027433794 -0.046504375 -0.0049281423 0.03886145
0002b0 b8 e6 df 3c f4 d1 5c 3c 07 19 f5 3a 6f 1c 36 3d
       0.027331695 0.013477791 0.0018699475 0.04446071
0002c0 e9 8f d6 bc 81 af 15 bd 82 4d fa bc b3 af ee 3b
       -0.026191669 -0.036544327 -0.030554537 0.0072841286
0002d0 02 43 86 3b 50 2f 5a bd 0a 30 0e bd b3 63 12 bc
       0.0040973434 -0.053267777 -0.034713782 -0.008934903
0002e0 a2 8a 8e bd 2d 96 59 3b 2f e0 4a bd c8 89 f0 bc
       -0.06960036 0.0033201084 -0.049530204 -0.029362574
0002f0 f5 07 46 3b ad 96 4d bd 1c d4 4c 3c 36 94 97 3c
       0.0030217145 -0.050192524 0.012501743 0.01850329
000300 2d 02 0b 3d 4f f1 06 bc 13 0e 15 3d d3 df 19 bd
       0.03393762 -0.008236243 0.036390375 -0.03756697
000310 c4 59 1c 3d 13 55 24 3d c3 eb 16 bd 80 67 8a 3c
       0.038171545 0.040120196 -0.036845934 0.016895056
000320 3b 6f a1 3a 5b 15 01 b8 9c f2 18 bd 79 64 bb bc
       0.0012316474 -3.0775886e-05 -0.037340745 -0.022875058
000330 28 b5 72 3c 95 b4 22 bd ab aa 18 bd e9 39 0c 3c
       0.014813699 -0.039722998 -0.037272137 0.008558729
000340 15 ef 4b 3d 97 19 59 bd 4a db f7 3d 4b c4 93 3d
       0.049788553 -0.05300292 0.12102373 0.07215174
000350 b0 15 2c 3d 4f f8 07 bc 32 fc 58 3d e0 82 39 bd
       0.04201287 -0.0082989475 0.052974887 -0.045290828
000360 04 65 da bc c4 fa 04 3d f5 54 0f bc fa 8e 2c bd
       -0.026659496 0.03246571 -0.008748283 -0.04212854
000370 55 50 cf bc e8 31 8d 3c 0b 64 a6 bc fe 10 d5 3a
       -0.02530686 0.017235711 -0.020311376 0.0016255674
000380 06 fb 84 3b 1b cf 03 bc c0 38 ce 3c 4a ed 5e bc
       0.0040582446 -0.008044983 0.025173545 -0.013606379
000390 f0 37 52 3b 5f e3 6d bc cc ad fd 3c 0c 09 c4 bc
       0.0032076798 -0.0145195415 0.030966662 -0.023930095
0003a0 6c cd 5f bd 08 9c 2f bc 1d 8d 4e 3c 01 fd 0b 3d
       -0.054639265 -0.010718353 0.012606886 0.03417683
0003b0 66 11 ec 3a 30 a1 bd bc ba ba d1 bc 57 55 be bc
       0.0018010556 -0.02314815 -0.025601733 -0.023234053
0003c0 b8 17 87 ba a9 df 16 bc 57 ad 04 3d e5 48 e7 3b
       -0.0010306751 -0.009208598 0.032391872 0.0070582503
0003d0 71 6e 10 bd 0b 7c 25 bd 0e 42 c4 bc 3a 09 72 bd
       -0.035261575 -0.0404015 -0.023957279 -0.05909083
0003e0 a6 50 8b 3b 21 51 a4 3c 9d 8d 66 bc 51 4a 98 bc
       0.0042515574 0.020058217 -0.014071849 -0.018590124
0003f0 16 42 81 3c ce 54 79 bb d2 f4 26 3c dd 31 f1 bc
       0.015778583 -0.0038044932 0.010190206 -0.029442722

body.3.conv.bias f4 [48]
000000 54 88 af 3c 0b 0c 61 3c b3 a6 7f bc 11 4c 86 3b
       0.021427311 0.013735781 -0.015603709 0.0040984233
000010 ac 8f 7d 3b 96 b0 47 3d 6a 11 26 bc 88 60 e3 3c
       0.0038690371 0.04875239 -0.010135988 0.02775599
000020 cd 52 73 3c 78 48 8e bc 2a b5 08 bd 07 32 ee bb
       0.014851284 -0.01736854 -0.033375897 -0.0072691473
000030 1c 89 86 bb e4 ca d9 3a 5d b6 50 bd cd d6 b4 3c
       -0.0041057 0.0016616252 -0.050955165 0.022075081
000040 ab e7 03 3d 6d 32 3f 3d 09 e6 7b bd 23 8a 39 3c
       0.032203358 0.04667895 -0.061498675 0.011324438
000050 9c 9b f4 bc 00 02 41 3c 24 8e 07 bd 85 a7 32 bb
       -0.029859357 0.011780262 -0.03309454 -0.0027260494
000060 96 e3 f9 3c ba e9 01 3d 93 fb 03 bd d1 ed c6 3c
       0.03050403 0.03171704 -0.03222234 0.024283322
000070 bb 74 e9 3b 74 9c 36 3b 47 87 2b 3d 67 3d a6 3c
       0.007124511 0.002786425 0.041877057 0.02029295
000080 08 0b 88 ba 57 c9 88 bd a9 23 2e bd 8f a2 8c bb
       -0.0010379264 -0.066790275 -0.042514477 -0.0042918394
000090 cb 2a a0 3c 89 2f c2 bb 1a 4b 38 bb 9c 03 5b 3c
       0.019551655 -0.005926077 -0.0028120936 0.01336756
0000a0 69 e7 85 bd 6a 46 58 bc 88 52 01 bd 56 be 15 3d
       -0.065382786 -0.013200382 -0.03157285 0.03655847
0000b0 97 8b 1e bb 0b d1 6a bd 12 cb 65 bb 55 e0 c5 bc
       -0.0024192089 -0.057328265 -0.0035063666 -0.024154821

body.4.weight f4 [48, 48, 3, 3]
000000 cf ec 0a bd f0 7f 0e bd c8 e0 af 3c 6b c9 09 3d
       -0.033917245 -0.03478998 0.021469489 0.033639353
000010 9a 38 d5 3c da f9 e4 3c c9 43 61 bc 57 a9 db bc
       0.026027966 0.02795117 -0.013749071 -0.026814146
000020 eb 12 a8 3b 3a a2 71 bd 53 c1 0b bd 45 b7 22 bb
       0.0051292083 -0.058992602 -0.034119915 -0.0024828475
000030 e0 a9 f7 3a ae cf d3 3b 80 30 b1 3c 6f 3b 3a bb
       0.0018895231 0.0064639663 0.021629572 -0.0028416773
000040 32 cb 80 3d 18 e3 43 bd e9 03 08 3c 5a d4 05 3d
       0.062887564 -0.047823995 0.0083017135 0.032673217
000050 5f 89 e2 bc 1e 38 8b 3d 98 c4 52 bd d8 70 3f ba
       -0.027653394 0.06797813 -0.051457018 -0.0007302887
000060 ef 41 e8 3c 31 dd f5 bb dd 82 f1 bb f3 7e 76 3c
       0.028351752 -0.0075031747 -0.0073703364 0.0150449155
000070 be 01 2e bd f8 c7 c4 b9 67 dc 53 3c bd c0 2f 3d
       -0.04248213 -0.00037533022 0.012930966 0.04290842
000080 63 8f 1a 3d fc e3 cf bc e3 cc 8e bc 73 e4 0e 3c
       0.0377344 -0.025377266 -0.017431682 0.008721459
000090 e5 7f 70 bd 8d f0 dd bc 50 2f 46 bb 29 73 71 3c
       -0.05871572 -0.027092243 -0.0030240603 0.014736929
0000a0 57 a5 5f 3d a0 c9 60 b9 00 19 a7 bc 42 be ce 3c
       0.05460104 -0.00021437416 -0.020397663 0.025237206
0000b0 1b bf f4 3b 3f 28 d2 bc 9f 81 dd bb 99 d2 68 3c
       0.0074690706 -0.025653956 -0.006759837 0.014210367
0000c0 41 27 3c 3c fc 6e 36 3d af 7b 1b bd 9b 99 7f 3c
       0.011483968 0.044539437 -0.03795975 0.015600587
0000d0 3a be 07 3c be 2f e2 3c 88 a6 60 bc 16 2f bc bc
       0.0082851 0.027610656 -0.013711579 -0.022971671
0000e0 7b 98 ae bc b7 2c 90 bc 49 d1 21 bd cd fd fa 3c
       -0.021312943 -0.017599447 -0.03950623 0.0306386
0000f0 72 ed de bc e7 7d fe bb db 58 1b bd 99 24 90 3d
       -0.027212832 -0.0077664736 -0.037926536 0.070382304
000100 72 d6 8b 3b d7 86 1c 3d 24 0b 8b 3d e9 06 6f bc
       0.004267507 0.03821453 0.06789234 -0.01458905
000110 59 42 63 bd cf 2a ca 3b 3f 36 90 3c d1 4b 11 bd
       -0.055483196 0.006169654 0.017603992 -0.035472695
000120 15 c6 8a 3b a2 cf 0e bd 7a cc 48 3d ef 7b 29 3d
       0.004235039 -0.034865983 0.04902313 0.041377958
000130 4f d6 7b bd 61 a3 2d 3d 6a c5 dc 3c f0 e9 b4 3c
       -0.061483677 0.04239214 0.026949603 0.022084206
000140 39 11 48 bc 36 36 6a 3c 1e 1d 9f 3a 79 2a 88 bb
       -0.012211137 0.014295151 0.0012139415 -0.0041554538
000150 25 be 6e 3c b8 c7 41 3c 26 10 4a 3d c4 23 dc 3c
       0.014571701 0.011827402 0.049331807 0.026872523
000160 a7 74 f2 bc 5e 5d 19 3d 32 ec 40 bc ec ab 96 bc
       -0.02959664 0.037442558 -0.011775063 -0.018392526
000170 38 98 0f bd b3 c6 4e bd 6e d1 00 bc 6d 99 37 3d
       -0.035057276 -0.050482463 -0.007862432 0.044824053
000180 5a c2 88 3b 74 17 bd bc 83 2d 40 3d 26 75 49 3c
       0.004173559 -0.023082472 0.046918403 0.012295997
000190 80 82 46 bc c3 1d 71 3c dc be ea bc 2a 7d af bc
       -0.012116075 0.014716568 -0.028655462 -0.021421988
0001a0 77 5b 16 bc 93 8d 27 bc d9 d6 b3 3c 39 78 95 3c
       -0.00917708 -0.010226625 0.021953033 0.018245803
0001b0 17 89 65 3d cc eb 96 3d 96 d1 c3 3a df fb 1f bd
       0.056038942 0.073691934 0.0014939781 -0.039058562
0001c0 93 ce 27 bd 25 ee 0c bd 98 65 37 bb f1 ef 55 bd
       -0.04096849 -0.0344068 -0.0027984139 -0.05223078
0001d0 61 cb b9 3b b2 99 0e 3c f4 cf e6 3c 95 2b 2c bd
       0.0056699966 0.008703636 0.028175332 -0.04203375
0001e0 0d 18 32 bd 99 49 32 3d cd f7 8b 3c 06 d1 ed ba
       -0.043479968 0.04352722 0.017085934 -0.0018143959
0001f0 ca 65 48 bd 0a f6 8b 3c 01 aa 18 bc 8f b7 6d 3d
       -0.0489252 0.017085094 -0.009317876 0.058036383
000200 48 30 82 bc 99 0a 48 3d d2 1f d5 bc 1c 6b e1 bc
       -0.015892163 0.04883823 -0.02601615 -0.027516894
000210 bb e7 28 bc 15 63 f9 bc ab 49 ca 3b e1 b5 93 bc
       -0.010309155 -0.030442754 0.0061733327 -0.018031063
000220 70 6c 1d bd 46 58 66 3d 1f af 4a bc fb f8 31 3d
       -0.038433492 0.056236528 -0.012370854 0.043450337
000230 d7 74 b6 bc c3 67 dd 3c 99 44 26 bd a1 d0 d5 bc
       -0.02227251 0.027027017 -0.040592764 -0.026100459
000240 85 99 c8 bc bc 9b 15 bd fb eb b7 bc 55 2c 35 bd
       -0.024487266 -0.036525473 -0.022451391 -0.04423173
000250 c8 52 44 3d 84 4a d5 3c e8 45 09 bd 3f 89 16 bc
       0.04793051 0.026036508 -0.033513933 -0.009187995
000260 21 4c 3a 3d 2e a2 88 3d 9f dd b0 3d 1e f8 82 bc
       0.04548276 0.06671558 0.08636021 -0.015987452
000270 36 48 0a 3e 8f 3d a5 bd 7f 00 9d bc 79 f5 d3 3c
       0.13504109 -0.08068382 -0.019165276 0.025873886
000280 53 db e7 bd e9 42 30 bd 44 27 23 bd 07 6b cf bc
       -0.1132113 -0.04303256 -0.03983237 -0.02531959
000290 19 d9 f6 3b 78 c5 1b 3d 96 1d 59 3d 79 81 bd bc
       0.0075332043 0.038030118 0.05300673 -0.023133026
0002a0 5b 1d 6c bc d1 93 87 3c 12 33 74 3d f2 6b eb 3c
       -0.014411296 0.016549977 0.059619017 0.028737996
0002b0 4c 22 21 bb b3 78 ce bb 24 00 ce bc 31 1d 88 bc
       -0.0024587093 -0.0063010096 -0.025146551 -0.016615482
0002c0 dc 48 f6 ba ef d8 63 3c b4 eb 18 bd c2 1a c6 3b
       -0.0018790024 0.0139067015 -0.03733416 0.0060456702
0002d0 c4 48 8b 3d 8a d4 0a 3d 25 32 bc 3c 31 5b a2 3b
       0.06800988 0.0338941 0.02297313 0.0049547185
0002e0 47 29 ad bb e8 1d a5 3b cd b6 4e 3a 1d 73 81 3b
       -0.0052844617 0.0050389655 0.0007885516 0.00395049
0002f0 f3 58 25 bd a8 7a 86 3d 9d 42 16 3d 54 60 60 3c
       -0.04036803 0.065663636 0.03668462 0.013694841
000300 51 24 7a 3d 4e 9d c9 bc c9 43 1f bd d8 51 7a bc
       0.06106979 -0.024611142 -0.038883004 -0.015278302
000310 ff 0c 2f bd 4a cd 8c bc 00 21 ad bb 14 b8 33 bc
       -0.042737003 -0.017187733 -0.005283475 -0.010969181
000320 d3 e4 c0 3c 52 1e 58 3c 40 f9 26 bd 6d 5b 10 3d
       0.023546612 0.013190823 -0.040765047 0.03524344
000330 e8 11 1e bb 4c be b9 ba 6f ef bd ba b0 60 ed 3c
       -0.002411956 -0.0014171093 -0.0014490912 0.028976768
000340 32 c3 13 3d e6 7b ee bc 48 de 4b 3d dd 9c 0b bd
       0.036074825 -0.029111814 0.04977253 -0.034085143
000350 c7 8e e1 3c 9b 3c e6 3b 63 e5 ee 3b 90 d4 52 3d
       0.027533902 0.0070262677 0.0072905286 0.051472247
000360 3c 04 6e 3c 58 ca 48 3b 1c 34 92 bc 72 fe 15 bc
       0.014527377 0.0030638184 -0.017847113 -0.009154903
000370 98 77 a3 3c 5d e8 30 bd 12 84 c4 3c 78 6b b0 3c
       0.019954488 -0.04319035 0.023988757 0.02153562
000380 b1 d7 12 bd 73 b1 4c 3c 9e f8 45 3d 55 37 d9 3c
       -0.03585023 0.012493479 0.048332803 0.026515642
000390 78 d5 f0 3b e8 c6 6b 3c cf eb 11 bd ce 33 1a bb
       0.007349666 0.014390685 -0.035625275 -0.0023529413
0003a0 b1 a5 2b bd ff fa d3 bc 30 a2 0b 39 54 e1 52 bd
       -0.041906063 -0.02587652 0.00013316493 -0.05148442
0003b0 9c f0 d3 bc 96 73 a4 ba 3a b3 0e 3c 52 c5 d8 bb
       -0.025871567 -0.0012546654 0.008709723 -0.0066153193
0003c0 be b4 ab 3c 3c 74 2f 3a df 35 0b 3d 5d c0 90 3d
       0.020960208 0.00066930405 0.033986922 0.070679404
0003d0 e7 0f e5 3c cd 30 12 bd 5e af ea bb 22 b3 87 bd
       0.027961684 -0.03569107 -0.0071620187 -0.06625964
0003e0 40 d2 b6 bb 6d 3f 20 bc dc a8 00 3c 70 af 7b 3a
       -0.005579263 -0.009780747 0.007852759 0.00096010324
0003f0 0c d2 da bb b2 76 d4 3b 17 0e 4e 3c be 6f 9b bc
       -0.0066778716 0.006483876 0.0125766015 -0.018974181
