model/visdrone_abpn/x4_270_480_abpn_012.onnx (onnx, 611335 bytes, 16 tensors)

shallow.conv.weight f4 [49, 3, 3, 3]
0	0x3e6c0879	0.23050107
1	0x3d4622df	0.0483731
2	0xbd846985	-0.06465439
3	0xbc27384b	-0.010206292
4	0xbe054f42	-0.13018516
5	0xbdc99739	-0.098432966
6	0xbd47063f	-0.04858994
7	0x3dab089f	0.08351254
8	0x3de35f40	0.11102152
9	0xbc2adfe5	-0.010429357
10	0x3b9331b6	0.00449201
11	0x3e213895	0.1574424
12	0xbe1115b7	-0.1416844
13	0x3cb9c67c	0.022677653
14	0x3d6bf345	0.057605047
15	0xbcd2bbdc	-0.025724344
16	0xbd275a94	-0.040857866
17	0xbdc2e309	-0.0951596
18	0x3df58c56	0.119896576
19	0x3d1bfbd7	0.03808197
20	0xbdca7d03	-0.09887125
21	0xbe503348	-0.20332062
22	0xbd7f6d0d	-0.06235986
23	0x3d4da49a	0.050205804
24	0x3dd0d3bc	0.10196635
25	0xbd535ba7	-0.05160108
26	0xbc877d7d	-0.01653933
27	0xbd273c0d	-0.040828753
28	0x3c779478	0.015111081
29	0x3e17f6a2	0.14840177
30	0x3bf22f8a	0.007390921
31	0xbdccda7c	-0.1000261
32	0x3d23453b	0.039860945
33	0x3dd6862b	0.10474809
34	0xbe1df518	-0.15425527
35	0xbc0fa643	-0.008767667
36	0x3db91075	0.09036342
37	0x3d19a9c8	0.03751543
38	0x3cf6a72d	0.030109012
39	0x3b152d3e	0.0022762562
40	0xbecb423d	-0.39698973
41	0x3dffb433	0.12485542
42	0xbe06184b	-0.13095205
43	0x3cd8ee9a	0.026480962
44	0x3d988ca9	0.07448704
45	0xbd6f19ec	-0.05837433
46	0x3d82b541	0.06382228
47	0xbe003b90	-0.12522721
48	0x3c57740a	0.013150224
49	0x3c830eac	0.015998207
50	0x3e440605	0.19142921
51	0x3d1f8211	0.0389424
52	0xbccde1c7	-0.025132073
53	0x3d39c4ae	0.045353584
54	0xbdabf928	-0.08397132
55	0x3d96ef69	0.073698826
56	0x3e3953b5	0.18098338
57	0x3de80f5b	0.11331054
58	0xbdcad97c	-0.09904763
59	0xbf12c0af	-0.5732526
60	0x3cf97746	0.030452382
61	0x3d3892b7	0.045061793
62	0xbf1b8473	-0.60748976
63	0x3bba114e	0.0056783324
64	0x3e3ca93f	0.18423937
65	0x3ddcf5e4	0.107890874
66	0x3d885338	0.06656498
67	0xbe0b6e80	-0.13616371
68	0xbf088a8e	-0.5333642
69	0xbcbfc36d	-0.023408616
70	0x3e83edf8	0.25767493
71	0xbf8d79b4	-1.1052766
72	0x3cb01b5a	0.021497417
73	0xbde45aa1	-0.111500986
74	0xbe510934	-0.20413667
75	0x3b8f0458	0.0043645315
76	0xbd801939	-0.06254811
77	0xbf075557	-0.52864593
78	0xbbe2a4eb	-0.0069166324
79	0xbd8e1b9a	-0.06938858
80	0xbf2bff55	-0.6718648
81	0xbc7b2ba8	-0.015330233
82	0xbd0320f0	-0.032013834
83	0x3d9fc002	0.078002945
84	0xbdbbc57d	-0.09168527
85	0xbd69d405	-0.057086963
86	0xbd30cf85	-0.043166656
87	0x3d827c23	0.063713335
88	0x3c0cb885	0.008588915
89	0x3cdd3d8c	0.027006887
90	0x3e97a5fe	0.2961883
91	0x3d25e983	0.040505897
92	0xbe4756ac	-0.19466656
93	0xbe432441	-0.19056799
94	0x3e197ef9	0.14989842
95	0x3e177bb2	0.1479328
96	0xbc929067	-0.017891122
97	0xbd6852c4	-0.056719556
98	0xbd0de9e1	-0.034646872
99	0x3d67fff5	0.056640584
100	0x3e0beb7c	0.13664049
101	0x3d92eb8e	0.07173835
102	0xbd880e7b	-0.06643387
103	0xbe5ebbd0	-0.21751332
104	0xbdb59e51	-0.08868087
105	0x3c58ba23	0.013227972
106	0x3d0f5a2c	0.034998104
107	0x3c182024	0.009285007
108	0x3d95c309	0.07312591
109	0xbe77554d	-0.24153633
110	0xbd25a04c	-0.040436074
111	0xbe3d00c4	-0.18457323
112	0xbe47259f	-0.19447945
113	0x3d7abf88	0.061217815
114	0x3d4de754	0.05026944
115	0x3da8c172	0.08240022
116	0xbbfd61a6	-0.007732588
117	0x3db6c465	0.08924178
118	0x3e1e0efd	0.15435405
119	0xbdd1ba3c	-0.102405995
120	0x3c23f598	0.010007285
121	0x3e099ef6	0.13439545
122	0xbe3f42a7	-0.1867777
123	0xbe3aba98	-0.18235242
124	0xbcc7c47d	-0.024385685
125	0x3d033759	0.032035206
126	0xbd7cef59	-0.061751697
127	0x3d8987cd	0.06715355
128	0x3e216b9a	0.15763703
129	0x3c5376eb	0.01290677
130	0x3e55f94d	0.20895882
131	0x3d9114f3	0.07084074
132	0x3d37d241	0.044878248
133	0xbe0203f3	-0.12696819
134	0x3d22c55d	0.039739
135	0xbdb07e43	-0.086178325
136	0xbe3e7205	-0.18598182
137	0x3e15ff90	0.1464827
138	0xbc85b1f2	-0.016320202
139	0xbdde3329	-0.10849602
140	0x3dcf8dab	0.10134443
141	0xbcd0db8b	-0.025495311
142	0xbbd4375a	-0.006476325
143	0x3d96cd97	0.07363432
144	0xbeb6dbed	-0.35714665
145	0x3f0b655a	0.54451525
146	0xbea3ec02	-0.32015997
147	0x3e962395	0.29324022
148	0x3e91c379	0.28469446
149	0xbd292529	-0.041295204
150	0x3d8e1478	0.06937498
151	0xbe2a96e8	-0.16659129
152	0xbdfd5c47	-0.12371116
153	0x3ede1194	0.43372786
154	0xbeb8177b	-0.35955414
155	0x3e2b5489	0.16731466
156	0xbe7fe64a	-0.24990192
157	0xbe39e149	-0.18152346
158	0xbd8bc7a1	-0.068251856
159	0xbd18977e	-0.03725385
160	0x3e2394ee	0.15974781
161	0x3d62588c	0.055260226
162	0x3d8d7f68	0.069090664
163	0xbe4bfb87	-0.19920169
164	0x3e11ab7f	0.14225577
165	0x3e3d0242	0.18457893
166	0x3d510ce6	0.05103769
167	0xbe2f9c13	-0.17149381
168	0x3d0130a2	0.03154052
169	0x3c40d4d8	0.011769496
170	0x3c1a9885	0.009435778
171	0x3c9898aa	0.018627483
172	0xbb34d88a	-0.0027594888
173	0xbe0fb704	-0.14034659
174	0xbd58ece1	-0.05296028
175	0xbde37d85	-0.11107925
176	0x3e1ba80f	0.15200828
177	0x3e307984	0.17233855
178	0xbda76f03	-0.08175471
179	0x3e0c76b8	0.13717163
180	0xbc82f56b	-0.015986165
181	0x3e01f256	0.126901
182	0xbcc45d49	-0.023970263
183	0xbe08ff33	-0.13378601
184	0xbc0d18aa	-0.008611837
185	0xbeaffb2f	-0.34371325
186	0xbce6d461	-0.028177442
187	0x3de8e4b0	0.11371744
188	0xbdb16789	-0.08662326
189	0x3cc364c5	0.023851762
190	0xbe682bcd	-0.22672959
191	0x3df42d3c	0.1192269
192	0xbb072595	-0.0020621766
193	0x3c2614c0	0.010136783
194	0x3e62922d	0.22126074
195	0x3c6a2040	0.014289916
196	0x3d894c37	0.0670399
197	0xbe99fbf1	-0.3007503
198	0xbe9b81bc	-0.30372417
199	0xbc40ec2b	-0.011775057
200	0x3e01fdbd	0.1269445
201	0xbd020ca9	-0.031750355
202	0xbd0ac7a4	-0.0338818
203	0xbe5de7c8	-0.21670449
204	0x3daa04d7	0.083017044
205	0x3cf34985	0.029698143
206	0x3df15650	0.11784041
207	0x3e8ad001	0.2711182
208	0x3e5dda07	0.21665202
209	0xbe4dafab	-0.20086543
210	0x3de2efe3	0.11080911
211	0xbe683cbe	-0.22679421
212	0xbd7a4ade	-0.061106555
213	0xbe047493	-0.12935095
214	0xbc9f9da7	-0.019484354
215	0x3e6220fc	0.22082895
216	0x3b6e6961	0.0036378729
217	0xbe153078	-0.1456927
218	0xbe76da6b	-0.24106757
219	0x3dea6cc9	0.1144653
220	0x3e064192	0.1311095
221	0xbe6ea8bd	-0.23306556
222	0xbd68d755	-0.05684598
223	0x3b4b32b7	0.003100557
224	0xbd9322e2	-0.07184388
225	0xbd615b96	-0.055018984
226	0x3e1f6854	0.15567142
227	0x3ec3101b	0.38098225
228	0xbdbf9adc	-0.09355709
229	0xbdcaa13d	-0.09894035
230	0x3e8d57ee	0.27606148
231	0x3d262008	0.04055789
232	0xbd46b614	-0.048513487
233	0xbdf373e7	-0.11887341
234	0x3d8746d4	0.06605306
235	0xbc637dda	-0.013884986
236	0xbdc6240d	-0.09674845
237	0x3b899251	0.0041983505
238	0xbe5de693	-0.21669988
239	0xbddad1b3	-0.10684528
240	0x3bb0d097	0.0053959596
241	0x3cc17c58	0.023618862
242	0x3e6728f1	0.22574212
243	0xb8f7548a	-0.000117936244
244	0x3c4e4ea7	0.012591994
245	0xbd20c611	-0.03925139
246	0x3d414356	0.047183357
247	0x3de426e5	0.11140231
248	0xbdd109a6	-0.102069184
249	0xbd7c080b	-0.061531108
250	0x3e0f1d8e	0.13976118
251	0xbd620f81	-0.055190567
252	0xbd764259	-0.060121868
253	0xbe2384b1	-0.15968587
254	0xbde4fabb	-0.111806355
255	0xbe3099a9	-0.17246117

shallow.conv.bias f4 [49]
0	0x3ffd787b	1.9802393
1	0xbf6914a1	-0.910471
2	0x3fda72f4	1.7066331
3	0xbfe1b550	-1.7633457
4	0xbe7fc3d7	-0.2497705
5	0x3fa6f21b	1.3042635
6	0x3ebfbaf3	0.37447318
7	0x3f54762c	0.82992816
8	0x3fa8d621	1.3190347
9	0xbf0a5abc	-0.540447
10	0x3fd6845a	1.675914
11	0xbfd24eb7	-1.6430272
12	0x3dcb4b5a	0.099264815
13	0x3ed4c250	0.415545
14	0x400db25a	2.2140107
15	0x3feacca8	1.8343706
16	0x3efe2bb2	0.49642712
17	0x40076ff2	2.1162076
18	0x3f460e65	0.77365714
19	0xbfbcb28c	-1.4741988
20	0xbe916150	-0.28394556
21	0xbf71c852	-0.9444629
22	0xbe5d2055	-0.21594365
23	0x3f789fe3	0.9711897
24	0xbfb1522e	-1.3853204
25	0xbd1acd03	-0.03779317
26	0x3f5389ee	0.8263234
27	0x3f8a5680	1.0807648
28	0xbee38763	-0.4443923
29	0xbf7f6392	-0.9976131
30	0x3f870e37	1.0551213
31	0x3f84f538	1.0387335
32	0xc005323e	-2.0811915
33	0xbf475916	-0.7787031
34	0x3e339036	0.17535481
35	0x3fb2bd54	1.3964028
36	0x3f4bd6a1	0.7962437
37	0x40290dff	2.6414793
38	0xbe78e28a	-0.24305168
39	0x3e9100be	0.2832088
40	0x3fb6a726	1.426976
41	0xc0237f37	-2.5546396
42	0xbc6cdcd0	-0.014456943
43	0xbf99b6d1	-1.2008916
44	0xbe969704	-0.2941209
45	0x3f9f8f46	1.2465599
46	0x3fb87166	1.4409606
47	0xbf64d478	-0.893867
48	0xbfe78500	-1.8087463

body.0.conv.weight f4 [49, 49, 3, 3]
0	0xbd1f37fa	-0.038871743
1	0xbddace37	-0.106838636
2	0xbdeacfb1	-0.11465395
3	0xb92701c6	-0.00015927022
4	0xbcf77f46	-0.030212056
5	0x3d14ed9e	0.036359422
6	0x3d062de7	0.03275862
7	0xbdbe1bab	-0.09282621
8	0xbcf81875	-0.0302851
9	0xbd5b8597	-0.053594198
10	0xbcff926b	-0.031197747
11	0xbd1cdec7	-0.038298395
12	0x3b64dfbd	0.0034923397
13	0xbd5023a9	-0.05081526
14	0xbd66185b	-0.05617557
15	0xbdaa6301	-0.08319665
16	0x3d00847d	0.03137635
17	0xbcf4a5d1	-0.029864224
18	0xbd483e58	-0.04888758
19	0xbac78bea	-0.0015224193
20	0xbc6bb07a	-0.014385337
21	0xbcb24b7f	-0.021764515
22	0x3cf1deda	0.02952521
23	0xbcce42e6	-0.025178384
24	0xbc86342c	-0.0163823
25	0x3d048a37	0.032358374
26	0x3cd8029b	0.02636843
27	0xbca10612	-0.019656215
28	0xbda1d1a7	-0.07901316
29	0xbcd5d2e1	-0.026101531
30	0xbcdf7215	-0.027276078
31	0xbda7a2d9	-0.081853576
32	0x3d8ab9ae	0.06773697
33	0xbd1d5b84	-0.038417354
34	0xbd28c0cd	-0.041199494
35	0xbcf1b0a9	-0.029503183
36	0xbd955f01	-0.07293511
37	0xbd0432f7	-0.032275166
38	0xbd1d6992	-0.038430758
39	0xbd0b573e	-0.034018748
40	0xbd6fb847	-0.05852535
41	0xbcf8bbbe	-0.03036296
42	0x3c85dd7d	0.016340965
43	0xbce4171f	-0.027843056
44	0xbc2fe232	-0.0107350815
45	0x3b80238c	0.0039104875
46	0xbc646310	-0.013939634
47	0x3ced8b7f	0.028997181
48	0xbc5843d0	-0.0131997615
49	0xbce4e1c5	-0.027939687
50	0x39d1003b	0.00039863758
51	0x3b97601a	0.0046196105
52	0xbd442c32	-0.04789371
53	0x39f49aea	0.00046654727
54	0xbd3f765e	-0.046743743
55	0x3c6a7866	0.014310932
56	0x3bca832d	0.006180188
57	0xbd9ab937	-0.07554858
58	0x3c490674	0.012269605
59	0x3c24ec0a	0.010066042
60	0xbc5b3fd7	-0.01338192
61	0xbc8795d2	-0.016550932
62	0x3bee74a0	0.0072770864
63	0xba7c8d49	-0.000963409
64	0x3c00e8f2	0.0078680385
65	0xbd078ab7	-0.033091273
66	0x3c421813	0.01184656
67	0x3c418096	0.011810442
68	0x3c8d5ecf	0.017257122
69	0xbc2c4dfc	-0.01051664
70	0xbcdd8d77	-0.027044995
71	0x3c916912	0.017750297
72	0xbd202da2	-0.03910602
73	0x3c712ec8	0.014720626
74	0xbc3c8cf3	-0.011508214
75	0xbcad8517	-0.021181626
76	0xbc8bc1de	-0.017060217
77	0xbc8e70e0	-0.017387807
78	0xbd165a41	-0.036707167
79	0xbac3d714	-0.0014941418
80	0x3b3b0b0e	0.0028540525
81	0xbd0d4bf7	-0.034496274
82	0xbd2318c0	-0.039818525
83	0xbc235008	-0.009967811
84	0x3b18f8d2	0.0023341668
85	0x3b6d12f4	0.0036174627
86	0x3b8d82d1	0.004318573
87	0xbd176926	-0.03696551
88	0xbd9486cf	-0.07252275
89	0xbc834b04	-0.016026981
90	0x3cae87f7	0.021305067
91	0xbd8be55a	-0.06830855
92	0x3d00bf99	0.03143272
93	0xbbcd0ff7	-0.0062580067
94	0xbd23a25b	-0.039949756
95	0xbbb57d1b	-0.0055385954
96	0xbd5ee9b5	-0.0544221
97	0xbd878845	-0.06617788
98	0xbc952579	-0.018206345
99	0xbbc959b4	-0.0061447266
100	0xbc3ed816	-0.011648199
101	0x3c803ccb	0.015653988
102	0xbcdde062	-0.027084533
103	0xbc19915c	-0.009373035
104	0xbaf4f589	-0.0018688898
105	0xbb22bfba	-0.0024833516
106	0x3c78e717	0.015191815
107	0xbcea1a62	-0.028577033
108	0x3bc00b51	0.005860724
109	0x3cb7caf0	0.022435635
110	0x3ce3ffab	0.027831873
111	0x3bf81393	0.007570693
112	0xbc994c48	-0.018713132
113	0x3b4a06f7	0.0030826905
114	0xbd604372	-0.05475182
115	0xbcc44a33	-0.023961162
116	0x3c0afd05	0.008483176
117	0x3c681866	0.014165973
118	0xbcd629e4	-0.026143022
119	0x3afd1b64	0.0019310531
120	0x3a1c55c6	0.0005963709
121	0x3726b8ec	9.9374265e-06
122	0xbc689d7c	-0.014197703
123	0x3cc969a0	0.024586499
124	0x3cd855f5	0.026408175
125	0x3ca7c8cf	0.020481495
126	0x3c29ed84	0.01037157
127	0xbd2d5bcf	-0.042323884
128	0xbd5c3fe6	-0.053771876
129	0x3d47ff05	0.04882719
130	0x3c1b99d2	0.009497123
131	0x3c9d3a29	0.019192772
132	0xbbd5c79f	-0.006524041
133	0x3c021c7e	0.007941363
134	0xbd1c4f2d	-0.038161445
135	0xbcc25dd2	-0.023726378
136	0x3d08ed83	0.033429634
137	0xbdf34891	-0.11879075
138	0x3c0d675e	0.008630602
139	0xbcd690fd	-0.026192183
140	0xbe0550b2	-0.13019064
141	0x3d751d45	0.059842367
142	0xbcd156f5	-0.02555416
143	0x3b860604	0.0040900726
144	0x3cb6621c	0.02226358
145	0xbd8b1cab	-0.06792577
146	0xbc814637	-0.015780551
147	0x3d08d4ce	0.03340607
148	0x3bbf372f	0.005835436
149	0xbd1c7416	-0.038196646
150	0xbcd958af	-0.026531545
151	0x3c928d8a	0.017889757
152	0xbd3ae727	-0.0456306
153	0xbd2598f9	-0.04042909
154	0x3c17db3c	0.009268578
155	0x3d3852ee	0.045000963
156	0x3cac51f9	0.021035181
157	0xbbf8ba29	-0.0075905514
158	0xbbd59590	-0.0065180734
159	0x3d0740e2	0.03302086
160	0xbd285aba	-0.04110215
161	0xbc5902e8	-0.013245322
162	0x3b99c683	0.004692854
163	0xbcfbfbb6	-0.030759674
164	0xbd1712ef	-0.03688329
165	0x3ccaf98a	0.024777193
166	0xbc39d0cd	-0.011341286
167	0xbd1f5900	-0.038903236
168	0xbd1c82ea	-0.038210787
169	0x3cd83d53	0.02639643
170	0xbd211648	-0.03932789
171	0x3ce56e34	0.02800665
172	0xbcf7342e	-0.030176248
173	0xbd145e89	-0.03622297
174	0xbd7c02e0	-0.06152618
175	0xbc8d839c	-0.01727467
176	0x3c89e565	0.016833017
177	0xbd70abb2	-0.05875749
178	0xbd409fb0	-0.04702729
179	0xbc7c6eba	-0.015407259
180	0xbd1655aa	-0.03670279
181	0xbc700873	-0.014650452
182	0x3ce31a55	0.027722517
183	0x3b827ea1	0.0039823805
184	0xbd6a7086	-0.057236217
185	0x3cac3ed1	0.021026047
186	0xbc817d87	-0.015806926
187	0xbc42c366	-0.011887407
188	0xbd23c558	-0.039983124
189	0xbc15c7c2	-0.009141864
190	0xbd0d7b0d	-0.03454118
191	0xbcd627df	-0.026142059
192	0x3c743fa3	0.01490775
193	0xbc3afa12	-0.0114121605
194	0xbd03e8f4	-0.032204583
195	0xbc1984f7	-0.00937008
196	0xbc5b9d9d	-0.013404277
197	0xbd3762e7	-0.044772055
198	0xbd9029f7	-0.07039254
199	0x3c02f144	0.0079920925
200	0xbd1cb489	-0.03825811
201	0xbd963ac7	-0.0733543
202	0xbd755316	-0.05989369
203	0x3c8b7b26	0.017026495
204	0xbd46602d	-0.048431564
205	0xbc9b802b	-0.018982014
206	0x3d02ee59	0.031965587
207	0xbc8a2aab	-0.016866049
208	0x3c5b8d0b	0.0134003265
209	0x3cbd76bf	0.023127912
210	0xbbd0616b	-0.0063592694
211	0xbd44ca75	-0.04804464
212	0x3c88bb92	0.016691003
213	0x3ba2b89f	0.004965856
214	0xbd576a8d	-0.05259185
215	0xbd2fe74b	-0.042945188
216	0xbd3f9729	-0.046775017
217	0xbb984c34	-0.004647756
218	0x3c2459a6	0.0100311395
219	0xbca067d6	-0.019580763
220	0x3b9ddb58	0.0048174076
221	0xbd3af47f	-0.045643326
222	0xbd2ee0ff	-0.04269504
223	0x3c92b07d	0.017906422
224	0xbc95de0c	-0.018294357
225	0xbc39d948	-0.011343308
226	0xbd392eed	-0.045210768
227	0xbd4dfb47	-0.050288465
228	0xbd56b63f	-0.052419897
229	0x3c226790	0.009912387
230	0xbd5605d4	-0.052251652
231	0xbd3d253b	-0.046178084
232	0x3d010f6a	0.03150884
233	0x3c0eae31	0.008708523
234	0xbd1eaa54	-0.038736656
235	0xbc873911	-0.016506704
236	0xbbfff917	-0.0078116762
237	0x3a711e45	0.0009197931
238	0x3d0c9cda	0.034329273
239	0xbd0dbe46	-0.034605287
240	0xbb69885c	-0.0035634255
241	0xbd018fd6	-0.031631313
242	0xbd0b7f66	-0.034057043
243	0xbc09847e	-0.008393405
244	0x3cf1e3e3	0.02952761
245	0xbc67ffdf	-0.0141601255
246	0x38959b35	7.133783e-05
247	0xbd1531ef	-0.036424574
248	0x3d1c2881	0.038124565
249	0x3cedb2aa	0.029015858
250	0xbc40a68d	-0.011758459
251	0x3d33144d	0.043720532
252	0x3b6cd404	0.0036137113
253	0xbced516c	-0.028969489
254	0xbd3f88b8	-0.046761245
255	0xbcd617c1	-0.026134374

body.0.conv.bias f4 [49]
0	0xba35ce3f	-0.0006935335
1	0x3f55842f	0.8340482
2	0x3fa0c5b5	1.2560335
3	0xbda665e7	-0.08124905
4	0x3f11c612	0.56942856
5	0x3fa06a4e	1.2532442
6	0x3f047aab	0.51749676
7	0x3ef4dcab	0.47824606
8	0xc002808c	-2.0390959
9	0xbfd58b3c	-1.6683116
10	0x3f8ead24	1.1146588
11	0xbb128be0	-0.0022361204
12	0xbe74fc54	-0.2392438
13	0x3f8ae9c4	1.085259
14	0x3f3e0b77	0.74236244
15	0x3eb47e33	0.35252532
16	0x3f8ff0c3	1.124535
17	0xc018dddb	-2.388541
18	0xbcb0b913	-0.021572625
19	0xc0159cbe	-2.3376918
20	0x3f45ebad	0.7731274
21	0x3fa3c142	1.2793353
22	0x3faf9167	1.3716248
23	0xc04e216d	-3.2207901
24	0xc04adc1e	-3.169685
25	0xbcf7f80b	-0.030269643
26	0xbd7a8480	-0.061161518
27	0x3f98f209	1.1948863
28	0x3ee1e48e	0.44119686
29	0x3fbbc613	1.4669822
30	0x3f6bf9ca	0.9217802
31	0x3edef0f8	0.4354322
32	0xbc9c2c47	-0.019064082
33	0xbe84b1bd	-0.25916854
34	0x3f0bd763	0.5462553
35	0x3f1f43e6	0.6221298
36	0xbfb9cb91	-1.4515249
37	0x3f661996	0.8988279
38	0xbfa34416	-1.2755153
39	0x3d6f43a1	0.058414105
40	0xbf945ce0	-1.1590843
41	0xbd63dd46	-0.055630945
42	0x3c53348c	0.012890946
43	0x3fcee215	1.6162745
44	0xbdad628b	-0.08466061
45	0x3fd79e67	1.6845216
46	0xbdcd6e43	-0.100307964
47	0xbd0de0de	-0.03463828
48	0xbf53961a	-0.8265091

body.1.conv.weight f4 [49, 49, 3, 3]
0	0x3ae2b616	0.0017296697
1	0xbcbea97a	-0.023274172
2	0x3bdcdcf7	0.0067402082
3	0xbc8440fd	-0.01614427
4	0xbc7849d1	-0.015154318
5	0xbc12678e	-0.008935822
6	0x3d4adfad	0.04952972
7	0x3d05972d	0.032614876
8	0xbd2a92ec	-0.041644022
9	0x3d9537bf	0.07286023
10	0x3da02ca2	0.07821013
11	0x3db7474a	0.08949144
12	0xbc4f0586	-0.012635594
13	0xbd66ccb7	-0.056347575
14	0xbcf26d39	-0.029593097
15	0xbcfdb482	-0.030969862
16	0x3bb5bc6a	0.0055461423
17	0xbd8ebca6	-0.069695756
18	0xbbac3284	-0.0052550454
19	0xbc9fa0e5	-0.0194859
20	0x3d020f54	0.0317529
21	0x3d381dbb	0.04495023
22	0x3d942a74	0.0723466
23	0x3c094593	0.008378404
24	0xbcdf28c2	-0.027241115
25	0xbc441723	-0.011968407
26	0x3cbd8caf	0.023138372
27	0xb97ae757	-0.00023928039
28	0xbbe32470	-0.006931834
29	0xbcb06dbd	-0.021536702
30	0xbc4580fe	-0.01205468
31	0xbcc5a09f	-0.024124442
32	0x3d4809bd	0.048837412
33	0xbd441d1f	-0.047879335
34	0xbd1fae70	-0.038984716
35	0xbc3aca21	-0.01140073
36	0xbdf084c5	-0.11744074
37	0xbe1949b0	-0.14969516
38	0xbb328fc4	-0.0027246336
39	0xbe052e9e	-0.13006064
40	0x3d5c1002	0.053726204
41	0xbe2bd4aa	-0.16780344
42	0xbde2dbee	-0.110771045
43	0xbe47abed	-0.19499178
44	0xbe140800	-0.14456177
45	0xbd7770c9	-0.060410295
46	0x3d166d12	0.03672511
47	0x3d8532f0	0.06503856
48	0xbdf91f2d	-0.121641494
49	0xbbab1994	-0.005221555
50	0x3dca280b	0.09870919
51	0xbc9cf539	-0.0191599
52	0x3d664b6a	0.056224264
53	0x3d1f2436	0.038852893
54	0xbd74dfd6	-0.05978378
55	0xbd1aa1ca	-0.03775195
56	0xb98778b0	-0.00025839126
57	0x3dd6f5cb	0.104961
58	0x3d37823b	0.04480193
59	0x3cff7b44	0.031186707
60	0x3e4e21a0	0.20130014
61	0xbbf983ab	-0.007614573
62	0xbc31b7ee	-0.010847075
63	0x3d133f46	0.035949014
64	0x3d7c9731	0.061667625
65	0x3c733ce8	0.014846064
66	0xbc8f0d49	-0.01746239
67	0x3c26f329	0.01018981
68	0x3dbf5996	0.09343259
69	0x3ddbedfd	0.10738752
70	0x3db3f9da	0.0878789
71	0x3dc6577e	0.096846566
72	0x3bc89d5d	0.006122275
73	0x3e106a41	0.14103033
74	0xbcb9549d	-0.022623355
75	0x3d9ddc12	0.07707991
76	0x3e6ec797	0.23318325
77	0x3c3bab14	0.011454362
78	0x3d88f1bd	0.06686733
79	0xbcb619c8	-0.02222909
80	0x3c0fd8dc	0.008779731
81	0xbb9e5353	-0.0048317104
82	0x3dbea4cf	0.093087785
83	0xbd4b25df	-0.049596664
84	0xbc9bde8c	-0.019027017
85	0xbcb22d0c	-0.021749996
86	0x3d0de621	0.034643296
87	0xbd47a2fd	-0.048739422
88	0x3dbd8f43	0.09255841
89	0xbc9e9594	-0.019358434
90	0xbe9736bb	-0.29533944
91	0xbe48e090	-0.19616914
92	0xbe496564	-0.19667584
93	0xbe0efc8e	-0.1396353
94	0xbe82403d	-0.25439635
95	0xbf33555f	-0.7005214
96	0xbd7d4766	-0.06183567
97	0xbe897e1c	-0.26854026
98	0xbede0340	-0.43361855
99	0xbc1c3aa8	-0.009535469
100	0x3cd14775	0.025546769
101	0x3c01e408	0.007927902
102	0xbd569bf0	-0.052394807
103	0xbd36c8e5	-0.04462518
104	0x3c23ba3b	0.009993131
105	0xbcec7e22	-0.028868739
106	0xbd173bb7	-0.036922183
107	0xbd8567fa	-0.065139726
108	0xbc27d7c6	-0.0102443155
109	0xbd5bd51e	-0.05367004
110	0x3cc4f72d	0.024043644
111	0x3d1f7bb4	0.038936332
112	0x3dcd4218	0.10022372
113	0x3d489171	0.04896683
114	0x3cb3d560	0.021952331
115	0x3c110152	0.008850412
116	0x3c9ba7ac	0.01900085
117	0x3e4252dc	0.18976921
118	0x3e0d4e10	0.1379931
119	0xbd0ca34f	-0.03433543
120	0x3e7b4290	0.2453711
121	0x3cc93633	0.024561977
122	0x3c0b8e6d	0.008517844
123	0x3e238c85	0.15971573
124	0xbddb38d4	-0.107041985
125	0xbd61001a	-0.054931737
126	0xbde8bf38	-0.11364597
127	0x3e64d1bd	0.22345634
128	0xbdeacd77	-0.114649706
129	0x3e01cea8	0.1267649
130	0x3e9c98a5	0.3058521
131	0xbc83b199	-0.016075896
132	0xbe7c2c9d	-0.24626394
133	0x3e375607	0.1790391
134	0x3b92ae91	0.0044763763
135	0x3c3e6f2e	0.011623187
136	0xbdfb9efd	-0.12286184
137	0xbae71084	-0.0017628823
138	0x3d9a720e	0.075412855
139	0xbe534906	-0.20633325
140	0x3d6596eb	0.05605213
141	0xbc856889	-0.016285198
142	0xbb9b0ff9	-0.0047321287
143	0x3da812c3	0.082067035
144	0xbd1c3d06	-0.038144134
145	0xbdc0fded	-0.094234325
146	0x3ddd6af1	0.10811413
147	0xbd3c4cf2	-0.04597182
148	0xbe2d0983	-0.1689816
149	0x3e1d8fd9	0.15386905
150	0x3e2094ee	0.15681812
151	0x3e33d562	0.17561868
152	0x3ebe988c	0.3722576
153	0xbb623fd6	-0.0034522912
154	0xbd6c6afd	-0.05771922
155	0x3ce2fa7e	0.027707335
156	0xbd324642	-0.043524034
157	0x3db8dd97	0.0902664
158	0xbdbf4a06	-0.09340291
159	0xbdc69b79	-0.09697623
160	0x3ca31a2a	0.019909937
161	0xbc7cbcb2	-0.015425848
162	0xbd105d22	-0.03524507
163	0xbd83250f	-0.06403553
164	0xbcc213ac	-0.02369102
165	0xbd9fd259	-0.078037925
166	0xbcd3ffed	-0.02587887
167	0xbbc4a98d	-0.0060016573
168	0x3c486712	0.012231605
169	0xbd261d8c	-0.04055552
170	0x3c969270	0.018380374
171	0xbdfc91dd	-0.12332509
172	0x3dbc4d85	0.09194473
173	0x3bbd4391	0.005775877
174	0x3e0a727c	0.13520235
175	0x3da5c4e0	0.080941916
176	0x3d74e8ab	0.059792202
177	0x3bf03c96	0.007331441
178	0xbe0aa4c0	-0.1353941
179	0xbc4b73db	-0.012417759
180	0x3e1e647d	0.1546802
181	0xbda2f0e2	-0.07956101
182	0x3d941c93	0.072320126
183	0x3d2758cc	0.040856168
184	0xbd52f997	-0.05150756
185	0x3c0f0978	0.008730285
186	0x3d9c29be	0.07625149
187	0x3da9a695	0.08283726
188	0xbd739db7	-0.05947658
189	0xbc183870	-0.0092907995
190	0x39fd8f16	0.00048362528
191	0x3d8821b0	0.066470504
192	0xbb679f63	-0.0035342805
193	0x3d3db0a4	0.046311036
194	0x3e0c8e39	0.13726129
195	0x3e0511df	0.12995099
196	0x3d8a4567	0.06751519
197	0x3e605388	0.21906865
198	0xbd4ef79d	-0.05052911
199	0x3d45d4dd	0.048298705
200	0x3d7f5884	0.062340274
201	0xbdc353df	-0.095374815
202	0xbe0a78cc	-0.13522643
203	0xbcf521d9	-0.029923366
204	0x3dac9e35	0.08428613
205	0x3d8bfb2e	0.06835018
206	0xbdf6189d	-0.12016413
207	0xba9a3b7a	-0.0011766993
208	0x3d0f330f	0.034960803
209	0xbdbb2d3c	-0.09139487
210	0xbd836d22	-0.064173
211	0x3dc8463c	0.09779021
212	0xbd9bd54f	-0.07609045
213	0xbdbf9a0c	-0.09355554
214	0xbe117240	-0.14203739
215	0x3d8c15e2	0.06840111
216	0x3d8efaaa	0.06981404
217	0xbe81b133	-0.25330505
218	0xbb8b62a0	-0.0042537004
219	0xbda2ad08	-0.07943159
220	0x3e1a839d	0.15089269
221	0x3d18325e	0.03715741
222	0x3ca17bd5	0.019712368
223	0xbc9c1380	-0.019052267
224	0xbc5fad19	-0.01365211
225	0x3d3d9df1	0.046293203
226	0xbc8cf70c	-0.017207645
227	0x3cac1f63	0.02101106
228	0x3d7a4c0c	0.06110768
229	0xbc923a2e	-0.017850008
230	0x3d1c7911	0.038201395
231	0xbc0893c7	-0.008336014
232	0xbc5a6a2c	-0.013330977
233	0x3b37be33	0.0028036952
234	0xbce271ea	-0.02764221
235	0xbb658b77	-0.0035025754
236	0x3d604937	0.054757323
237	0xbd3af27a	-0.0456414
238	0xbd2cc48e	-0.042179637
239	0xbaf4fa26	-0.0018690273
240	0x3b8260ec	0.003978839
241	0xbc9c0e03	-0.01904965
242	0xbca230a1	-0.019798579
243	0x3d8eb752	0.06968559
244	0x3dff6def	0.1247214
245	0xbd3073a8	-0.04307905
246	0x3d17edc8	0.037092
247	0xbd84c978	-0.064837396
248	0xbd846aaf	-0.06465661
249	0x3d7aaa67	0.061197665
250	0xbbf43858	-0.0074530058
251	0xbd2f3e7b	-0.042784195
252	0xbd511557	-0.051045742
253	0xbd49d4ce	-0.049275212
254	0xbe1638ab	-0.14670055
255	0xbd6ab5cb	-0.057302278

body.1.conv.bias f4 [49]
0	0xbcfb0891	-0.030643733
1	0xbecce07c	-0.40015018
2	0x3f035141	0.5129586
3	0x3f6f2324	0.93412995
4	0xbf5a9e03	-0.85397357
5	0xbfd83e4b	-1.689401
6	0xbe97bcb7	-0.29636165
7	0x3f7f220f	0.99661344
8	0x3eb997c3	0.36248598
9	0xbfb32725	-1.3996321
10	0xbfbfbd0e	-1.497957
11	0xbf2540e5	-0.64552146
12	0x3f3ef2b3	0.7458908
13	0x3f4204de	0.75788677
14	0x3e337752	0.17525986
15	0xbfe71aeb	-1.805509
16	0x400a912b	2.1651103
17	0xbf718ddc	-0.94357085
18	0xbff2cee0	-1.8969383
19	0xc011ccfc	-2.2781363
20	0xbfbc4b48	-1.4710474
21	0x3f140b5f	0.5782985
22	0x3f89364e	1.0719697
23	0x3fd02b27	1.6263169
24	0x3f35b859	0.7098442
25	0x400c9322	2.1964803
26	0x3f1e8b57	0.61931366
27	0xbea505f2	-0.32231098
28	0x3dad4591	0.08460534
29	0xbf0d0278	-0.5508189
30	0x3ec992ec	0.39369905
31	0x3ef433e8	0.4769585
32	0x3e224b1b	0.15848963
33	0xbf6ce805	-0.92541534
34	0xbfd4f9e1	-1.6638757
35	0x3f478043	0.77930087
36	0x3ea61341	0.32436565
37	0xc03de073	-2.9668243
38	0xbd6defa7	-0.05808988
39	0xbfeb68f2	-1.8391402
40	0x3df99bfb	0.12187954
41	0xbef1af18	-0.47203898
42	0xbeeb45fe	-0.45951837
43	0xbfb85530	-1.4400997
44	0xbeb220a5	-0.3479053
45	0xbee616c2	-0.44939238
46	0xbf7fdeec	-0.99949527
47	0xbf649752	-0.89293396
48	0x3fb107c2	1.3830492

body.2.conv.weight f4 [49, 49, 3, 3]
0	0xbd21ac11	-0.039470736
1	0x3d16d3ee	0.036823206
2	0xbc776f99	-0.015102291
3	0x3cd8d1d5	0.026467243
4	0x3dd7e30f	0.10541355
5	0x3c1d3b91	0.009596721
6	0xbd926e5f	-0.07149958
7	0x3bf833f7	0.007574554
8	0xbc689c63	-0.014197442
9	0x3cf31146	0.029671323
10	0x3d9b1e4a	0.075741366
11	0xbd6d389d	-0.05791532
12	0x3dc4db13	0.096120976
13	0x3d8f61d2	0.070010796
14	0x3dd7afda	0.10531588
15	0xbdc8f3d5	-0.09812132
16	0xbd8bf087	-0.06832986
17	0xbd6a89d8	-0.057260364
18	0xbdf1467f	-0.11781024
19	0xbdb136a2	-0.086529985
20	0x3d472000	0.048614502
21	0x3dc49f00	0.09600639
22	0x3d4bb347	0.04973152
23	0xbdd87234	-0.105686575
24	0xbe12331f	-0.14277314
25	0xbd6ac3e2	-0.057315715
26	0xbcb79a59	-0.022412466
27	0x3d97166c	0.073773235
28	0xbc7f2469	-0.015572646
29	0x3d2181e0	0.0394305
30	0xbd88e994	-0.066851765
31	0x3e2a909a	0.16656724
32	0x3dfe6ff8	0.124237
33	0x3d43c4f7	0.047795262
34	0x3e00ce78	0.12578762
35	0x3c7e7ac6	0.015532201
36	0xbc8e8467	-0.017397119
37	0x3c19ccd3	0.009387213
38	0xbc34cf97	-0.011035821
39	0xbb16e462	-0.002302431
40	0x3da4c7ac	0.08045897
41	0xbd3658be	-0.044518225
42	0x3d9043b7	0.070441656
43	0x3e474b84	0.194624
44	0x3de031a8	0.10946971
45	0x3d8e45f8	0.06946939
46	0x3b59d4e1	0.0033238458
47	0xbd3955dc	-0.045247898
48	0xbb93e090	-0.004512854
49	0x3d32d21a	0.0436574
50	0x3dc67803	0.09690859
51	0x3e0fe16c	0.14050835
52	0xbe1964d4	-0.14979869
53	0x3e84ca03	0.25935373
54	0x3d1f5225	0.0388967
55	0x3d00dba5	0.03145947
56	0xbd153a09	-0.0364323
57	0x3e9fc86b	0.31207594
58	0x3dd0dbcd	0.10198174
59	0x3d8a32fd	0.067480065
60	0x3e272fd7	0.16326843
61	0x3db61d9f	0.088923685
62	0x3d8f82b8	0.070073545
63	0xbb5f2c4d	-0.0034053505
64	0x3d43a85d	0.047767986
65	0x3b8c2504	0.0042768735
66	0x3e327130	0.1742599
67	0x3dc5e331	0.09662474
68	0x3d51f62e	0.051260166
69	0x3c31f90c	0.0108626
70	0xbbadd3df	-0.005304798
71	0xbcdc9aa1	-0.026929202
72	0x3d35ca60	0.044382453
73	0xbcb1ea47	-0.021718157
74	0x3dd0c12a	0.10193093
75	0x3e84a619	0.25907972
76	0x3d21dc08	0.03951648
77	0x3dc65f9b	0.09686204
78	0x3e4adad4	0.19810039
79	0x3d72da0b	0.059289973
80	0x3ddff902	0.10936166
81	0x3d73450f	0.05939203
82	0x3d37f22a	0.04490868
83	0x3d00c20a	0.03143505
84	0xba328545	-0.000681002
85	0x3b063084	0.0020475695
86	0x3c028037	0.007965139
87	0xbd737d24	-0.059445515
88	0x3d137ecd	0.0360096
89	0xbc98aff2	-0.018638585
90	0xbe057ba0	-0.1303544
91	0xbc9089b4	-0.017643787
92	0xbc4feccd	-0.012690735
93	0xbe429e7e	-0.19005772
94	0xbe8ef6cb	-0.27922663
95	0x3cc34335	0.023835758
96	0xbe0483c6	-0.12940893
97	0xbd5be90a	-0.05368904
98	0x3c8a25be	0.0168637
99	0x3b91a919	0.004445207
100	0x3da19098	0.07888907
101	0xbd9b3dbd	-0.07580135
102	0x3d7763dc	0.060397968
103	0x3d941a80	0.07231617
104	0xbe069a8c	-0.13144892
105	0x3ca61d0d	0.020277524
106	0x3e040a7a	0.12894621
107	0xbe18ff21	-0.14941074
108	0x3c6d6517	0.014489434
109	0x3d5fee0b	0.054670375
110	0xbe00b9fe	-0.1257095
111	0x3e978da0	0.2960024
112	0x3e1fa79c	0.15591282
113	0xbd498062	-0.0491947
114	0xbd0d17e4	-0.034446612
115	0x3d8884f9	0.066659875
116	0xbd26f4fb	-0.040760975
117	0xbbd190c6	-0.006395432
118	0x3de012d7	0.109410934
119	0xbd894c5e	-0.06704019
120	0x3d69f07c	0.05711411
121	0xbd16fbe9	-0.036861334
122	0xbe4155e2	-0.18880418
123	0xbcc87636	-0.02447043
124	0x3d5b942e	0.053608112
125	0x3daa21d5	0.08307234
126	0x3d3edc4b	0.046596806
127	0xbda5ef0f	-0.081022374
128	0xbd6972af	-0.056994136
129	0x3dc64eb9	0.09682984
130	0x3d619b08	0.05507949
131	0xbb73a61e	-0.003717787
132	0xbe324b1b	-0.17411463
133	0xbd5c54ed	-0.05379193
134	0xbd02af71	-0.031905595
135	0x3c41692d	0.011804861
136	0xbe9bb248	-0.30409455
137	0xbdbf7433	-0.09348335
138	0xbc857d29	-0.016295033
139	0xbe9ec131	-0.31006768
140	0xbebaabfc	-0.3645934
141	0xbae0c76d	-0.0017149277
142	0xbcffddd2	-0.031233702
143	0xbdf90c7e	-0.12160586
144	0xbd7a381b	-0.061088663
145	0x3c8c5634	0.017130949
146	0x3c723287	0.0147825545
147	0xbcf00001	-0.029296877
148	0x3d4063d6	0.04697021
149	0xbd4660a5	-0.04843201
150	0x3baf0128	0.005340714
151	0xbd5c9ee0	-0.053862453
152	0xbd364ebf	-0.044508692
153	0xbd9844e6	-0.07435016
154	0x3e03731f	0.12836884
155	0x3cb65230	0.022255987
156	0xbccb87e2	-0.024845067
157	0xbe90223a	-0.28151113
158	0xbe1d2d5d	-0.15349336
159	0x3b46717e	0.003028005
160	0xbe1a0654	-0.15041476
161	0x3def8b36	0.11696474
162	0xbc9774eb	-0.018488368
163	0x3bd9c019	0.0066452143
164	0x3d8de9e2	0.06929375
165	0xbdaf9d83	-0.08574965
166	0xbc19d654	-0.009389479
167	0xbe01765d	-0.12642808
168	0x3db2c5ed	0.087291576
169	0xbcd27b57	-0.025693579
170	0xbe066a0e	-0.13126394
171	0x3bb53496	0.0055299504
172	0x3ddc9658	0.10770863
173	0xbb6eb6ab	-0.0036424797
174	0xbe0d5284	-0.13801008
175	0x3e0de7d0	0.1385796
176	0xbd6bdd21	-0.05758393
177	0xbf3f78bd	-0.74793607
178	0xbeb05e90	-0.34447145
179	0x3d36d94d	0.044640828
180	0x3c3d5109	0.011554965
181	0xbd37d065	-0.044876475
182	0xbd36fe41	-0.04467607
183	0xbe4b1700	-0.19832993
184	0xbf12ba2d	-0.5731533
185	0x3df80a1f	0.121113054
186	0xbdaa1a3c	-0.08305785
187	0xbe93260e	-0.2873997
188	0xbb2b8ded	-0.0026177124
189	0xba01b965	-0.00049485854
190	0xbd9fe9cd	-0.07808266
191	0xbe4bca3d	-0.19901367
192	0x3b856638	0.0040710233
193	0x3dbd93ba	0.09256692
194	0xbd9fcb28	-0.07802421
195	0x3d80f19e	0.06296085
196	0xbce9a350	-0.028520256
197	0xbe2da6ae	-0.16958115
198	0x3dbcd206	0.09219746
199	0x3a7d493f	0.00096620986
200	0x3c63012a	0.013855258
201	0x3e58b152	0.21161392
202	0x3d203b71	0.039119188
203	0x3b5d5720	0.0033773854
204	0xbc678443	-0.014130655
205	0xbdd6234c	-0.10455951
206	0xbbe59eaa	-0.0070074396
207	0xbde968dc	-0.113969535
208	0xbcee2809	-0.029071825
209	0x3cc3649f	0.02385169
210	0x3bcd1fa5	0.006259876
211	0xbd8bd279	-0.06827254
212	0xbda82526	-0.082102105
213	0x3d5fcfda	0.054641582
214	0xbbc39fca	-0.005969976
215	0x3d32f013	0.043685984
216	0x3d49196e	0.049096517
217	0xbda4028a	-0.08008297
218	0x3e303b3d	0.17210098
219	0x3a0a8163	0.00052835624
220	0x3d8468f1	0.064653285
221	0x3e19f926	0.15036449
222	0x3d249ae0	0.040186763
223	0x3de3d6ea	0.11124976
224	0x3dd37d74	0.10326663
225	0x3e1d0bfe	0.15336606
226	0x3d397dd9	0.045286033
227	0x3d9721f4	0.07379523
228	0x3d0b9afd	0.034083355
229	0x3d0ade4a	0.033903398
230	0x3d80e474	0.06293574
231	0x3caea23f	0.0213176
232	0xbd4534f8	-0.048146218
233	0x3d0f4b82	0.03498412
234	0xbc7a29d1	-0.015268759
235	0xbd7ffec7	-0.062498834
236	0xbb84d6df	-0.004053935
237	0x3d4bb4f0	0.049733102
238	0x3dfea1fe	0.12433241
239	0x3d98bcd3	0.0745789
240	0x3d7c0d0c	0.06153588
241	0x3d6430d5	0.055710632
242	0xbd300c66	-0.042980574
243	0x3df37ed0	0.11889422
244	0x3a2397fc	0.0006240604
245	0x3cec92f4	0.028878666
246	0x3d99de9e	0.07513164
247	0x3cd7ad19	0.026327657
248	0x3dac9291	0.08426393
249	0x3d8be7d0	0.06831324
250	0x3dfbf32f	0.12302243
251	0x3dae694a	0.08516176
252	0xbd31c54b	-0.043401044
253	0x3b79acf6	0.0038097478
254	0xbd3ab341	-0.045581106
255	0xbd95fc55	-0.07323519

body.2.conv.bias f4 [49]
0	0x3f372f5f	0.7155666
1	0x3e621ad6	0.2208055
2	0x3fb59f1a	1.4189179
3	0x3ea2ec1c	0.31820762
4	0xbda9ccfa	-0.08291049
5	0x3c9e17d2	0.019298468
6	0x3e43ef28	0.191342
7	0xbdab5b10	-0.08366978
8	0x3d82e45d	0.06391213
9	0x3eff62b0	0.4987998
10	0xbf1061f0	-0.5639944
11	0xbfa70585	-1.304856
12	0x3f066fa1	0.5251408
13	0x3e3527bd	0.1769094
14	0x40113947	2.269121
15	0xbf9cca9e	-1.2249334
16	0x3e545f1e	0.2073941
17	0xbf0f0336	-0.55864275
18	0x3d3bdeb7	0.045866694
19	0x3eb76eb4	0.35826647
20	0x400b96c0	2.181076
21	0xbf220065	-0.6328185
22	0xbf5cb30a	-0.8621069
23	0xbeca7956	-0.39545697
24	0x3e00aaf2	0.1256521
25	0x3f82cf16	1.0219448
26	0xbf696845	-0.9117473
27	0xbf6e2704	-0.93028283
28	0x40404073	3.0039337
29	0xbfdfa7de	-1.7473104
30	0xbe45b0b4	-0.19305688
31	0xc0447259	-3.0694792
32	0x3f401e80	0.7504654
33	0xbf0790a0	-0.52955055
34	0xbfb877dc	-1.4411578
35	0x3fb5f2e0	1.4214745
36	0x3c5caeb1	0.013469384
37	0xbd5dbef6	-0.054137193
38	0x4000feab	2.0155437
39	0xbe58bc07	-0.21165477
40	0xbb46bb3f	-0.003032401
41	0xbe1e012c	-0.15430135
42	0xbe5ecf41	-0.21758749
43	0xc0169246	-2.3526778
44	0x3e62fd10	0.22166848
45	0x3d9b381f	0.075790636
46	0xbfa48e5c	-1.2855945
47	0x3ee169d1	0.44026044
48	0xbe59464b	-0.21218221

body.3.conv.weight f4 [49, 49, 3, 3]
0	0x3d605dce	0.05477696
1	0x3ce7089a	0.028202344
2	0xbca64220	-0.020295203
3	0x3d095408	0.033527404
4	0xbdad2fd3	-0.08456387
5	0xbdf36064	-0.118836194
6	0x3d069dc2	0.032865293
7	0xbd14c4ec	-0.03632061
8	0xbd4a862c	-0.049444363
9	0x3cf6e8ac	0.030140243
10	0x3d9c27d2	0.076247826
11	0xbd6b6f6a	-0.0574793
12	0x3d9c6bc5	0.07637743
13	0xbe65aff9	-0.2243041
14	0x3e2aedc0	0.16692257
15	0x3b3c6ee4	0.002875262
16	0xbcfe37de	-0.031032499
17	0x3dc13488	0.09433848
18	0x3c81883b	0.01581203
19	0x3ce95ea4	0.028487511
20	0x3d1c96e2	0.03822983
21	0x3b5e1d6a	0.0033892044
22	0x3d738233	0.05945034
23	0xbdfd16dc	-0.12357876
24	0x3d2156db	0.039389472
25	0xbd2a0c00	-0.04151535
26	0xbd443b95	-0.047908384
27	0xbc926780	-0.017871618
28	0xbc0da0d0	-0.008644298
29	0xbb49cc80	-0.0030792058
30	0xbc834a9f	-0.016026793
31	0x3bc2380e	0.0059270924
32	0xbc813479	-0.015772091
33	0xbc608899	-0.013704442
34	0x3b99d09b	0.004694057
35	0xbbaa9fdc	-0.005207045
36	0xbda8e032	-0.08245887
37	0x3d9c0f6c	0.07620129
38	0x3d099d33	0.033597182
39	0xbdbe9182	-0.09305097
40	0xbdb97713	-0.09055915
41	0xbcd81e8f	-0.026381759
42	0xbd21a86e	-0.039467268
43	0xbe03cea1	-0.12871791
44	0x3d266fbc	0.040633902
45	0x3c8b7e21	0.017027916
46	0x37c33c63	2.3273931e-05
47	0xbcd3a218	-0.025834128
48	0x3cdf7025	0.027275154
49	0x3df20d7f	0.118189804
50	0xbdbbc1c1	-0.09167815
51	0x3b527e89	0.0032118878
52	0x3af857d1	0.001894707
53	0xbd479984	-0.04873039
54	0xbcc38ee8	-0.023871854
55	0x3da56638	0.08076137
56	0xbd270bef	-0.040782865
57	0xbcc3bec2	-0.023894671
58	0xbd6ae5a7	-0.05734792
59	0xbd58f7bf	-0.052970644
60	0x3ad90c62	0.0016559476
61	0x3cbe24e4	0.02321095
62	0xbcf40575	-0.029787758
63	0xbc0ca217	-0.008583567
64	0xbcb6dcf9	-0.022322165
65	0x3c8e5de0	0.017378747
66	0xbcd3bc65	-0.02584667
67	0x3da5dde3	0.08098962
68	0x3d533415	0.05156334
69	0x3c73c559	0.014878594
70	0xbae47fa3	-0.0017433058
71	0x3d747599	0.059682462
72	0xbda0142f	-0.0781635
73	0xbdafbbbb	-0.085807286
74	0xbc872351	-0.016496332
75	0xbce597db	-0.028026512
76	0x3d7ab36f	0.061206277
77	0xbdb56f31	-0.08859099
78	0x3d39adcf	0.045331772
79	0x3d07c569	0.03314725
80	0xbd6ada5e	-0.057337157
81	0xbdb4ad1d	-0.08822081
82	0xbda2ed3a	-0.079554036
83	0x3bcbc0d7	0.0062180567
84	0xbc4af0f6	-0.012386551
85	0x3d09a56e	0.03360503
86	0x3c2882c8	0.010285087
87	0xbd48cd8e	-0.049024157
88	0xbabff6dc	-0.0014645713
89	0xbcbfdfd1	-0.023422154
90	0x3d636fb4	0.05552645
91	0x3d71c7d2	0.059028454
92	0xbd6f60d8	-0.058441967
93	0xba631aac	-0.0008663337
94	0xbda383ad	-0.079840995
95	0xbd9a1053	-0.07522645
96	0xbca78bdb	-0.02045243
97	0xbc80c0a5	-0.01571686
98	0xbd52bbf2	-0.05144877
99	0xbc9fb535	-0.019495586
100	0x3d9f59ae	0.07780777
101	0xbc53030e	-0.012879146
102	0x3cb4d75c	0.022075348
103	0x3cb1d856	0.021709602
104	0x3dd72128	0.10504371
105	0x3cc02e39	0.02345954
106	0x3daed81b	0.085373126
107	0x3c191c21	0.009345085
108	0xbce2154b	-0.027598044
109	0x3d07260e	0.032995276
110	0x3c2fb3c0	0.010724008
111	0xbc4c87ef	-0.012483581
112	0x3d7b30d0	0.061325848
113	0x3d57bc07	0.05266955
114	0xbcc4c021	-0.024017395
115	0xbcafba88	-0.02145125
116	0xbd84d3c9	-0.06485707
117	0x3c9eedae	0.019400444
118	0x3d056bf0	0.03257364
119	0x3d23406f	0.03985637
120	0xbd96435e	-0.07337068
121	0xbbf134ff	-0.007361054
122	0x3caf92ad	0.021432245
123	0x3c4b5f12	0.012412803
124	0x3d970aa5	0.07375077
125	0xbcddb43e	-0.027063485
126	0x3cfa76ac	0.030574165
127	0xbb9dafb5	-0.0048122057
128	0x3cc977c1	0.024593236
129	0x3d4abfce	0.049499325
130	0xbe01574d	-0.12630959
131	0x3d272af4	0.040812448
132	0x3c25f40a	0.010128984
133	0xbd936a52	-0.07198013
134	0xbd0f4ecf	-0.034987267
135	0x3d8f0b3e	0.06984566
136	0x3caa80d0	0.020813376
137	0xbce97fcf	-0.028503327
138	0xbd3fa77a	-0.046790577
139	0x3bd8e855	0.006619493
140	0x3d6df37f	0.058093544
141	0x3cfa7a5e	0.030575927
142	0xbc4bc8ec	-0.01243804
143	0xbd848f2f	-0.064726226
144	0xbd4391cd	-0.04774647
145	0xbcae9514	-0.02131132
146	0xbc63cfda	-0.013904536
147	0x3c564bd1	0.0130795995
148	0xbccc7d3f	-0.024962066
149	0xbd2d213c	-0.042268023
150	0xbbddc9ac	-0.006768426
151	0xbb3ae52e	-0.002851795
152	0xbbfff1a1	-0.007810787
153	0xbd16c0e0	-0.036805034
154	0x3ce816f4	0.028331257
155	0xbcb5e118	-0.02220206
156	0x3ca869e4	0.020558305
157	0xbc732ad0	-0.01484175
158	0x3c32103a	0.0108681265
159	0xbc705c96	-0.014670512
160	0x3c58a4a4	0.013222847
161	0x3c97fd6f	0.018553464
162	0x3bb48aeb	0.0055097244
163	0x3d6b21f0	0.057405412
164	0x3c04b4cb	0.008099745
165	0x3bb7191c	0.00558771
166	0x3da1c02e	0.078979835
167	0xbccbce99	-0.024878787
168	0x3b9b803f	0.0047455127
169	0xbd08042b	-0.0332071
170	0xbc4cb72d	-0.012494844
171	0x3c893087	0.016746772
172	0xbd6ec515	-0.05829342
173	0xbab4dd5a	-0.0013798878
174	0xbc5479b2	-0.012968468
175	0xbe47b830	-0.19503856
176	0xbd057ba1	-0.032588605
177	0xbd35a853	-0.04434998
178	0xbdcb3a49	-0.099232264
179	0x3c2ae963	0.01043162
180	0x3d85c645	0.065319575
181	0x3e03d36a	0.12873617
182	0xbe006521	-0.12538578
183	0xbbb92cfe	-0.0056511154
184	0xbd8d52a4	-0.06900528
185	0x3e0f7d2c	0.14012593
186	0xb96b7d10	-0.00022457936
187	0x3d059ce9	0.032620344
188	0xbd07ce94	-0.033155993
189	0xbc66b1c6	-0.01408047
190	0x3d8ae800	0.06782532
191	0xbc8ae1d0	-0.016953379
192	0x3d0c661d	0.03427707
193	0x3e08ba4a	0.13352314
194	0x3c128e46	0.008945053
195	0x3d083c99	0.033260915
196	0x3d89d101	0.067293175
197	0x3c9f6dc7	0.019461526
198	0x3d1a77b1	0.037711803
199	0x3d7630e0	0.060105205
200	0x3b2cd528	0.0026372168
201	0xbacc7015	-0.0015597368
202	0x3d9cdcc1	0.07659293
203	0xbcface33	-0.030615902
204	0xbd91c103	-0.07116892
205	0xbda31208	-0.079624236
206	0xbd1cafd1	-0.03825361
207	0x3b71ae7e	0.0036877687
208	0x38e1bd35	0.000107640786
209	0xbd25607a	-0.04037521
210	0x3afb349f	0.0019165463
211	0xbcbfd443	-0.023416644
212	0xbd1095a9	-0.035298977
213	0xbd016bed	-0.031597067
214	0xbd4da108	-0.0502024
215	0x3c95c1a4	0.018280812
216	0x3c56180f	0.013067259
217	0xbbcb467a	-0.00620347
218	0x3c71c547	0.014756507
219	0xbb8dedd7	-0.0043313312
220	0x3c4b1626	0.012395417
221	0xbb7b78d9	-0.0038371591
222	0x3b44451b	0.0029948417
223	0x3cb4e00a	0.022079486
224	0xbc5e6e1a	-0.013576055
225	0x3ccf0c39	0.025274383
226	0xbc125007	-0.008930213
227	0x3c3a548d	0.011372698
228	0x3d7feb96	0.06248053
229	0xbdf3aa55	-0.11897723
230	0x3dacfee7	0.08447056
231	0xbf066a10	-0.5250559
232	0x3e1cf063	0.15326075
233	0xbc6ab535	-0.01432543
234	0x3ded9de1	0.11602379
235	0x3d4e425d	0.050356258
236	0x3c2abb4a	0.01042063
237	0xbcc9600d	-0.024581933
238	0x3c9dee66	0.019278716
239	0xbd6e81b7	-0.058229174
240	0xbd812aff	-0.06307029
241	0x3d027447	0.031849172
242	0x3d9254b2	0.071450606
243	0x3bde2ce3	0.0067802533
244	0x3cff1320	0.03113705
245	0x3c7d50c3	0.01546115
246	0x3cdf606b	0.027267655
247	0xbd6c6826	-0.05771651
248	0x3e09375e	0.13400027
249	0x3c5ef2f9	0.013607734
250	0x3db9eeae	0.09078728
251	0xbd9e922f	-0.07742726
252	0x3c92a6e4	0.017901845
253	0x3c349559	0.011021935
254	0x3d0f7317	0.035021868
255	0xbcd48759	-0.025943445

body.3.conv.bias f4 [49]
0	0xc05e40d1	-3.472706
1	0xbfabfb98	-1.3436155
2	0xbf18ac4c	-0.59637904
3	0x3fc1c63d	1.5138623
4	0xbf43edd5	-0.7653478
5	0xbedcb3dd	-0.43105975
6	0xbe82bd82	-0.25535208
7	0xbfb118ed	-1.3835732
8	0x3e973630	0.2953353
9	0xbf9ddf17	-1.2333707
10	0xbf452e6c	-0.7702396
11	0x3f2892d2	0.6584903
12	0xbf825e92	-1.018511
13	0xbecf5dfe	-0.40501398
14	0x3fa14c06	1.2601326
15	0xbf9f4d91	-1.2445546
16	0x3edc20d8	0.42993808
17	0x3eb8ea8c	0.36116445
18	0x3f0f2630	0.55917645
19	0x3fb98fc1	1.4496995
20	0xbf79d45b	-0.97589654
21	0xbef02de9	-0.46910027
22	0xbd8855a8	-0.06656963
23	0x3f036907	0.51332134
24	0xbf6fdd8c	-0.9369743
25	0xbf551fca	-0.8325163
26	0x3edd3a2e	0.4320845
27	0xbee5b48d	-0.44864312
28	0x3eb8a036	0.3605973
29	0x3f228115	0.63478214
30	0xbf804100	-1.0019836
31	0x3f923582	1.1422579
32	0xc015f2b9	-2.3429396
33	0xbf61a11f	-0.88136476
34	0x3f73e96f	0.95278066
35	0xbe7b3670	-0.24532485
36	0xbf3b51c2	-0.7317163
37	0xc019da8b	-2.4039638
38	0xbfd92afa	-1.696624
39	0xbf9941da	-1.1973221
40	0xbf51bc1a	-0.81927645
41	0xbf2a5c8e	-0.6654748
42	0xbf1bfc24	-0.6093161
43	0x3ebc0eee	0.3673014
44	0x3f11de92	0.5698024
45	0x3ddddb80	0.10832882
46	0x3fb42f5d	1.4076954
47	0x3ea9b814	0.33148253
48	0x400dc59d	2.2151864

body.4.conv.weight f4 [49, 49, 3, 3]
0	0x3cc79869	0.024364667
1	0xbdb84861	-0.0899818
2	0xbc36fd3e	-0.011168776
3	0x3d4cedd3	0.050031494
4	0x3e8aa700	0.27080536
5	0xbd60f3ae	-0.05491989
6	0x3cc57377	0.02410291
7	0xbd8a1c25	-0.067436494
8	0xbc8325b2	-0.016009185
9	0x3d05771f	0.032584306
10	0xbc691f5a	-0.014228666
11	0xbcb0a0df	-0.021561084
12	0x3d094a58	0.033518165
13	0x3d98496a	0.074358776
14	0xbba951bf	-0.0051672156
15	0xbd00c65c	-0.03143917
16	0xbcdebbd5	-0.027189175
17	0xbc9e10ff	-0.019295214
18	0xbbb3c5bf	-0.0054862197
19	0x3ad84478	0.0016499897
20	0xbd25fd68	-0.04052487
21	0xbbfeb1f7	-0.00777268
22	0xbd6d8a90	-0.05799347
23	0x3d3d4136	0.046204768
24	0x3bccdf54	0.0062522087
25	0xbcaafd18	-0.020872638
26	0xbc95f486	-0.018305074
27	0xbec9c8e8	-0.39411092
28	0x3eb02fcf	0.34411475
29	0x3daa00f7	0.08300965
30	0x3d7d8851	0.06189758
31	0xbda9224d	-0.082584955
32	0xbcb76626	-0.022387575
33	0xbc49e9c7	-0.012323803
34	0x3c9c94cf	0.019113926
35	0x3c0771f9	0.008266919
36	0xbc40fd06	-0.0117790755
37	0xbbe9fcad	-0.007140717
38	0xbce9f125	-0.02855737
39	0x3da7ecd1	0.08199466
40	0x3ce7cfb3	0.02829728
41	0xbc5aae8a	-0.013347277
42	0x3b0cb022	0.0021467288
43	0xbd362b3e	-0.044474833
44	0xba224c61	-0.0006191191
45	0x3c529dcf	0.012855007
46	0x3baf3f83	0.0053481474
47	0xbc05259d	-0.0081266435
48	0x3c19dce2	0.0093910415
49	0xbda0f109	-0.07858474
50	0xbd48512b	-0.048905533
51	0xbcee7cfb	-0.02911233
52	0x3d5d9ff9	0.05410764
53	0xbddf8098	-0.10913199
54	0x3be39604	0.0069453735
55	0xb90c5159	-0.00013381745
56	0x3b9e7fa7	0.0048369947
57	0x3c047b22	0.008085998
58	0x3b6c839a	0.0036089183
59	0x3c436d1a	0.011927867
60	0x3b6c7012	0.0036077541
61	0xbbd81921	-0.0065947925
62	0x3a85518c	0.0010171398
63	0xbc8896a6	-0.016673397
64	0xbc8f0db1	-0.017462583
65	0xbbfac479	-0.007652816
66	0xbd53c802	-0.051704414
67	0xbe3cdbe9	-0.18443264
68	0xbd8ded68	-0.06930047
69	0xbd88b9ab	-0.06676038
70	0xbda0010c	-0.078127
71	0xbdbe76d3	-0.09300008
72	0xbc5360ee	-0.012901528
73	0x3c7d693a	0.0154669825
74	0x3c676fb0	0.0141257495
75	0x3da70c52	0.08156647
76	0x3d899cc1	0.067193516
77	0x3dc74126	0.09729223
78	0xbd0d8818	-0.034553617
79	0x3d024012	0.031799383
80	0xbb93064f	-0.004486836
81	0xbcd3affc	-0.025840752
82	0x3c726e5e	0.014796821
83	0x3c2db92d	0.010603231
84	0xbcae0135	-0.02124081
85	0xbd447264	-0.047960654
86	0xbca795f7	-0.020457251
87	0x3d3a0862	0.04541815
88	0xbd4d8a85	-0.05018093
89	0xbc3afa39	-0.011412197
90	0xbd1f89be	-0.03894972
91	0x3dc382d2	0.09546436
92	0x3995618e	0.00028492179
93	0xbd95f7c9	-0.07322652
94	0xbde72a62	-0.11287381
95	0x3caeb2c2	0.021325473
96	0x3dd55279	0.10416121
97	0xbda725c9	-0.08161504
98	0x3c9df334	0.019281007
99	0x3d1eadf0	0.0387401
100	0xbcbf0afd	-0.02332067
101	0xbb0b9975	-0.0021301184
102	0x3d6e52db	0.058184486
103	0xbdcc0de8	-0.0996359
104	0xbc0b277e	-0.008493302
105	0x3bf73444	0.0075440723
106	0x3c07caf8	0.008288138
107	0x3c0fc664	0.008775327
108	0x3c0f6fa7	0.008754647
109	0x3bf0c085	0.007347169
110	0x3c89f538	0.016840562
111	0x3c2a429e	0.010391859
112	0xbd9767c5	-0.07392839
113	0x3ea8e766	0.32989043
114	0x3cd30335	0.025758365
115	0x3cf27fa4	0.02960188
116	0x3cd977c7	0.026546372
117	0x3d9eac60	0.07747722
118	0xbd944d89	-0.07241351
119	0x3a0ddffd	0.00054121
120	0x3c40e7cd	0.011774016
121	0xbd5506e1	-0.052008513
122	0x3cd486ba	0.025943149
123	0xbd4ada5a	-0.049524643
124	0xbdffa9af	-0.124835365
125	0xbdafd9bf	-0.08586454
126	0x3c829a3a	0.015942682
127	0xbd3ddaed	-0.046351362
128	0xbd7d01fd	-0.061769474
129	0x3c0b722a	0.008511106
130	0xbd25a27e	-0.040438168
131	0xbd1b8524	-0.03796877
132	0xbc09188c	-0.008367669
133	0x3c9e6927	0.01933725
134	0x3c61398f	0.013746633
135	0x3b7cdcec	0.0038583828
136	0x3c7cd865	0.015432452
137	0xbc1e5037	-0.009662679
138	0x3ce99c11	0.028516801
139	0xbd885e13	-0.06658568
140	0x3deb7ccf	0.11498415
141	0x3c448894	0.011995453
142	0x3e537b00	0.2065239
143	0xbd670c58	-0.056408256
144	0xbd2e0eb9	-0.04249451
145	0xbd59e941	-0.053200964
146	0xbcd0dc4b	-0.025495669
147	0x3d49c84c	0.049263284
148	0xbba9c156	-0.005180518
149	0x3d2469f7	0.04014012
150	0x3a1a53bd	0.0005887112
151	0xbbe2470a	-0.006905441
152	0x3cd509cf	0.026005654
153	0xbcca1bb2	-0.02467141
154	0x3dfc3f74	0.1231679
155	0xbd27f2e8	-0.041003138
156	0xbd6b503f	-0.057449576
157	0x3b9c9df8	0.0047795735
158	0xba4f33d7	-0.0007904148
159	0x3c67fbf2	0.01415919
160	0x3d02ee94	0.031965807
161	0x3bf79cdf	0.0075565423
162	0x3adac1d2	0.0016689843
163	0xba008b23	-0.00049035455
164	0x3c714dff	0.014728068
165	0x3bd0d67d	0.0063732252
166	0xbac2f825	-0.0014874978
167	0xbd60e15f	-0.05490243
168	0x3c9d60f5	0.019211272
169	0xbc1c3099	-0.009533071
170	0x3d93cc87	0.07216745
171	0xbbd35477	-0.006449278
172	0xbb9d812e	-0.004806659
173	0xbcb98c16	-0.022649806
174	0x3c3be7ee	0.011468871
175	0x3bc1c77a	0.005913672
176	0x3a79c89d	0.000952849
177	0x3bf5eb11	0.0075048287
178	0xbc892e68	-0.016745761
179	0x3be7dd74	0.00707596
180	0x3d6b4fdb	0.057449203
181	0x3d9a64a1	0.07538725
182	0xbd5c3002	-0.05375672
183	0xbd1cb9d7	-0.03826317
184	0x3c0ad5a9	0.008473792
185	0x3cd3eab1	0.025868746
186	0xbc0fe947	-0.008783645
187	0x3cbf938b	0.023385784
188	0x3b5ba110	0.0033512749
189	0xbd428f39	-0.04749987
190	0xbd7e9f70	-0.06216377
191	0xbd82a760	-0.063795805
192	0xbce41797	-0.02784328
193	0xbd40b95a	-0.047051765
194	0xbcecf230	-0.028924078
195	0xbd0e8b8e	-0.03480106
196	0x3c16755e	0.009183256
197	0xbd28f1f5	-0.041246373
198	0xbbe64f47	-0.0070284936
199	0xbcb1b379	-0.021692025
200	0xbba18b84	-0.0049299616
201	0xbda78c6c	-0.0818108
202	0x3d110f86	0.035415195
203	0x3d0e1bea	0.03469459
204	0xbcc2ab49	-0.023763316
205	0xbc3498ea	-0.011022786
206	0xbd06cac0	-0.0329082
207	0x3cbdba2a	0.023160059
208	0x3d167b53	0.036738705
209	0x3c0486d0	0.008088782
210	0xbd13c932	-0.036080547
211	0xbd66d617	-0.056356516
212	0xbd31b71a	-0.04338751
213	0xbca734ab	-0.020410856
214	0xbce0bfd7	-0.027435226
215	0xbcd4b382	-0.025964502
216	0xbd15705e	-0.036484115
217	0xbd7716eb	-0.06032459
218	0x3c289146	0.010288542
219	0x3bd1f6d1	0.0064075966
220	0x3d4c635f	0.049899455
221	0x3d122a90	0.035685122
222	0xbc6597d3	-0.0140132485
223	0xbca4e93a	-0.020130742
224	0xbd08d115	-0.03340252
225	0x3bf71979	0.0075408784
226	0x3d2abd16	0.041684233
227	0xbb930630	-0.0044868216
228	0x3d4676ad	0.04845302
229	0x3a7092ba	0.00091771374
230	0xbca860b7	-0.02055393
231	0x3bf89b8f	0.0075869034
232	0x3c54760b	0.012967597
233	0xbcabb11b	-0.020958474
234	0xbd3f6c61	-0.046734218
235	0xbc188869	-0.009309866
236	0xbc4d3ccd	-0.012526703
237	0xbd58b88c	-0.052910373
238	0xbd13f077	-0.036117997
239	0xbd0ea907	-0.034829166
240	0xbd5678cc	-0.052361295
241	0xbe29ce9b	-0.1658272
242	0xbd3e368b	-0.046438735
243	0xbbed980d	-0.007250792
244	0xbd82bf75	-0.06384174
245	0xbd610111	-0.054932658
246	0x3cac765b	0.02105253
247	0x3d8be02d	0.068298675
248	0xbd728a27	-0.059213784
249	0xbc87ba83	-0.016568428
250	0xbdad47a8	-0.08460933
251	0x3c8d0319	0.017213391
252	0x3c9c565f	0.019084154
253	0xbcd9cd0c	-0.026587032
254	0xbb849fff	-0.0040473933
255	0xbbf08d48	-0.007341061

body.4.conv.bias f4 [49]
0	0x3f2c3e77	0.67282814
1	0x3de01ec3	0.10943367
2	0xbfc6d3c6	-1.5533378
3	0xbdc5a663	-0.096508764
4	0xbff43b3a	-1.9080575
5	0xbf31a86a	-0.69397604
6	0x3f7016bb	0.93784684
7	0x3d5d4756	0.05402311
8	0xbec74f6d	-0.38927785
9	0xbfc204af	-1.5157679
10	0x3f31a4f4	0.69392323
11	0x3e8ecd17	0.27890846
12	0xbc7de214	-0.015495796
13	0xbfa195b2	-1.2623808
14	0xbd9b6878	-0.07588285
15	0x3e94e42f	0.2908034
16	0x3d72c5cb	0.05927066
17	0x3f4d4999	0.80190426
18	0xbd7aa668	-0.061193854
19	0x3d12c098	0.035828203
20	0x3e5a2bda	0.2130579
21	0x3ea54e23	0.32286176
22	0x3e8424cb	0.2580932
23	0x3ca3a69d	0.019976908
24	0x3ea729eb	0.32649168
25	0xc0129652	-2.2904248
26	0x3e588866	0.21145782
27	0x3e263fec	0.16235322
28	0xbf46afaf	-0.7761182
29	0x3f511ee6	0.8168777
30	0x3d469f29	0.04849163
31	0xbd9967f6	-0.07490532
32	0xbec75e15	-0.38938966
33	0x3f1cbf8d	0.61229783
34	0xbeb651a6	-0.35609168
35	0xbf31d372	-0.69463265
36	0x3d0e9b3b	0.034816008
37	0xbebfa5a4	-0.3743106
38	0xbe7b8ec2	-0.24566177
39	0xbe7fea32	-0.24991682
40	0x3f0b10bb	0.54322404
41	0x3e84067d	0.257862
42	0xbcfd76ac	-0.030940376
43	0x3e9193ed	0.2843317
44	0x3fb0b835	1.3806216
45	0xbfee82ac	-1.8633628
46	0xbf99a1f8	-1.2002554
47	0xbb8b67b4	-0.0042543057
48	0xbfe49d84	-1.786057
