model/visdrone_abpn/x4_270_480_abpn_006.onnx (onnx, 436057 bytes, 12 tensors)

stem.conv.weight f4 [49, 3, 3, 3]
0	0x3ba84118	0.005134713
1	0x3cd15375	0.02555249
2	0xbd98280d	-0.07429514
3	0x3e6e6ba9	0.23283257
4	0x3e329eca	0.17443386
5	0xbe23385d	-0.1593947
6	0xbdc418da	-0.095750526
7	0x3dccae3c	0.0999417
8	0xbdf2a952	-0.118487015
9	0xbd2a26c6	-0.041540883
10	0x3bd3c79e	0.006463005
11	0x3be7bae6	0.0070718406
12	0xbe337990	-0.17526841
13	0x3e194782	0.14968684
14	0xbc8855f7	-0.016642554
15	0x3e5deb37	0.21671759
16	0xbd70a86e	-0.058754377
17	0xbd242a35	-0.040079314
18	0x3d8a4958	0.067522705
19	0xbbdb4072	-0.006691032
20	0x3d6b6f9a	0.05747948
21	0xbd6f912b	-0.058488052
22	0xbdd3c676	-0.10340588
23	0x3e65dd95	0.22447808
24	0xbdcb261a	-0.09919377
25	0xbe36fb53	-0.1786931
26	0x3e1ccdbf	0.15312861
27	0xbd1334bc	-0.035938963
28	0x3c1093ac	0.00882427
29	0xbdc79c8e	-0.09746657
30	0x3dc689c3	0.09694245
31	0x3d4d3eea	0.050108828
32	0x3e066051	0.1312268
33	0xbe3d7368	-0.18501055
34	0xbe00d141	-0.12579824
35	0x3d7b449d	0.06134473
36	0xbe10c310	-0.1413691
37	0xbd080a6e	-0.03321307
38	0x3dc7351c	0.09726927
39	0x3cb18168	0.021668151
40	0xbc0c24e3	-0.008553716
41	0xbdbda38b	-0.09259709
42	0xbc25b99f	-0.010115056
43	0x3d436bf4	0.047710374
44	0xbd1fb668	-0.038992316
45	0xbe0bca6b	-0.13651435
46	0x3d1d87e1	0.038459662
47	0xbe1236e7	-0.14278756
48	0xbdd55fb5	-0.10418645
49	0xbc0c47db	-0.008562054
50	0xbe4158d2	-0.18881539
51	0x3cbb9ea3	0.022902792
52	0x3d3692c4	0.04457356
53	0xbe124c19	-0.14286841
54	0x3c99f878	0.018795237
55	0xbe0b02a5	-0.13575228
56	0xbc9a682a	-0.018848497
57	0xbe39572a	-0.18099657
58	0x3e5bba77	0.2145785
59	0x3e5642db	0.20923941
60	0x3d3b3c51	0.04571182
61	0xbde44d3a	-0.11147542
62	0x3a00a599	0.00049074885
63	0x3e12f9a0	0.14353037
64	0xb73262ce	-1.06326315e-05
65	0xbcaaaba7	-0.020833803
66	0x3d286c76	0.04111906
67	0x3e850485	0.2598001
68	0xbdb75dea	-0.089534596
69	0xbdbd109b	-0.09231683
70	0xbe891401	-0.26773074
71	0xbc582a2c	-0.013193648
72	0xbe2a65d9	-0.16640414
73	0x3e185a75	0.14878257
74	0x3d1ef52b	0.03880803
75	0x3e53fedf	0.20702694
76	0x3e5197ff	0.20468138
77	0x3bc296d1	0.005938389
78	0xbdaf35b9	-0.08555169
79	0xbe77bc5d	-0.24192949
80	0xbddc8245	-0.107670344
81	0x3cc1c2d6	0.023652475
82	0xbdf13323	-0.11777332
83	0x3dbbbe8e	0.09167205
84	0xbdb46a9a	-0.08809395
85	0x3d0be05d	0.034149516
86	0x3dfb153b	0.12259909
87	0xbd946154	-0.07245126
88	0xbe347b83	-0.17625241
89	0xbe6b0e1f	-0.22954606
90	0xbdf841bf	-0.12121915
91	0xbd240cc5	-0.04005124
92	0xbd8d970a	-0.06913574
93	0xbe2f15d2	-0.17098168
94	0xbe2defe9	-0.1698605
95	0xbd129210	-0.035783827
96	0xbe4be29e	-0.19910666
97	0x3d637ea7	0.055540707
98	0x3d82bec4	0.06384042
99	0x3df7690b	0.12080582
100	0x3d1beb72	0.038066335
101	0xbc3fcee1	-0.011707039
102	0x3e33e1d7	0.1756662
103	0x3e3a8475	0.18214591
104	0x3e1fd537	0.15608679
105	0x3e169d50	0.14708447
106	0x3e384490	0.17994905
107	0x3db2a978	0.0872373
108	0xbe3550ff	-0.17706679
109	0xbb48889a	-0.0030599
110	0xbd812ff1	-0.06307972
111	0xbda7f0e5	-0.08200244
112	0x3e14dcc0	0.14537334
113	0x3dd0c932	0.10194625
114	0x3df54faf	0.11978089
115	0xbc8bb31b	-0.017053178
116	0x3bd16274	0.0063899104
117	0xbe18dd7f	-0.14928244
118	0xbd546a7e	-0.05185937
119	0x3e00dca3	0.12584166
120	0xbe6175b9	-0.22017564
121	0xbd92bdf8	-0.0716514
122	0x3d2245a3	0.039617192
123	0x3df512b5	0.11966459
124	0x3e6428cf	0.22281192
125	0x3c833909	0.016018407
126	0xbdcd5aee	-0.10027109
127	0x3d792a82	0.060831554
128	0x3d66ed3f	0.0563786
129	0xbe389dbd	-0.18028922
130	0x3c200328	0.0097663775
131	0xbd81d0ae	-0.063386306
132	0x3ded7d60	0.11596179
133	0xbddb174f	-0.10697805
134	0x3db4e061	0.088318594
135	0xbd1886ed	-0.03723805
136	0x3e186e09	0.14885725
137	0x3d0ce1bb	0.03439496
138	0xbe610c44	-0.21977335
139	0xbdf0abaa	-0.11751492
140	0x3dcd9ebb	0.10040041
141	0x3e387161	0.18012
142	0xbcf083aa	-0.029359657
143	0xbd25e640	-0.040502787
144	0xbd975ce3	-0.073907636
145	0x3e28849a	0.16456833
146	0xbe17a1ec	-0.14807862
147	0x3e4e2d3d	0.20134445
148	0xbe494902	-0.19656757
149	0x3e772d0b	0.24138276
150	0xbdfe711c	-0.12423918
151	0xbe4f289d	-0.20230336
152	0x3de64e83	0.11245444
153	0xbe438fca	-0.1909782
154	0x3deab6f5	0.114606775
155	0xbcdc8391	-0.026918205
156	0xbe30d9f2	-0.1727064
157	0x3d477815	0.048698504
158	0x3e1be8b3	0.15225486
159	0xbd84de4f	-0.064877145
160	0xbd5f618c	-0.054536387
161	0x3e4a6206	0.19763955
162	0x3df899a1	0.121386774
163	0xbe2524d2	-0.16127327
164	0xbdae3312	-0.08505835
165	0x3e3f2e22	0.18669942
166	0xbd59cf22	-0.053176053
167	0xbcea81ed	-0.028626407
168	0x3dae0578	0.08497137
169	0xbe5d1a77	-0.21592127
170	0x3db7fd4b	0.08983859
171	0xbcb4abd9	-0.0220546
172	0x3e22ddb4	0.15904886
173	0xbc21983e	-0.0098629575
174	0x3d1fa7ce	0.03897839
175	0xbdbb3cf8	-0.09142488
176	0x3cd190d4	0.025581755
177	0x3d62632e	0.055270366
178	0xbceec1eb	-0.029145202
179	0x3d54c7f6	0.05194851
180	0xbaab498c	-0.0013068183
181	0x3d8bc6ca	0.068250254
182	0xbd163055	-0.036667187
183	0xbd0f5ca3	-0.035000455
184	0xbc5898c0	-0.013220012
185	0xbdcf1cd7	-0.10112923
186	0x3e2bf025	0.16790827
187	0xbe37df10	-0.17956185
188	0x3c4d3b2f	0.0125263175
189	0xbe01f31d	-0.12690397
190	0x3e0051cd	0.12531205
191	0xbb2415dd	-0.0025037446
192	0xbd2c8e1c	-0.042127714
193	0x3e3bbfd9	0.18334903
194	0x36d23d1c	6.2656018e-06
195	0x3d9d71c8	0.07687718
196	0x3c6b2e83	0.014354351
197	0xbe0e3ca8	-0.13890326
198	0xbde78fcb	-0.11306723
199	0xbcd35b9a	-0.025800515
200	0xbc1d5778	-0.009603374
201	0x3ae58687	0.0017511406
202	0x3dc37701	0.095441826
203	0x3e0237c2	0.12716582
204	0xbe4c8a21	-0.19974567
205	0x3e0a8349	0.13526644
206	0xbe2f5d68	-0.17125475
207	0xbe045aa4	-0.12925202
208	0xbe27122b	-0.16315524
209	0xbbe758b0	-0.007060133
210	0xbd1b7f1c	-0.037963018
211	0x3e16786f	0.1469438
212	0x3e0cb273	0.13739948
213	0xbddbadb3	-0.1072649
214	0x3e4decb2	0.20109823
215	0x3a003d56	0.0004891952
216	0xbb90b4d7	-0.004416089
217	0xbe975177	-0.2955434
218	0xbdb3abaa	-0.08772977
219	0xbe8712da	-0.2638157
220	0xbe2c8616	-0.16848025
221	0xbe5bc28b	-0.21460931
222	0xbe3a1eb0	-0.18175769
223	0xbe411b0d	-0.18857975
224	0xbdd46aee	-0.10371958
225	0xbd49bd33	-0.0492527
226	0x3e53ccd9	0.20683612
227	0xbd1fc8a6	-0.039009713
228	0xbd897ec3	-0.06713631
229	0x3d8ee85e	0.06977914
230	0x3ddf8d5a	0.109156325
231	0x3e203a8b	0.15647332
232	0x3dde4c1d	0.10854361
233	0xbdaa9cbc	-0.08330676
234	0x3d674532	0.056462474
235	0xbe14785f	-0.14499043
236	0x3d3f8481	0.046757225
237	0x3e302486	0.17201433
238	0xbe3c18a6	-0.18368778
239	0xbe22dc08	-0.15904248
240	0xbe215142	-0.15753654
241	0xbcd1a9d4	-0.025593676
242	0x3e29a89f	0.1656823
243	0xbd9ae4ea	-0.07563193
244	0x3e055f18	0.13024557
245	0xbd790322	-0.060794003
246	0xbe422c17	-0.18962131
247	0xbd713328	-0.058886677
248	0xbe7a27e4	-0.2442928
249	0xbe592dc0	-0.21208858
250	0xbd8482f4	-0.0647029
251	0xbe1b6519	-0.15175284
252	0xbd849946	-0.06474547
253	0xbd8943c4	-0.067023784
254	0x3e693e2f	0.22777627
255	0x3cab36a8	0.020900086

stem.conv.bias f4 [49]
0	0x3d2509a3	0.040292393
1	0xbe345f26	-0.17614421
2	0x3cf6a9d6	0.030110281
3	0x3d8fe27a	0.07025619
4	0xbce58613	-0.028018033
5	0xbb29025d	-0.0025788762
6	0x3d373077	0.044723954
7	0x3d7ed0da	0.062210895
8	0x3da731c3	0.08163788
9	0xbe2aec61	-0.16691734
10	0xbd0f5ac5	-0.034998674
11	0xbad2af57	-0.0016073984
12	0xbd57292b	-0.052529495
13	0x3bfe05aa	0.00775214
14	0xbd15d82e	-0.03658312
15	0xbdc4e909	-0.096147604
16	0x3c434657	0.011918626
17	0xbceba35e	-0.028764423
18	0x3c98e0a4	0.018661804
19	0x3e2c7da4	0.16844803
20	0x3d028a8e	0.031870417
21	0x3b82565b	0.0039775795
22	0x3c02fba0	0.007994562
23	0x3d3f1e91	0.04666001
24	0xbe4f2258	-0.20227945
25	0xbba68c27	-0.0050826254
26	0x3d8e1212	0.069370404
27	0x3cba78d4	0.022762693
28	0x3d28f8bf	0.041252848
29	0x3d9053bb	0.0704722
30	0x3d4d80f3	0.050171804
31	0x3cde78dd	0.027157241
32	0xbd21c4af	-0.039494213
33	0x3cdb67c9	0.026782887
34	0xbbc13edb	-0.0058973855
35	0x3d2244ac	0.03961627
36	0xbabe1bbd	-0.0014504116
37	0x3db191d5	0.086703934
38	0xba550aef	-0.00081269344
39	0x3e274af9	0.16337194
40	0xbdefc2bd	-0.11707065
41	0xbd387d23	-0.045041215
42	0x3d1cc3bf	0.038272616
43	0x3d92e72d	0.071729995
44	0xbb9f2c1b	-0.0048575527
45	0x3c164df6	0.009173861
46	0xbdecb36e	-0.11557661
47	0xbd1b0485	-0.037846107
48	0xbe3e6f9f	-0.18597268

body.0.conv.weight f4 [49, 49, 3, 3]
0	0x3cbbb0e5	0.022911498
1	0x3ca6d93f	0.020367263
2	0x3ca04746	0.019565236
3	0xbc41c3b8	-0.011826448
4	0xbd0550e7	-0.032547858
5	0xbd2d15d8	-0.04225716
6	0xbd06098c	-0.03272395
7	0x3c200af5	0.009768237
8	0xbd0af9f8	-0.033929795
9	0xbc3d8306	-0.011566883
10	0xbd01c5d7	-0.031682815
11	0xbc2a02d6	-0.010376653
12	0xbcd58900	-0.026066303
13	0xbca6fb14	-0.020383395
14	0xbd357d88	-0.04430917
15	0x3d0fc103	0.03509618
16	0x3c02e8fa	0.007990116
17	0x3cea6d1f	0.028616486
18	0x3cfc2272	0.030778144
19	0x38e5a1cf	0.0001094971
20	0xbbf012d5	-0.0073264637
21	0xbc2e2759	-0.010629498
22	0x3cc37387	0.023858799
23	0xbcd0d6a8	-0.025492981
24	0xbca9d67e	-0.02073216
25	0xbcff9d3c	-0.031202905
26	0xbd8a2401	-0.067451485
27	0xbcaa071b	-0.020755341
28	0x3a68333c	0.0008857732
29	0xbd56cf54	-0.052443817
30	0xbcf54617	-0.029940648
31	0xbd207004	-0.039169326
32	0xbd3ac776	-0.045600377
33	0x3c9aa579	0.018877732
34	0xbd4c95d8	-0.04994759
35	0xbb7efb12	-0.0038906974
36	0xbc85773d	-0.016292209
37	0xbd1e38fa	-0.038628556
38	0xbb0331e8	-0.002001876
39	0xbbd4ff3e	-0.006500154
40	0x3c7d897f	0.015474676
41	0xbc643093	-0.013927597
42	0xbd3594a4	-0.044331208
43	0x3a871278	0.0010305187
44	0xbd03fc1b	-0.03222285
45	0xbd7cd23d	-0.061723936
46	0xbdb0b8ef	-0.08629023
47	0xbd32684d	-0.0435565
48	0x3c8e0c7b	0.017339936
49	0xbc13e8f7	-0.009027711
50	0xbd00442d	-0.031315017
51	0xb8b56367	-8.649268e-05
52	0xbd3556d0	-0.044272244
53	0xbd492e42	-0.04911638
54	0xbd040170	-0.032227933
55	0xbbce36cb	-0.006293153
56	0xbac11d37	-0.0014733438
57	0xbd5f37c5	-0.054496545
58	0xbc92bb04	-0.017911442
59	0x3cfe2582	0.031023744
60	0xbd002b6a	-0.031291403
61	0xbd2e2b0c	-0.04252152
62	0x3c853b4c	0.016263627
63	0xbbcb9a52	-0.006213465
64	0x3b86c0cd	0.004112339
65	0xbc2449ce	-0.010027362
66	0x3ac1da68	0.0014789822
67	0xbd43cf84	-0.047805324
68	0xbcfee851	-0.031116636
69	0x3cbc7095	0.023002902
70	0xbd7a35bd	-0.061086405
71	0x3bfc6813	0.0077028363
72	0xbd3e7c9d	-0.04650556
73	0x3b6db6f7	0.0036272386
74	0x3cd51981	0.026013138
75	0x3ca0d957	0.019634886
76	0xbd0d31ae	-0.034471206
77	0xbc983659	-0.018580602
78	0xbcc87c8a	-0.024473447
79	0x3cbd70a4	0.023125
80	0xbd0df511	-0.03465754
81	0x3b2920eb	0.0025806974
82	0xbd662b62	-0.056193717
83	0xba81b545	-0.0009895941
84	0xbd5ebc43	-0.05437876
85	0xbd2acfb5	-0.04170199
86	0xbd03e5ed	-0.032201696
87	0xbd22a56a	-0.039708532
88	0xbc8876de	-0.016658243
89	0xbc9a40fa	-0.018829811
90	0xbd51f68a	-0.05126051
91	0xbdbcf6f1	-0.09226788
92	0xbd522cc6	-0.05131223
93	0xbd1d65be	-0.038427107
94	0xbc4b6d33	-0.012416172
95	0x3bb93e13	0.005653152
96	0xbd52a29e	-0.051424615
97	0xbaaa8443	-0.0013009388
98	0x3aa6b2f1	0.0012718124
99	0x3ce3b2fb	0.027795305
100	0xbcd7e438	-0.02635394
101	0xbd554f82	-0.052077778
102	0xbd190371	-0.037356798
103	0x3b1343bc	0.0022470793
104	0x3ca8faa2	0.020627324
105	0x3c930e15	0.01795105
106	0xbd4b0c28	-0.04957214
107	0xbccf3a99	-0.025296496
108	0x3b9c0e05	0.0047624134
109	0xbc40f453	-0.011777001
110	0x3d237c4b	0.039913457
111	0xbc8d6dd5	-0.017264286
112	0xbd0f5e37	-0.03500196
113	0xbce1d6a0	-0.027568161
114	0x3b9eace8	0.0048423894
115	0xbd4a9f7c	-0.049468502
116	0xbc2887c7	-0.010286278
117	0x3cf32ccb	0.029684445
118	0xbd4ed822	-0.05049909
119	0xbc4830fc	-0.01221871
120	0x3c9bcfaf	0.01901993
121	0xbc90ff36	-0.017699819
122	0xbc0783db	-0.008271183
123	0xbd19c2b3	-0.037539195
124	0x3c180f82	0.009281041
125	0xbd1a586c	-0.037681982
126	0xbd186d35	-0.037213523
127	0xbd8616a4	-0.06547287
128	0xbd178a45	-0.0369971
129	0xbd20d2a4	-0.039263383
130	0xbcc29c45	-0.023756156
131	0x3be4f69f	0.0069874073
132	0xbaae2d32	-0.0013288616
133	0xbd86cd7d	-0.065821625
134	0x3b84675a	0.004040641
135	0xbd6fdb04	-0.05855848
136	0x3c259f44	0.010108773
137	0xbd0bd0b2	-0.034134574
138	0xbb78972e	-0.0037931907
139	0xbd1715c6	-0.036886
140	0xbc12a8e8	-0.008951403
141	0xbd79c342	-0.060977228
142	0x36ce81ed	6.1544038e-06
143	0xbd800067	-0.06250077
144	0xbcc6f6c2	-0.024287585
145	0xbb0bd920	-0.0021339133
146	0xbd079c02	-0.033107765
147	0xbd5b4d41	-0.053540472
148	0xbd5a5b15	-0.05330952
149	0xbb829898	-0.0039854757
150	0xbb90a5a9	-0.0044142795
151	0x3cff5d04	0.031172283
152	0xbd65ea7b	-0.05613182
153	0xbbac49b3	-0.005257809
154	0xbd0f5950	-0.034997284
155	0xbd860015	-0.065429844
156	0xbcf128be	-0.029438373
157	0x3cbed4d7	0.02329485
158	0xbd8f2e26	-0.06991224
159	0x3cec85af	0.028872339
160	0x3b12bec1	0.002239153
161	0xbd5c2058	-0.053741783
162	0x3c74d5c1	0.014943541
163	0x3c8a5ee5	0.016890952
164	0x3caa9353	0.020822203
165	0xbc39c0f4	-0.0113375075
166	0xbd6b8fae	-0.05751007
167	0xbcf5959f	-0.029978571
168	0xbd76e65e	-0.06027829
169	0xbd5a3d05	-0.05328085
170	0xbb80c614	-0.0039298628
171	0xbd885e64	-0.066586286
172	0xbcdb0db0	-0.026739925
173	0xbb713f76	-0.0036811507
174	0xbd5e5b9a	-0.054286577
175	0xbd142bf0	-0.036174715
176	0xbda919c2	-0.08256866
177	0xbd64cc1e	-0.055858724
178	0xbc93c8c5	-0.01804007
179	0xbc54f5bb	-0.01299804
180	0x3c0f221b	0.008736159
181	0xbd2dad0a	-0.04240135
182	0xbcc2ac89	-0.023763912
183	0xbd27f4b7	-0.041004863
184	0xbccb8ce1	-0.02484745
185	0x3d04ce33	0.03242321
186	0xbd3fdc30	-0.046840847
187	0xbc01e99b	-0.007929231
188	0xbd0b8d13	-0.034070086
189	0xbd0878a5	-0.03331818
190	0xbd967248	-0.07346016
191	0xbd52cef2	-0.05146689
192	0xbd378700	-0.04480648
193	0xbd325f52	-0.043547936
194	0xbd5ef996	-0.054437242
195	0xbb93a009	-0.0045051617
196	0xbd8e9e49	-0.06963784
197	0xbd710a84	-0.05884792
198	0x3cfd8312	0.030946288
199	0xbd752255	-0.059847195
200	0xbcacfd56	-0.021116894
201	0xbb5c248f	-0.0033591127
202	0xbd24f28e	-0.04027038
203	0xbd01ec9b	-0.031719785
204	0x3ced02b2	0.02893195
205	0x3ca1059a	0.019655991
206	0xbc8e8985	-0.017399559
207	0xbd12635c	-0.035739288
208	0x3b9cf273	0.0047896444
209	0x3d131da1	0.03591693
210	0xbc7863e0	-0.015160531
211	0x3ccdc304	0.025117405
212	0x3c304b25	0.010760103
213	0xbc285194	-0.010273356
214	0x3cba4aba	0.02274071
215	0xbd054cd6	-0.03254398
216	0xbd2217bf	-0.039573427
217	0x3d02aa5f	0.03190076
218	0xbc75c4ab	-0.015000503
219	0xbd0981bf	-0.033571
220	0x3d15809c	0.036499605
221	0x3c5e5f49	0.013572522
222	0x3c826999	0.015919494
223	0x3b50a90c	0.003183904
224	0x3d07ab5c	0.033122405
225	0xbc3cf54b	-0.011533092
226	0x3b386716	0.0028137616
227	0xbd6fe6a4	-0.058569565
228	0xbc9a17c5	-0.018810162
229	0xbbeed1bc	-0.007288186
230	0xbd065b32	-0.032801814
231	0x3c961c2d	0.018323982
232	0xbd932f93	-0.071868084
233	0xbd803eb9	-0.062619634
234	0xbd2871dc	-0.04112421
235	0x3b941196	0.004518698
236	0x3c8cb744	0.017177232
237	0x3c94e5fd	0.018176073
238	0xbcee8233	-0.029114818
239	0xbd4108ee	-0.047127657
240	0x3bbfdce2	0.0058551887
241	0xbce3305e	-0.027733024
242	0xbc0b1e4c	-0.00849111
243	0x3c841320	0.0161224
244	0x3d0a49a7	0.033761647
245	0xbd868b47	-0.06569534
246	0x3c9e8643	0.01935113
247	0xbd1b8453	-0.03796799
248	0x3c3fb449	0.011700698
249	0xbd42d780	-0.047568798
250	0x3c4ce7e8	0.012506463
251	0x3b209332	0.0024501798
252	0xbcefd932	-0.029278371
253	0x3d0db887	0.034599807
254	0x3caf6664	0.021411128
255	0xbc09585d	-0.008382884

body.0.conv.bias f4 [49]
0	0x3c4c0319	0.01245191
1	0x3d2c0b40	0.042002916
2	0x3d2a5705	0.041586895
3	0x3ce3c1dd	0.027802402
4	0xbcc07270	-0.023492068
5	0x3d2de05b	0.04245029
6	0xbd3c44b7	-0.04596397
7	0x3cfb7cfa	0.030699242
8	0xbc9f1b00	-0.019422054
9	0x3d3b2e1f	0.04569828
10	0xbd159001	-0.036514286
11	0x3d0b2a5a	0.033975936
12	0xbd16bb11	-0.036799494
13	0xbc8946d7	-0.016757412
14	0xbd23f551	-0.040028874
15	0xbc2ddf33	-0.010612297
16	0xbd8ab1e9	-0.06772215
17	0xbce794a6	-0.028269123
18	0xbd05ef48	-0.0326989
19	0xbcd2845f	-0.025697885
20	0x3bbd989d	0.005786015
21	0xbd533e16	-0.05157288
22	0x3affa286	0.0019503392
23	0x3bcac203	0.006187679
24	0xbd026b37	-0.03184053
25	0xbd5b98c7	-0.053612497
26	0x3c8b9618	0.017039344
27	0x3c4695c1	0.012120665
28	0x3be6ed89	0.0070473594
29	0xbbd6ee8b	-0.0065591983
30	0xbc1ee6e8	-0.009698607
31	0xbc899178	-0.016792998
32	0xbd8d1369	-0.06888468
33	0x3c5bc7a6	0.013414299
34	0x3c290c82	0.0103179235
35	0x3ce7eb37	0.028310401
36	0xbc220387	-0.009888536
37	0x3c18e9ad	0.009333056
38	0xbc86ec35	-0.016470054
39	0x3b841a4c	0.004031455
40	0xbd6e6628	-0.058202893
41	0x3d2b3788	0.041801006
42	0xbac6a03b	-0.0015153954
43	0xbc3fd448	-0.011708327
44	0xbd8316f7	-0.064008646
45	0xbc48c314	-0.0122535415
46	0xbcce07e7	-0.025150253
47	0xbd1787d8	-0.036994785
48	0xbd447367	-0.04796162

body.1.conv.weight f4 [49, 49, 3, 3]
0	0xbd0b385a	-0.033989288
1	0x3d3c61a8	0.04599157
2	0xbc6f7a0c	-0.014616501
3	0x3d4665ef	0.048437055
4	0xbccd556d	-0.025065148
5	0xbb8fe190	-0.004390903
6	0x3d0d3d06	0.034482025
7	0x3c085189	0.008320221
8	0x3d289299	0.04115543
9	0xbdbf4f60	-0.093413115
10	0xbd45c956	-0.048287712
11	0xbed9fb3d	-0.42574492
12	0xbda48c94	-0.08034626
13	0x3e1a449e	0.15065238
14	0x3cb710d6	0.022346895
15	0xbcead06a	-0.028663833
16	0x3dae2a98	0.08504218
17	0xbde1a1b4	-0.110171705
18	0x3e14eafc	0.14542764
19	0x3dd371ee	0.10324465
20	0xbd7b42c3	-0.061342966
21	0x3dfeaa94	0.12434879
22	0xbe0fff52	-0.1406224
23	0xbdb0f4aa	-0.08640416
24	0x3d96b612	0.07358946
25	0xbdb0991d	-0.08622954
26	0xbdd10ffc	-0.10208127
27	0xbd1b5e20	-0.03793156
28	0x3d6290d3	0.055313896
29	0x3e06d155	0.13165791
30	0xbdb97eeb	-0.09057411
31	0x3dcbfcb3	0.09960308
32	0x3e372830	0.17886424
33	0x3d08f351	0.03343517
34	0x3db49079	0.088166185
35	0x3cb9ad0c	0.022665523
36	0x3e2ea20f	0.17054008
37	0x3e5975f5	0.21236403
38	0x3d910bf8	0.07082361
39	0xbd7e295c	-0.062051162
40	0xbc353368	-0.0110596195
41	0xbd76fe00	-0.060300827
42	0xbd874320	-0.066046
43	0xbcee4334	-0.02908478
44	0x3aeaec6d	0.0017923244
45	0x3d9b0c10	0.0757066
46	0x3d458da3	0.04823078
47	0xbda73d19	-0.0816595
48	0x3e37bff4	0.17944318
49	0xbdb06f8b	-0.08615025
50	0xbd89b666	-0.06724243
51	0x3d4b6b29	0.049662743
52	0xbceb2a19	-0.028706597
53	0xbdb33e8f	-0.087521665
54	0xbd5e3604	-0.054250732
55	0x3b874aa5	0.0041287714
56	0xbca2c357	-0.019868536
57	0xbcdbd708	-0.026835933
58	0xbd846afb	-0.064657174
59	0x3c9f380e	0.019435909
60	0xbcd2e58f	-0.025744228
61	0xbc9756dc	-0.018474035
62	0xbd3b471d	-0.045722116
63	0x3dad078a	0.084487036
64	0xbd99e483	-0.07514288
65	0xbe397e0b	-0.18114488
66	0xbd830ad5	-0.063985504
67	0xbdf36398	-0.118842304
68	0x3cea4de5	0.028601596
69	0x3c6ea315	0.014565249
70	0xbe054402	-0.13014224
71	0xbdea990d	-0.11454973
72	0x39ba8628	0.0003557664
73	0xbd17230a	-0.03689865
74	0x3bab108a	0.0052204775
75	0xbd07fbd8	-0.03319916
76	0xbc979ac1	-0.01850641
77	0x3b404083	0.0029335327
78	0xbda48af9	-0.080343194
79	0xbd306b57	-0.043071117
80	0xbdcae469	-0.09906847
81	0x3d4da54d	0.05020647
82	0xbd5a5bff	-0.05331039
83	0x3d5c0ead	0.053724933
84	0xbd215f7f	-0.039397713
85	0xbcb63039	-0.022239791
86	0xbcdaab16	-0.026692908
87	0xbccb3744	-0.024806626
88	0x3c9b2124	0.018936701
89	0x3d82e9c9	0.06392247
90	0xbcf3cf4d	-0.029761935
91	0xbd23d8db	-0.04000173
92	0x3cdf7790	0.027278692
93	0xbd030809	-0.031990085
94	0xbce670de	-0.028129991
95	0x3ccd464d	0.025057936
96	0xbd355c8d	-0.044277716
97	0x3d05b9ff	0.032648083
98	0x3c1eb11a	0.009685779
99	0xbcf19eda	-0.029494692
100	0xbb4bfe2f	-0.0031126847
101	0xbd2de8ba	-0.042458273
102	0x3ba48653	0.0050208955
103	0xbab371aa	-0.0013690491
104	0x3c3a936f	0.01138769
105	0xbd89f95d	-0.067370154
106	0x3d4d88c5	0.05017926
107	0xbd069284	-0.032854572
108	0xbd07e8e3	-0.033181082
109	0xbd2f5ee0	-0.04281509
110	0xbd36b54b	-0.04460649
111	0x3cfb59ba	0.030682433
112	0xbd015bcf	-0.031581696
113	0x3c14133f	0.009037792
114	0x3c72f947	0.01482994
115	0x3cc8a9e5	0.024495075
116	0x3cec9a38	0.028882131
117	0xbaee6f23	-0.001819108
118	0x3cdd0fc4	0.026985057
119	0xbce3dc67	-0.027815057
120	0xbae532ff	-0.0017486511
121	0x3ccc5b4f	0.024945883
122	0x3ad017dd	0.0015876252
123	0xbd4299c9	-0.047509942
124	0x3b474a50	0.0030409284
125	0xbcf13a6e	-0.029446807
126	0x3ceb02a8	0.02868779
127	0xbd818801	-0.06324769
128	0xbe005616	-0.12532839
129	0xbcdd942e	-0.027048197
130	0x3d47ee49	0.04881123
131	0x3d672c24	0.05643858
132	0xbd86b078	-0.065766275
133	0x3c5ff9e9	0.013670423
134	0xbd1d6786	-0.038428806
135	0x3c7aa5e8	0.015298344
136	0xb8eabfa6	-0.00011193687
137	0x3cc7e995	0.024403373
138	0xbcdedd21	-0.027205052
139	0x3dd4ebbb	0.103965245
140	0x3b779663	0.0037778846
141	0x3acb5558	0.0015513105
142	0xbbafd3e6	-0.0053658364
143	0xbc01b9fe	-0.007917879
144	0xbcf36a62	-0.029713813
145	0xbc0c8710	-0.008577123
146	0xbced5038	-0.028968915
147	0x3c8014ba	0.015634883
148	0x3caaff95	0.020873824
149	0x3d2daab4	0.042399123
150	0xbcaf1e49	-0.021376746
151	0x3d197230	0.037462413
152	0x3ca2c053	0.019867098
153	0xbb871b9e	-0.0041231653
154	0xbdabe3b5	-0.08393041
155	0x3c42ba09	0.011885175
156	0xbd99676d	-0.0749043
157	0xbdcca0f0	-0.09991634
158	0x3dab0052	0.083496705
159	0x3d8a8562	0.06763722
160	0x3b2cd671	0.0026372934
161	0x3d0830cb	0.033249658
162	0xbccd4778	-0.025058493
163	0xbd1b3d28	-0.03790012
164	0x3c0eea7c	0.008722898
165	0x3c02f4b0	0.007992908
166	0x3c0dda1e	0.00865796
167	0x3b97092c	0.0046092477
168	0xbba528f0	-0.0050402805
169	0xbd0963e3	-0.033542525
170	0x3cea28c7	0.028583897
171	0xbcdda412	-0.027055774
172	0x3dd25aed	0.10271249
173	0xbc9a6782	-0.018848184
174	0xbd809668	-0.06278688
175	0x3e1bc899	0.1521324
176	0xbeb89244	-0.36049092
177	0x3dadad37	0.08480304
178	0xbc246747	-0.010034389
179	0xbeb15861	-0.3463774
180	0xbd477cf4	-0.04870315
181	0x3c798d11	0.015231387
182	0x3d10794b	0.035271924
183	0xbd35c07b	-0.044373017
184	0x3caa64da	0.020800043
185	0xbd09c709	-0.03363708
186	0xbc6af7aa	-0.014341274
187	0xbd48a145	-0.048981924
188	0xbd52db6e	-0.051478796
189	0xbe7e61fb	-0.24842064
190	0xbd78dad8	-0.06075558
191	0x3d68ace0	0.05680549
192	0xbe007b93	-0.1254714
193	0xbd72b4c3	-0.05925442
194	0x3d99c274	0.07507792
195	0xbcfb8933	-0.03070507
196	0xbd51830d	-0.05115037
197	0xbd99848a	-0.07495983
198	0xbd32d863	-0.043663394
199	0xbcefe599	-0.029284285
200	0xbcbd44a7	-0.023104025
201	0xbd941961	-0.07231403
202	0x3d6c631d	0.05771171
203	0x3daf3a84	0.08556083
204	0x3bad03c6	0.005279991
205	0x3da4dc5c	0.08049843
206	0x3cc56a86	0.024098646
207	0xbd477cc1	-0.04870296
208	0xbe000a0b	-0.12503831
209	0xbc47d59f	-0.012196927
210	0x3baddf55	0.0053061643
211	0x3e093e8c	0.13402766
212	0x3d22aaaf	0.039713558
213	0xbc01b29e	-0.007916121
214	0x3d5c9aa1	0.053858403
215	0x3cc58a50	0.024113804
216	0xbaeaccfb	-0.0017913872
217	0xbcc6f4b2	-0.024286602
218	0x3d522479	0.051304314
219	0xbd27a4c1	-0.040928606
220	0xbd73a960	-0.0594877
221	0x3d6b25dc	0.057409152
222	0x3cc4519a	0.023964692
223	0x3ab12527	0.00135151
224	0x3ce89daf	0.028395502
225	0xbc401993	-0.011724847
226	0xbc2e12c7	-0.010624594
227	0x3a55b73d	0.000815261
228	0x3961e000	0.00021541119
229	0x3d15d460	0.03657949
230	0xbd2a978b	-0.04164843
231	0xbbd32d6e	-0.0064446246
232	0xbbfae928	-0.007657189
233	0x3bc464c3	0.005993457
234	0xbcf23df0	-0.02957055
235	0xbc633bef	-0.01386927
236	0x3c812a14	0.015767135
237	0x3c5dc0d3	0.013534742
238	0x3d9b7798	0.0759117
239	0x3c45b567	0.0120671755
240	0x3d0c3f89	0.03424028
241	0xbb449fc2	-0.003000245
242	0xbd1ca36d	-0.038241792
243	0xbd006ef0	-0.0313558
244	0xbb9e4355	-0.004829804
245	0x3d8c25b4	0.06843129
246	0x3ae8799a	0.0017736435
247	0x3e5674ae	0.20942947
248	0x3e2ab42f	0.16670297
249	0x3c691c7b	0.014227982
250	0x3dd5efa2	0.10446097
251	0x3c54eb23	0.012995514
252	0x3c3fb3a6	0.011700546
253	0x3d1d376f	0.038382944
254	0xbc800a7a	-0.015629996
255	0x3d5af29f	0.053454038

body.1.conv.bias f4 [49]
0	0xbd3be196	-0.045869432
1	0xb98bd3a0	-0.0002666982
2	0xbca3a7f6	-0.019977551
3	0x3c2a8f1e	0.010410098
4	0x3afa5a60	0.001910042
5	0x3d0e4216	0.034730993
6	0xbc6e190b	-0.014532338
7	0x3c8b1151	0.01697603
8	0xbd8f56d3	-0.06998982
9	0xbcabb5e2	-0.020960752
10	0xbbbf5ff1	-0.0058402945
11	0xbc0d9941	-0.008642496
12	0x3c10b01c	0.00883105
13	0x3b5ff609	0.0034173748
14	0xbc639129	-0.013889589
15	0xbd1d6eef	-0.038435873
16	0xbd749fc1	-0.059722666
17	0x3b4a0710	0.0030826963
18	0xbd09fe07	-0.033689525
19	0xbd962d89	-0.07332904
20	0xbcbf8f41	-0.023383738
21	0x3ceaaad6	0.028645914
22	0xbb188e5a	-0.0023278208
23	0xbc9af1e8	-0.018914178
24	0xbd8de2a5	-0.06927995
25	0xbceb39fb	-0.02871417
26	0xbc1ef46d	-0.00970183
27	0xbc60883d	-0.013704357
28	0x3c64cecd	0.013965321
29	0x3be15d54	0.0068775807
30	0xbb7b67ab	-0.0038361351
31	0xbd3c39cd	-0.04595356
32	0xbcef2bfc	-0.029195778
33	0xbbb57051	-0.005537071
34	0xbd63c49c	-0.055607423
35	0xbda2f954	-0.07957712
36	0xbca34542	-0.019930486
37	0xbd444058	-0.047912925
38	0xbc1cc1f7	-0.009567729
39	0xbcd0d48a	-0.025491972
40	0x3af76719	0.001887533
41	0xba92c1f8	-0.0011196723
42	0x3cc3c6cb	0.023898503
43	0xbc5d80c2	-0.013519468
44	0xbc4678bf	-0.012113749
45	0x3c8623b3	0.016374445
46	0x3c896274	0.016770579
47	0x3c2827d7	0.010263405
48	0xbd88f4d5	-0.06687323

body.2.conv.weight f4 [49, 49, 3, 3]
0	0x3d5f69ee	0.05454438
1	0xbe0a3db3	-0.13500099
2	0xbe66b478	-0.22529781
3	0xbe05aa30	-0.13053203
4	0xbdd98c88	-0.10622507
5	0x3df5fafb	0.12010761
6	0xbc809183	-0.015694385
7	0x3d867750	0.06565726
8	0xbda6587d	-0.081223466
9	0xbccf3897	-0.025295539
10	0xbc8675da	-0.016413618
11	0x3d0e355e	0.034718864
12	0x3d32bff3	0.04364009
13	0xbd4c59fc	-0.049890503
14	0x3d47321c	0.048631772
15	0x3ccdadb2	0.025107238
16	0xbb5ad048	-0.0033388305
17	0x3d449d4e	0.04800158
18	0x3cc685cd	0.024233723
19	0xbcb2d16a	-0.021828372
20	0x3cc7e96d	0.024403298
21	0xbced711d	-0.0289846
22	0x3c0d166e	0.008611305
23	0x3c67d23d	0.014149246
24	0xbc00b361	-0.007855267
25	0xbc12a8fe	-0.008951424
26	0xbd28961b	-0.041158777
27	0x3c8ea44b	0.017412325
28	0x3cb4b705	0.022059927
29	0xbe2cc823	-0.16873221
30	0x3a46d1cc	0.0007584363
31	0x3cc4fd27	0.024046494
32	0x3ce47427	0.027887417
33	0xb980f513	-0.00024596657
34	0xbd92838b	-0.07153996
35	0xbc44c132	-0.012008952
36	0xbcb7f655	-0.022456327
37	0x3d996018	0.074890316
38	0x3de11b27	0.10991507
39	0x3e49afce	0.1969597
40	0x3e34033f	0.17579363
41	0x3dfba04b	0.12286433
42	0x3dc855d3	0.09781995
43	0x3c02a31d	0.00797346
44	0x3e2a0d82	0.16606715
45	0x3e0ab822	0.13546804
46	0xbcced3af	-0.025247423
47	0xbd6f3e14	-0.05840881
48	0x3d6b8ea7	0.05750909
49	0xbce796ec	-0.028270207
50	0x3c7ddcb1	0.015494511
51	0x3c712984	0.014719371
52	0x3d430ef0	0.047621667
53	0x3cffab82	0.031209711
54	0x3dd4f3a4	0.10398033
55	0xbc96b1e1	-0.018395366
56	0xbd34c801	-0.04413605
57	0x3d2151b1	0.039384548
58	0xbda6e9da	-0.081500724
59	0xbd1a7332	-0.037707515
60	0xbda08d1f	-0.07839417
61	0x3b4522d1	0.0030080567
62	0x3d47149d	0.048603643
63	0xbbb2f1e7	-0.005460966
64	0x3d935c6e	0.07195364
65	0xbb9df9fb	-0.0048210598
66	0x3d1bfbd8	0.038081974
67	0xbcbd0f88	-0.023078695
68	0xbc61086c	-0.013734918
69	0x3d44f0e1	0.048081283
70	0x3dc1833e	0.094488606
71	0xbc16596b	-0.009176592
72	0x3cddf325	0.02709348
73	0xbc113486	-0.00886262
74	0xbcbd726b	-0.023125848
75	0x3d05ecb7	0.032696452
76	0xbce6f2d6	-0.028191965
77	0xbcad28f7	-0.021137698
78	0xbd174f43	-0.036940824
79	0x3cb66b2b	0.022267899
80	0xbc95c3fa	-0.018281925
81	0xbe21fce1	-0.15819122
82	0xbd994c8a	-0.07485302
83	0xbd6c8b5e	-0.0577501
84	0x3e3ae2e5	0.18250616
85	0x3d0f3b53	0.034968685
86	0x3e306756	0.1722692
87	0x3d7bf5be	0.061513655
88	0x3dadaed7	0.08480614
89	0xbd5030b1	-0.050827686
90	0xbae4c2a1	-0.0017453023
91	0xba07d30d	-0.00051812903
92	0xbb19d88c	-0.002347502
93	0xbcad941f	-0.021188794
94	0x3b526314	0.0032102512
95	0x3df8424d	0.12122021
96	0xbc5f9f7a	-0.013648862
97	0xbb890202	-0.0041811476
98	0xbd32ae27	-0.043623116
99	0xbc9f2ff4	-0.019432046
100	0x3caba536	0.020952802
101	0x3ce4fbd4	0.027952112
102	0x3ca64498	0.02029638
103	0xbba734dc	-0.005102737
104	0xbcd834e1	-0.026392402
105	0x3d020ad2	0.0317486
106	0x3d1989f2	0.03748507
107	0x3b5c14ec	0.0033581806
108	0x3d8ae0ac	0.06781134
109	0x3bf958db	0.0076094694
110	0xbda4a7bf	-0.080398075
111	0xbcaf4a3e	-0.021397706
112	0xbd927ce4	-0.07152727
113	0xbcb2dfe3	-0.021835273
114	0x3d13e426	0.03610625
115	0xbcb726f5	-0.022357443
116	0xbce8a5be	-0.028399345
117	0xbe051df5	-0.12999709
118	0x3e135c65	0.14390714
119	0xbcaf5e50	-0.021407276
120	0x3e980957	0.29694626
121	0x3d8e5b11	0.06950963
122	0xbe23dfc5	-0.1600333
123	0xbbdfcb55	-0.006829659
124	0xbda3a7cb	-0.07990988
125	0x3d9eb2c5	0.07748941
126	0x3b8a01fc	0.0042116623
127	0xbdfd7c97	-0.12377279
128	0xbd1406c6	-0.036139272
129	0x3c017032	0.007900285
130	0x3c9d3058	0.019188091
131	0x3e3f75cd	0.18697281
132	0xbc831cd1	-0.016004952
133	0x3c63fddf	0.013915508
134	0x3b820ba2	0.003968672
135	0x3cc75605	0.02433301
136	0xbdf0d0be	-0.117585644
137	0xbdce1afd	-0.10063741
138	0xbd58866e	-0.052862577
139	0xbe880e3b	-0.26573357
140	0xbcd784f5	-0.026308516
141	0xbc7138b6	-0.014722994
142	0x3d4e88de	0.050423495
143	0x3c30f453	0.010800439
144	0x3d8e4211	0.06946195
145	0xbcc97a79	-0.024594532
146	0xbe26c64d	-0.16286583
147	0xbd31d7e9	-0.0434188
148	0x3db03cfb	0.08605381
149	0x3e8335c0	0.25626945
150	0xbd476bf5	-0.04868694
151	0x3d3f5f18	0.046721548
152	0x3e04eb3b	0.12980358
153	0xbc160ceb	-0.009158353
154	0xbe6bec0d	-0.23039265
155	0xbe8c7d23	-0.27439222
156	0x3ad42ab1	0.001618704
157	0xbcfe6e19	-0.031058358
158	0x3ec3305c	0.38122833
159	0xbe6f4a28	-0.23368132
160	0xbeb7f490	-0.35928774
161	0xbe313f60	-0.17309332
162	0x3e1aeb9b	0.15128939
163	0xbd445175	-0.047929246
164	0x3d7fae57	0.062422123
165	0xbdcac13e	-0.09900139
166	0xbe2ab972	-0.16672304
167	0x3d84f774	0.064925104
168	0xbc3d5c9a	-0.011557722
169	0x3d4516c7	0.048117425
170	0x3d051655	0.032492
171	0xbc40c851	-0.011766509
172	0xbe3fcb00	-0.18729782
173	0x3d2a38b7	0.041557994
174	0x3bffb837	0.0078039425
175	0x3e1e4c46	0.15458784
176	0xba6f35b2	-0.00091251277
177	0xbdd19a5e	-0.10234521
178	0xbe48c4fe	-0.19606397
179	0x3cd70b28	0.026250437
180	0x3e8df6e6	0.2772743
181	0x3e733ee1	0.23754455
182	0x3c365380	0.011128306
183	0x3d9302db	0.07178279
184	0xbda952d6	-0.08267753
185	0xbe3b6dd8	-0.18303621
186	0xbca8300c	-0.020530723
187	0xbdc003e3	-0.09375741
188	0xbd9fbc0f	-0.07799541
189	0x3eebfaed	0.4608988
190	0xbcfa82f9	-0.03058003
191	0xbcfb092d	-0.030644024
192	0xbcd98dea	-0.026556928
193	0x3d9599e1	0.07304741
194	0x3e3c8771	0.18411042
195	0x3d9de9a6	0.077105805
196	0xbc9e1898	-0.019298837
197	0x3cf5fcd6	0.030027788
198	0x3db18156	0.08667247
199	0xbb1c63f6	-0.0023863292
200	0xbc96dd56	-0.018416088
201	0x3d515bf2	0.051113077
202	0xbd5879b5	-0.052850444
203	0xbc0bc79b	-0.008531476
204	0xbd51192d	-0.0510494
205	0xbd325b9c	-0.043544397
206	0xbd0568bb	-0.032570582
207	0xbd9b4261	-0.0758102
208	0xbb455b84	-0.0030114362
209	0xbb3402b4	-0.0027467432
210	0x3d427e30	0.047483623
211	0xbcbc95a5	-0.023020575
212	0xbcd7a641	-0.026324393
213	0xbce8d9bb	-0.028424134
214	0x3a9763c9	0.0011550124
215	0xbd2cfe6a	-0.042234816
216	0xbc405830	-0.011739776
217	0x3d3f4501	0.046696667
218	0x3d1b5ed1	0.03793222
219	0xbd246733	-0.04013748
220	0x3ccf6a7f	0.025319336
221	0xbc4d7cb4	-0.012541939
222	0xbd2843de	-0.04108035
223	0xbae2e61e	-0.0017311012
224	0xbcdae0df	-0.026718555
225	0xbe88c30e	-0.26711315
226	0x3cd829d6	0.026387136
227	0xbe36c1a0	-0.178473
228	0xbd319677	-0.043356385
229	0x3e043c4a	0.12913623
230	0xbdd00463	-0.10157087
231	0x3cecdc23	0.028913563
232	0xbd748029	-0.059692536
233	0x3b1af371	0.0023643638
234	0x3be6b8c3	0.0070410683
235	0xbddbe964	-0.10737875
236	0xbde28b3d	-0.11061714
237	0x3d43ee1a	0.047834493
238	0xbd78e413	-0.060764384
239	0xbd4931e2	-0.049119838
240	0x3ced4992	0.028965745
241	0x3ca685a4	0.020327397
242	0x3db8ee00	0.0902977
243	0x3df87b52	0.121328965
244	0x3d8a3fe1	0.06750465
245	0x3d51cab9	0.051218722
246	0xbe042244	-0.12903696
247	0xbe9fc17a	-0.31202298
248	0x3db3331c	0.08749983
249	0x3d685204	0.05671884
250	0xbc9b6cd5	-0.018972794
251	0xbe0c30f0	-0.13690543
252	0xbe061e27	-0.1309744
253	0x3e24369d	0.16036458
254	0x3e8287d7	0.25494263
255	0x3e6afb4e	0.22947428

body.2.conv.bias f4 [49]
0	0xbd210a3f	-0.039316412
1	0x3c2c40a2	0.010513457
2	0xbd8c8b39	-0.06862492
3	0xbcadec9c	-0.021230988
4	0xbbb8f159	-0.0056440053
5	0xbc80de28	-0.015730932
6	0x3cd24dc8	0.025671855
7	0xbc322cdd	-0.010874954
8	0xbd7b8f50	-0.06141597
9	0xbd6a33be	-0.05717825
10	0x3acab37d	0.0015464869
11	0x3bb1b62d	0.0054233284
12	0xbd13ca59	-0.036081646
13	0xbb55d3e7	-0.0032627524
14	0x3c23a833	0.009988832
15	0xbd7fdb66	-0.062465094
16	0xbc0c93ca	-0.0085801575
17	0xbd49354f	-0.049123105
18	0xbc2f38dc	-0.010694709
19	0xbbddcd27	-0.006768841
20	0xbbdfed6b	-0.0068337223
21	0xbc7c0d9f	-0.015384107
22	0xbcd9f150	-0.026604325
23	0xbce548da	-0.02798884
24	0xbd4ddaec	-0.05025761
25	0x3cb699b7	0.022290094
26	0xbc8004cd	-0.01562729
27	0xb95ab3f4	-0.00020857138
28	0xbc9b3066	-0.018943977
29	0xbd07697b	-0.03305958
30	0x3c470cdf	0.012149065
31	0xbd9bfd97	-0.07616728
32	0xbd1cd4f1	-0.038289014
33	0x3ce52d3b	0.02797567
34	0xbb5a797f	-0.0033336577
35	0xbca8a2ee	-0.020585503
36	0xba893f89	-0.0010471205
37	0xbc410156	-0.011780104
38	0xbc5eccc8	-0.013598628
39	0xbd7bb7e4	-0.06145467
40	0x3c4a1d61	0.012336106
41	0xbda4ddb3	-0.08050098
42	0xbc5e2ba0	-0.013560206
43	0xbc9254dd	-0.017862732
44	0xbd2e7810	-0.04259497
45	0x3bcda8cd	0.006276226
46	0xbc589d3b	-0.01322108
47	0x3b8b2cf8	0.004247304
48	0x3ab8d84d	0.0014102549

body.3.conv.weight f4 [48, 49, 3, 3]
0	0xbbb62196	-0.005558203
1	0xbd1fc737	-0.039008345
2	0x3d0d5fb2	0.03451509
3	0x3ca8abdc	0.020589761
4	0xbc15c974	-0.009142268
5	0xbced1373	-0.028939938
6	0xbc792d84	-0.015208606
7	0xbd2e69d2	-0.042581387
8	0xbc9e2e29	-0.01930912
9	0xbceca5ac	-0.028887592
10	0x3cc988fc	0.024601452
11	0xbd467404	-0.048450485
12	0xbca24af8	-0.019811139
13	0xbcf6f2f1	-0.03014514
14	0xbbfd20b5	-0.0077248462
15	0xbbf0868c	-0.007340258
16	0x3ce1c22a	0.027558405
17	0x3c5fff71	0.013671742
18	0x3c830ccc	0.015997313
19	0x3ca8de3d	0.020613784
20	0xbc57e24f	-0.013176515
21	0xbcd3eae4	-0.02586884
22	0xbb9ea6c8	-0.004841659
23	0x3cb468ee	0.02202269
24	0xbd2aca6a	-0.041696943
25	0xbbfeb31e	-0.0077728173
26	0xbcc57a17	-0.024106069
27	0xbc248d6d	-0.010043484
28	0xbcb809ce	-0.022465613
29	0x3d3cd533	0.04610176
30	0x3cab92d6	0.02094404
31	0x3cf30194	0.029663838
32	0x3c255332	0.010090636
33	0x3d3ffe13	0.046873163
34	0x3cbe8a27	0.023259236
35	0x3cc0f64c	0.023554944
36	0xbc368324	-0.011139665
37	0xbd0d70e5	-0.034531493
38	0xbd3c5053	-0.04597504
39	0xbce1a739	-0.027545558
40	0x3cc4f25e	0.02404135
41	0xbd0fcf45	-0.035109777
42	0xbc19814f	-0.0093692085
43	0xbd1b85e9	-0.037969504
44	0xbd15901d	-0.03651439
45	0x3d03cb6d	0.032176424
46	0x3ca88766	0.020572376
47	0xbc71c61d	-0.014756707
48	0x3d1c5031	0.038162414
49	0xbd086e1b	-0.03330813
50	0x3ba6b2c0	0.0050872266
51	0x3cbba8a5	0.022907564
52	0x3c4fb032	0.012676286
53	0x3bc308b0	0.0059519634
54	0xbd1382a6	-0.036013268
55	0x3cdc40c1	0.026886346
56	0x3cb679a1	0.022274794
57	0xbcab1e6b	-0.020888528
58	0xbb7f1bea	-0.003892655
59	0x3d3c864b	0.04602651
60	0x3c7c2262	0.015389057
61	0x3c1d39ca	0.0095962975
62	0x3cd167ed	0.025562251
63	0xbd4989e6	-0.049203776
64	0x3cc65a8a	0.024213094
65	0x39836536	0.00025061675
66	0x3d382ece	0.04496651
67	0xbd1edb53	-0.038783383
68	0xbcd3f279	-0.025872456
69	0x3be851d2	0.007089832
70	0xbcd2c7c8	-0.025730029
71	0x3d37010a	0.044678725
72	0x3d0921ac	0.033479378
73	0x3d233d92	0.03985364
74	0x3cc152a8	0.023598984
75	0xbc1e551f	-0.009663849
76	0xbd08a1f2	-0.033357568
77	0xbc9b1631	-0.01893148
78	0xbcdc8d00	-0.026922703
79	0x3c514b56	0.012774309
80	0x3d0b8571	0.034062807
81	0xbcc8b089	-0.024498241
82	0x3c8a2f16	0.016868155
83	0x3d256b1f	0.04038536
84	0xbc9066b1	-0.017627092
85	0xbcfd52b7	-0.03092323
86	0x3c75a7b1	0.014993594
87	0x3d04513f	0.032304045
88	0x3cc360bd	0.02384984
89	0xbcc56fe5	-0.024101207
90	0x3bf70718	0.0075386874
91	0xbd39f03b	-0.045395117
92	0xbcfc8e44	-0.030829556
93	0xbc10a116	-0.008827468
94	0x3d099146	0.03358581
95	0xbd08268d	-0.03323989
96	0xbd33924f	-0.043840703
97	0x3cfe2ecc	0.031028174
98	0xbd14a188	-0.03628686
99	0x3bc87caa	0.0061183767
100	0xbcbc077e	-0.022952791
101	0x3c8559d3	0.016278183
102	0xbc9d121a	-0.01917367
103	0xbcbd0698	-0.023074433
104	0x3d102e25	0.035200257
105	0xbc2ced0a	-0.010554561
106	0x3d27e129	0.040986214
107	0xbd1cf903	-0.038323414
108	0xbcdf526d	-0.027260983
109	0x3cb9c6a5	0.022677729
110	0x3c5a56b1	0.013326333
111	0x3c00a8a0	0.007852703
112	0xbc537f11	-0.012908713
113	0xbcf34855	-0.029697577
114	0xbd5487ad	-0.051887203
115	0xbc6d8292	-0.014496462
116	0x3ba354b5	0.004984463
117	0x3d03387a	0.032036282
118	0x3ceafccc	0.028684996
119	0x3c8850f1	0.016640158
120	0x3cd2af24	0.02571828
121	0xbc07195c	-0.008245792
122	0xbd38c9a9	-0.045114193
123	0xbc74633d	-0.014916238
124	0xbd1ed67c	-0.038778767
125	0xbd080735	-0.03321
126	0x3bc99b49	0.0061525446
127	0xbaab94f4	-0.0013090656
128	0x3d191deb	0.037382048
129	0xbccd49eb	-0.02505966
130	0x3d3da8f6	0.04630371
131	0x3cc8ab1f	0.02449566
132	0x3d3502e3	0.044192206
133	0x3ce22028	0.027603224
134	0x3cbd4949	0.023106234
135	0xbd539793	-0.051658224
136	0xbd30bec0	-0.043150663
137	0x3c2a162d	0.010381264
138	0x3b62e631	0.0034622068
139	0xbd4d8e63	-0.05018462
140	0x3cb64aa3	0.022252386
141	0xbbfe4e7e	-0.007760822
142	0x3cdc96d9	0.026927399
143	0xba95337a	-0.0011383139
144	0xbbddd953	-0.006770292
145	0xbb004bb6	-0.0019576377
146	0x3b3d29d2	0.0028864038
147	0x3cae420c	0.021271728
148	0xbd5eca04	-0.054391876
149	0xbbebfa92	-0.007201501
150	0xbd149a7e	-0.036280148
151	0xbd3e82b0	-0.046511352
152	0xbd21dfc8	-0.039520055
153	0xbbb57986	-0.0055381684
154	0xbc3bdc76	-0.011466136
155	0x3ae4d3ca	0.0017458138
156	0x3c12fb2b	0.008971016
157	0x3d1ac7e4	0.037788287
158	0x3d0410ba	0.032242514
159	0xbbc5a52f	-0.0060316543
160	0xbbc7af28	-0.0060938783
161	0xbc9523a4	-0.018205471
162	0xbc449ab2	-0.011999773
163	0xba0b03d2	-0.00053029985
164	0xbccd2142	-0.025040273
165	0xbd284e3e	-0.041090243
166	0x3c52d28d	0.012867582
167	0x3b299714	0.0025877403
168	0xbc881b40	-0.016614556
169	0xbba37352	-0.0049881125
170	0xbd2533fd	-0.040332783
171	0xbd619d4a	-0.055081643
172	0xbc8cd16e	-0.017189708
173	0xbc217284	-0.009853963
174	0xbd18f473	-0.0373425
175	0x395356b2	0.00020154825
176	0x3cd0666f	0.02543947
177	0xbc34b76f	-0.011030062
178	0xbb9b0da0	-0.004731849
179	0x3ce583bf	0.028016923
180	0x3cb2011c	0.021729045
181	0x3cd30078	0.02575706
182	0xbc444a22	-0.011980565
183	0x3ba86572	0.0051390463
184	0xbc0b704b	-0.008510659
185	0xbd0862b7	-0.033297267
186	0xbd40b188	-0.047044307
187	0xbc981386	-0.018563997
188	0xbb2744af	-0.0025523116
189	0x3ccd3f6e	0.02505466
190	0xbc4809e6	-0.012209391
191	0xbcd54e5b	-0.02603834
192	0xbccd562e	-0.025065508
193	0x3bb968ff	0.0056582685
194	0xbcec55ae	-0.028849449
195	0xbc7b6e2f	-0.015346094
196	0x3bc3e487	0.0059781703
197	0x3c88e5c3	0.016711121
198	0xbc602f00	-0.013683081
199	0xbc822898	-0.015888497
200	0xbcb6a0b9	-0.022293435
201	0xbc8e9e46	-0.017409455
202	0xbcb94c9f	-0.022619544
203	0x3d2e1ca5	0.042507786
204	0xbca8de00	-0.02061367
205	0x3d02e6f6	0.031958543
206	0xbc24f5ce	-0.01006837
207	0xbced29de	-0.028950628
208	0x3c85aa59	0.01631658
209	0xbc6fb7ae	-0.014631195
210	0xbd33eda0	-0.04392779
211	0xbca97d11	-0.02068952
212	0x3c553621	0.013013394
213	0xbc27cce6	-0.010241723
214	0xbb3788a0	-0.0028005019
215	0xbd015633	-0.031576347
216	0x3c7b11bd	0.015324053
217	0xbc7783c3	-0.015107098
218	0x3b8a560c	0.0042216834
219	0x3a311a49	0.0006755931
220	0xbd216654	-0.03940423
221	0x3ba26949	0.0049563986
222	0xbce51ad6	-0.027966898
223	0xbd338e0b	-0.043836635
224	0x3c1622cf	0.009163572
225	0xbc0682d9	-0.008209907
226	0xbc72c2ca	-0.014816949
227	0xbc5e5509	-0.013570079
228	0x3ca30b29	0.019902783
229	0x3ce60ae7	0.02808137
230	0xbd1d19ce	-0.038354687
231	0xbca9b9ea	-0.020718534
232	0xbca65f8a	-0.020309228
233	0x3d037156	0.032090507
234	0x3cb70314	0.022340335
235	0x3d2702bd	0.040774096
236	0xbb8e6919	-0.0043460247
237	0xbccb6390	-0.024827749
238	0xbd306e01	-0.043073658
239	0xbcbd7ebd	-0.023131723
240	0x3cbe0931	0.023197742
241	0x3c113de2	0.008864852
242	0x3bf116ab	0.0073574386
243	0x3c966127	0.018356873
244	0x3ca0e56f	0.019640652
245	0xbcc2c344	-0.02377475
246	0xbb1a641c	-0.0023558205
247	0x3cca9748	0.02473034
248	0xbcf2651d	-0.02958923
249	0xbd158037	-0.03649923
250	0xbcd869f8	-0.026417717
251	0x3c5f8e32	0.013644742
252	0x3d1f754e	0.03893023
253	0xbbc5d0e3	-0.006036864
254	0xbbd63d49	-0.0065380675
255	0x3d0bc175	0.034120042

body.3.conv.bias f4 [48]
0	0xbd64c3d2	-0.05585081
1	0xbb7dfd0c	-0.0038755564
2	0xbd14748e	-0.036243968
3	0xbd618d14	-0.055066183
4	0xbd3ccfe5	-0.0460967
5	0xbc736ac8	-0.014857002
6	0x3b9086bf	0.0044105942
7	0xbcdf74de	-0.027277406
8	0x3aa6a3d9	0.0012713625
9	0xbcf2a7f4	-0.029621102
10	0x3ad19db8	0.0015992438
11	0xbbf76340	-0.0075496733
12	0xbc8e3d6e	-0.017363276
13	0xbcb369d3	-0.021901047
14	0x3b9d39b4	0.0047981385
15	0xbb259cba	-0.0025270418
16	0x3c4bb018	0.012432121
17	0xbbd1fec6	-0.006408545
18	0xbc87ed2a	-0.01659258
19	0xbd45da51	-0.048303906
20	0xbb308845	-0.0026936692
21	0xbd3c8b96	-0.046031557
22	0xbc978295	-0.018494884
23	0xbd436537	-0.047703948
24	0x393916e9	0.0001765151
25	0xbc182a06	-0.009287363
26	0xbc654468	-0.01399336
27	0xbc9fed8b	-0.019522449
28	0xbcef1557	-0.02918498
29	0xbb5dac4b	-0.0033824618
30	0x3b82451e	0.0039755246
31	0x3ad9b96b	0.0016611045
32	0xbbfb541b	-0.0076699383
33	0xbce457de	-0.02787393
34	0xbd1b52c0	-0.037920713
35	0xbc3b3532	-0.011426257
36	0x3bd5137e	0.006502568
37	0xbd06d220	-0.032915235
38	0xbd87e052	-0.066345826
39	0xbb7a6383	-0.0038206286
40	0xbb30b3a7	-0.002696255
41	0xbd0d35ef	-0.034475263
42	0x39a5cc3c	0.0003162342
43	0xbc730e9f	-0.014835029
44	0xbc571fb2	-0.013130115
45	0x3b1e9de1	0.002420299
46	0xbb8966df	-0.0041931714
47	0xb9e0fab0	-0.00042911386

body.4.conv.weight f4 [48, 48, 3, 3]
0	0xbbd85218	-0.006601583
1	0x3d46c8d9	0.048531387
2	0xbc854880	-0.016269922
3	0x3d1f3988	0.038873225
4	0xbd0065c0	-0.031347036
5	0x3ccc4455	0.024934927
6	0x3ca062e0	0.019578397
7	0xbcf6b6b5	-0.030116418
8	0x3d178505	0.03699209
9	0x3d2bb2f5	0.041918714
10	0xbdbf6720	-0.093458414
11	0xbd472118	-0.048615545
12	0x3da85001	0.082183845
13	0x3c6cc1d7	0.014450512
14	0xbcea40a1	-0.02859527
15	0x3cc06f52	0.023490582
16	0x3c947295	0.018121043
17	0x3bff9fed	0.007801047
18	0x3e1f912f	0.15582727
19	0x3d7f8e7e	0.06239175
20	0x3c0a6303	0.008446458
21	0x3b84c25b	0.0040514893
22	0x3da74fd1	0.08169521
23	0x3be5c350	0.0070118085
24	0xbb1ebc27	-0.0024221034
25	0x3c8a6126	0.016892027
26	0x3be9bdd0	0.007133223
27	0x3c39b4ae	0.011334581
28	0xbd8754c1	-0.066079624
29	0xba84cf50	-0.0010132585
30	0xbc9a0bb4	-0.018804409
31	0xbd232ac2	-0.0398357
32	0x3d7ff735	0.062491614
33	0x3caa27ce	0.020770933
34	0xbc69eabe	-0.014277158
35	0xbca0318c	-0.019554876
36	0xbc317311	-0.010830657
37	0x3b4c7178	0.0031195562
38	0xbd955355	-0.07291285
39	0x3ab035a1	0.0013443717
40	0x3ed1eeaa	0.410024
41	0x3d160c27	0.036632683
42	0xbc3edcf4	-0.011649359
43	0xbcbd0a6d	-0.02307626
44	0xbc008296	-0.007843634
45	0x3c6bea0e	0.014399065
46	0xbb1ab333	-0.0023605346
47	0xbabcf5bc	-0.0014416496
48	0x3d0a4380	0.03375578
49	0xbcf0dca9	-0.029402094
50	0xbc2eda4f	-0.010672166
51	0xbd4dc871	-0.050239984
52	0x3cf2b651	0.02962795
53	0x3cf86626	0.030322146
54	0x3dee79ee	0.1164435
55	0xbc745f92	-0.014915364
56	0x3ba8c259	0.005150121
57	0x3d47ebc4	0.048808828
58	0xbda7341f	-0.08164238
59	0xbdb8d51e	-0.09025024
60	0x3b0b5230	0.0021258704
61	0xbced9fde	-0.029006895
62	0xbcbc519a	-0.02298813
63	0x3c9a20f1	0.018814536
64	0x3dcf1e1e	0.10113166
65	0x3d08e65a	0.033422805
66	0xbc93b587	-0.018030895
67	0xbe321c6f	-0.17393659
68	0x3cf965a3	0.030443972
69	0xbb8870ad	-0.0041638226
70	0x3d88c3f0	0.06677997
71	0x3c1a5a41	0.009420932
72	0xbd36c53b	-0.044621687
73	0x3c7e3ff3	0.015518176
74	0x3c21456c	0.009843212
75	0xbe44ca1e	-0.19217727
76	0x3e4f675c	0.20254272
77	0x3d3c160d	0.045919467
78	0xbd3252d2	-0.043536015
79	0xbda0589c	-0.07829401
80	0xbcd351fb	-0.025795927
81	0x3c263db2	0.010146545
82	0x3d7d8670	0.061895788
83	0xbd824151	-0.06360114
84	0x3e345133	0.176091
85	0x3e023b3b	0.12717907
86	0xbd29ade2	-0.041425593
87	0xbd2764c9	-0.0408676
88	0xbd23436d	-0.039859224
89	0xbd33d717	-0.043906298
90	0xbe10ddb2	-0.1414707
91	0x3c0d6c76	0.008631816
92	0xbbc415d8	-0.0059840493
93	0xbd4d02d0	-0.05005151
94	0xbce3a67e	-0.02778935
95	0x3d5c0516	0.053715788
96	0xba6f1767	-0.00091206137
97	0xbc4bc9fd	-0.0124382945
98	0x3c52f92f	0.012876793
99	0x3e1e781c	0.15475506
100	0x3dcf7cf0	0.10131252
101	0x3cd1f308	0.025628582
102	0x3ca07f15	0.019591847
103	0xbe3c531b	-0.18391077
104	0x3c864316	0.016389411
105	0xbabca16b	-0.0014391368
106	0xbb942027	-0.0045204344
107	0x3d1df380	0.038562298
108	0x3ccf61c4	0.025315173
109	0x3c15c9bc	0.0091423355
110	0x3c51c571	0.012803421
111	0x3ce52882	0.027973417
112	0x3b53c17d	0.0032311373
113	0x3c485ed5	0.012229641
114	0x3c8bb451	0.017053755
115	0x3c9c6de5	0.01909537
116	0x3c6dbb59	0.014509999
117	0x3cfbcb28	0.03073652
118	0xbd99a0ea	-0.07501395
119	0xbb347ee0	-0.0027541444
120	0x3d706fca	0.05870036
121	0xbe5dc68b	-0.2165777
122	0x3b5f2bdd	0.0034053244
123	0xbbe0b5d4	-0.006857613
124	0xbc45fda8	-0.012084402
125	0xbac27786	-0.0014836646
126	0xbd07484e	-0.03302794
127	0xbb605516	-0.0034230403
128	0xbb39fb90	-0.0028378703
129	0xbd64e711	-0.055884425
130	0x3c67e6ba	0.014154131
131	0x3c3b3eeb	0.011428575
132	0xbbaf333b	-0.0053466833
133	0x3c9318dd	0.017956192
134	0x3cfabd98	0.030607983
135	0x3b978c7d	0.004624902
136	0xbd0ee282	-0.034883983
137	0xba0795ac	-0.0005172144
138	0xbda7e6ff	-0.08198356
139	0xbda957d0	-0.08268702
140	0xbc67d396	-0.014149567
141	0xbc8210e5	-0.015877197
142	0xbbf6f17d	-0.007536112
143	0xbba98fb6	-0.0051746024
144	0xbc02a615	-0.007974167
145	0xbba72491	-0.0051007946
146	0xbc4802aa	-0.012207666
147	0xbcebe0c9	-0.02879371
148	0xbd02ddf1	-0.03194994
149	0xbd327004	-0.043563858
150	0xbc99f9e7	-0.01879592
151	0xbc6df890	-0.014524594
152	0xbcb97b7b	-0.022641888
153	0x3d7c0114	0.061524466
154	0x3c64d4d7	0.013966761
155	0x3c078ba6	0.008273041
156	0x3d367397	0.04454383
157	0xbca8a9d4	-0.020588793
158	0xbd08b760	-0.033378005
159	0xbc508afd	-0.01272845
160	0xbbbcc570	-0.005760841
161	0xbd37795f	-0.044793483
162	0x3cc4336a	0.023950297
163	0x3d970528	0.0737403
164	0x3b20f084	0.002455742
165	0x3d24ae0c	0.040205047
166	0x3da6f5ec	0.081523746
167	0x3b84b2f4	0.004049653
168	0xbac4ca92	-0.0015013984
169	0xbc0e5310	-0.008686796
170	0xbc450c0c	-0.012026798
171	0xbbba1f43	-0.005679996
172	0x3aace4f9	0.0013190798
173	0x3c80de0e	0.015730884
174	0x3b5574c1	0.0032570811
175	0xbcdc0a53	-0.026860392
176	0x3c3a4d05	0.011370902
177	0xba4c4886	-0.0007792789
178	0xbc09c8ea	-0.008409718
179	0x3c6dad5d	0.014506665
180	0x3d6fa96d	0.058511186
181	0x3d0b08c3	0.033943903
182	0x3c14ca68	0.009081461
183	0x3d16ffc1	0.036865
184	0xbd992101	-0.07476998
185	0xbd23a765	-0.03995456
186	0xbca1f324	-0.019769259
187	0x3a8ac45b	0.0010587083
188	0xbb84f2fb	-0.004057286
189	0xbd7df0be	-0.061997168
190	0x3db990a8	0.09060794
191	0x3c896617	0.016772313
192	0x3d083459	0.033253048
193	0x3d50b973	0.05095811
194	0xbc62df39	-0.013847166
195	0x3c163c48	0.009169646
196	0xbadac273	-0.001669003
197	0x3c022795	0.007944007
198	0xbdf7fee6	-0.12109165
199	0x3e4245e7	0.18971978
200	0x3d0f0610	0.03491789
201	0x3c7cd911	0.015432612
202	0x3d8b43c4	0.06800035
203	0x3c14119d	0.009037402
204	0x3bba451b	0.0056845075
205	0x3c7024cf	0.014657213
206	0x3b4ed187	0.0031557993
207	0x3ce45e7f	0.02787709
208	0xbd335f3d	-0.043792
209	0xbbe68d87	-0.0070359143
210	0x3d25e891	0.040504996
211	0x3bc5160e	0.006014592
212	0xbd39b7d3	-0.045341324
213	0x3c8fa4b3	0.01753459
214	0x3ae537ea	0.0017487977
215	0x3ca0cb32	0.019628141
216	0xbd178218	-0.0369893
217	0xbc3b995f	-0.011450141
218	0x3c9cd99e	0.019146737
219	0xbd0d9fc9	-0.03457621
220	0x3cb35d64	0.021895118
221	0x3c36439e	0.01112452
222	0x3bf2d9a1	0.0074111973
223	0x3ca75714	0.020427264
224	0x3c9872e5	0.018609473
225	0xbcef798a	-0.029232759
226	0xbcda05f1	-0.026614161
227	0xbc66b6ce	-0.01408167
228	0xbcc480c0	-0.023987174
229	0x3d8f849a	0.070077136
230	0x3acd009e	0.0015640443
231	0xbb495451	-0.0030720423
232	0x3d06160a	0.03273586
233	0xbb8aa67b	-0.004231272
234	0xbd581415	-0.052753527
235	0x3bdcc0fc	0.0067368727
236	0x3c84ff22	0.016234938
237	0xbd471fc2	-0.04861427
238	0xbcd1585f	-0.025554834
239	0xbc693103	-0.014232877
240	0xbca70993	-0.020390308
241	0xbbe8b076	-0.007101114
242	0xbb81a412	-0.0039563263
243	0x3deaf8c0	0.114732265
244	0xbe6947f3	-0.22781353
245	0xbd435479	-0.04768798
246	0x3e05d044	0.13067728
247	0x3d220ec6	0.03956487
248	0xbc743eb7	-0.0149075305
249	0x3cb77fe1	0.022399845
250	0x3b3cb8f7	0.002879677
251	0x3cfda082	0.030960325
252	0xbd7b1e67	-0.06130829
253	0x3e844f7a	0.25841886
254	0x3c23dcaf	0.010001346
255	0xbd92ff89	-0.07177646

body.4.conv.bias f4 [48]
0	0x3ad6f4c1	0.0016399847
1	0xbb39d751	-0.0028357098
2	0x3b8a22c2	0.0042155692
3	0xb88b133b	-6.6316185e-05
4	0xbafee5eb	-0.0019447183
5	0x3ba8f911	0.005156644
6	0x3a7fde83	0.0009760635
7	0xbb74693d	-0.0037294172
8	0x3bc9694e	0.0061465865
9	0x3b0325cd	0.0020011545
10	0xbb229f95	-0.0024814357
11	0x3b901aec	0.0043977406
12	0x3b2a4b68	0.0025984887
13	0xbaf428d5	-0.0018627892
14	0x3baa8e39	0.0052049425
15	0x3a55fa7c	0.000816263
16	0xb6867894	-4.0075483e-06
17	0x3be60b01	0.0070203547
18	0x3b331620	0.002732642
19	0xbb008aac	-0.0019613905
20	0x3c02ac44	0.007975642
21	0x3b7743f0	0.0037729703
22	0xba58d761	-0.000827184
23	0x3bc3acbb	0.005971519
24	0x3b9d09c9	0.0047924262
25	0x39a7565f	0.00031917074
26	0x3bf09eac	0.007343134
27	0x3b3914ce	0.002824116
28	0x3a83d79e	0.0010058766
29	0x3c0410ef	0.008060678
30	0x3b76e8a3	0.0037675283
31	0xba8024ae	-0.0009776556
32	0x398a6de4	0.00026403286
33	0xbb81c257	-0.0039599347
34	0xbc0c5581	-0.008565308
35	0xbacf7b22	-0.0015829543
36	0xbb47511e	-0.003041334
37	0xbbf9137f	-0.007601201
38	0xb9f491f6	-0.00046648056
39	0xbba3734d	-0.00498811
40	0xbbd616b3	-0.0065334677
41	0x3a345a76	0.0006879935
42	0xbb6a18ab	-0.003572027
43	0xbc09ed3f	-0.00841838
44	0x3ab66d4d	0.0013918072
45	0xbb395d7c	-0.002828448
46	0xbbf3d28e	-0.0074408716
47	0xb9fb421c	-0.00047923706
