model/visdrone_abpn/x4_270_480_abpn_011_QAT.onnx (onnx, 611035 bytes, 16 tensors)

shallow.conv.bias f4 [49]
000000 61 d7 7f bf 73 9e 2e bf e1 10 53 3f 92 8b 84 bf
       -0.9993802 -0.68210524 0.8244763 -1.0355093
000010 e2 21 a2 3e 9b cc 04 40 d9 ae 65 be f0 07 ed 3e
       0.31666476 2.0749881 -0.2242998 0.46295118
000020 fa ec c5 3e a2 3a 94 bf cd ca a4 3d 17 fa 91 bf
       0.3865736 -1.1580393 0.08046494 -1.1404446
000030 ce 4b f8 3f 03 5c 15 3f 91 c4 29 3e 90 e9 ac 3e
       1.9398134 0.58343524 0.1657889 0.33771944
000040 ca 3b 31 bf 1d d6 84 bf 5a 74 8d 3f 4b 1c 17 bf
       -0.69231856 -1.0377842 1.1051133 -0.59027547
000050 c7 47 b7 bf ad fb 90 3f 25 d3 69 3f 8e 39 20 40
       -1.431878 1.1326805 0.91337806 2.5035129
000060 12 9b 6e 3e 06 af 70 bf 0f b3 38 bf f4 67 96 bf
       0.23301342 -0.94017065 -0.7214822 -1.1750474
000070 03 ef 9c 3f 97 1a c5 3f 65 1f 7c 3e 19 dd 98 3e
       1.226044 1.539874 0.24621351 0.29856184
000080 2b 6d 36 3f 53 3f 42 bf fc 8c 31 40 1e c4 95 3e
       0.7126033 -0.75877875 2.77423 0.29251188
000090 78 66 81 be 08 9b e5 bc 1b 37 dd 3f 30 c8 35 3d
       -0.2527349 -0.028028026 1.7282442 0.044380367
0000a0 58 63 43 bf cb 53 25 bf 80 5c 62 3e e9 c9 8a 3f
       -0.7632346 -0.6458098 0.22105598 1.0842868
0000b0 13 dd 80 3f 72 31 c0 3f cf df c6 3f 65 3d 96 bf
       1.0067466 1.501509 1.5537051 -1.1737486
0000c0 c0 2b 9c 3f
       1.2200851

shallow.conv.weight f4 [49, 3, 3, 3]
000000 b9 16 a7 bd ff c5 25 bd 69 b8 42 3d 0e e0 2d be
       -0.08158631 -0.040472027 0.04753915 -0.16980001
000010 c7 a6 a1 3e 3e a4 23 3c f9 fb 0f 3c 98 25 a1 bd
       0.31572554 0.009987889 0.008788102 -0.078684986
000020 a1 33 b2 3c 68 eb c6 3d e5 5e 22 3d 56 a0 b0 bd
       0.021753134 0.09712869 0.03964128 -0.08624332
000030 dc 08 cc be da 37 97 3e 7a ec 9b 3c 00 54 87 3d
       -0.3985051 0.295348 0.01903366 0.066078186
000040 81 12 21 3d 69 18 36 bd 00 f7 96 bd d0 58 71 3d
       0.039324287 -0.044456873 -0.0737133 0.05892259
000050 a6 46 54 3d f1 43 e7 bd 80 9f 4d 3e 21 b7 bd bd
       0.051825188 -0.11292256 0.20080376 -0.09263445
000060 4d 1e 18 bd 2c 54 14 3c 1a dc 28 3c b1 c5 42 3d
       -0.037138272 0.009053271 0.010306383 0.047551814
000070 f7 bc be bc 38 0e de 3d 25 4f e7 3d b5 38 e6 3d
       -0.023283465 0.10842556 0.112943925 0.11241285
000080 d8 cc 90 3d ff 27 d0 bd 48 86 e1 b9 ee 8e 4a 3d
       0.07070321 -0.10163879 -0.00043015392 0.049452715
000090 33 30 a2 bd 3f 9b 12 3d 7b 1d c8 3d 27 58 a1 3c
       -0.079193495 0.035792585 0.09771248 0.019695355
0000a0 2e 56 36 3e d6 91 fa bd 55 ca 05 be 67 75 15 bc
       0.17806312 -0.12234847 -0.13065465 -0.009122229
0000b0 5f cc 26 3e 21 a1 19 be 76 90 9c bd 24 55 83 3b
       0.16288899 -0.15002872 -0.07644741 0.0040079523
0000c0 6d e1 96 3d 3c 1d 19 3e bd 04 7f 3d 76 d0 9f bd
       0.07367215 0.14952558 0.06226038 -0.07803433
0000d0 35 a5 c6 bd 8f 62 1f 3e 74 79 ac be ec d5 45 3d
       -0.096994795 0.15564941 -0.3368641 0.048299715
0000e0 63 e5 55 3d b3 59 71 be d3 3e af 3d 51 f7 87 3e
       0.052220713 -0.23569374 0.08556905 0.26555875
0000f0 db eb 6a be b4 01 40 3d b6 b5 1d 3e 5d 8a de 3e
       -0.22941534 0.046876624 0.15401348 0.43464938
000100 71 cc 2e be dc a1 da 3d 98 9c 7d bd f0 be 37 bd
       -0.17070176 0.106754035 -0.061916918 -0.044859827
000110 69 7e 93 be 1c a8 36 3e f9 78 36 3e 89 99 45 be
       -0.2880738 0.17837566 0.17819585 -0.1929685
000120 11 2b 7e bd 4b 8a fc 3d bb 71 22 be 52 8b 8d 3e
       -0.06205279 0.12331065 -0.15863697 0.27645355
000130 36 1a 30 bd 64 b4 c1 3b 9d 4c 73 3d 22 86 6a be
       -0.042993747 0.005911397 0.059399236 -0.2290273
000140 8a 26 3e 3d 37 1c 31 bc 8a 4a 5a 3e dc f2 68 be
       0.046423472 -0.01080995 0.21317497 -0.22748893
000150 f8 d0 94 bd f3 97 0f bc ea c1 0c 3e cb dd 8b bc
       -0.0726642 -0.008764255 0.13745847 -0.017073533
000160 0c 5a 41 bd 11 e0 e2 3c 5c cb 6f 3d c1 ac 24 3e
       -0.047205016 0.027694734 0.058543548 0.16081525
000170 8e 6e 95 3d 06 29 69 be 7a ff b8 bd 69 0d 03 3e
       0.07296477 -0.22769555 -0.09033103 0.12798084
000180 f5 e7 de bc c8 97 24 bd 85 46 c9 bd af bc e4 bd
       -0.027210215 -0.040183812 -0.09827904 -0.11168801
000190 e2 a6 05 3d 41 0a 40 be 31 b9 05 bd 23 10 be 3d
       0.032629855 -0.18753912 -0.032647315 0.092804216
0001a0 bd 09 f6 3d d6 e6 50 39 90 2b 10 3e 8f 7c 3f 3d
       0.12013576 0.00019922419 0.14079118 0.046749648
0001b0 b7 9f 23 3e e6 d8 c0 bd 30 41 88 bd d6 66 1e 3e
       0.15978895 -0.0941637 -0.066530585 0.15468916
0001c0 cc 67 b6 bd 7a 1a 9e bd c0 f7 b5 bd 03 c7 5a bd
       -0.089065164 -0.07719894 -0.08885145 -0.05341245
0001d0 75 0d e3 3d 4f 95 34 3d 4d 2a 3b be 58 b3 8e bd
       0.11086551 0.044087704 -0.18277855 -0.06967801
0001e0 c3 fc 0f 3c 9b 51 15 3e fa 35 93 3e 2a 9d a3 bd
       0.00878829 0.14581911 0.28752118 -0.07988961
0001f0 69 90 8c bc d8 fc 95 bd b7 bf 38 3e 53 3b 7e bd
       -0.017158704 -0.07323617 0.18041883 -0.062068295
000200 fd e4 79 3d b3 58 52 bd 67 8a 84 be 54 3e ae bd
       0.061009396 -0.05135412 -0.25886843 -0.08507982
000210 bf 82 ec 3d 70 fa a4 bd db 40 d3 3d 12 d1 22 3e
       0.11548375 -0.0805558 0.103151046 0.15900066
000220 ea 45 a3 bd c3 85 a8 3b 85 2b 56 bd 56 e7 80 3e
       -0.079723194 0.0051428988 -0.052287597 0.25176495
000230 eb 05 a3 3d 37 a4 1d be ba 35 28 bc ce 0b 3f be
       0.07960113 -0.15394674 -0.010266716 -0.18656847
000240 86 84 10 be a5 38 65 3e 18 59 04 be 7b f6 48 be
       -0.14113054 0.2238489 -0.12924612 -0.19625275
000250 af 49 01 3d bc 72 04 3d be fd 89 bd d2 55 91 bd
       0.03156441 0.03233598 -0.067378506 -0.07096447
000260 96 d5 a3 3d f2 de a9 bd e3 48 a8 3c 7a f5 ab 3d
       0.07999723 -0.082944766 0.020542568 0.0839643
000270 b5 f8 34 3e ad 5d 59 bd 7a 71 4e be 23 3e 0a 3e
       0.17672999 -0.05306785 -0.20160475 0.13500266
000280 d2 4a 1d be f4 f7 e0 3d 1a d4 8e bd 42 87 9a be
       -0.15360573 0.10984793 -0.06974049 -0.3018132
000290 9f 5d 25 be 77 41 65 be 17 a3 4a be f4 77 69 3e
       -0.16148995 -0.22388254 -0.19788776 0.22799665
0002a0 54 2c fa bd 23 c1 04 be c1 30 4d 3e 75 61 a6 3d
       -0.12215486 -0.12964301 0.2003813 0.08124057
0002b0 59 17 67 3e 8a 4f 39 3d 7c fa 4f 3e 8d bf 0b bd
       0.225675 0.04524187 0.20310396 -0.034118224
0002c0 2b e1 d5 3d 25 de 37 bd bb f1 14 3d e4 a7 1d be
       0.10443338 -0.044889588 0.036363345 -0.15396076
0002d0 72 5b d3 3d a9 9b 55 be 2a a0 85 bd 5d e9 f3 bd
       0.10320176 -0.20860161 -0.065246895 -0.11909745
0002e0 56 4e 22 3c d1 ab b1 3d 91 ab b9 3d c0 17 f6 3c
       0.009906372 0.086753495 0.09065927 0.030040622
0002f0 5c 7a 70 bd b1 0d 75 be 2e c6 8a be f5 55 9b bd
       -0.05871044 -0.23931004 -0.27104324 -0.075847544
000300 a8 76 c1 bd 37 35 84 bd 58 55 0a 3c 61 98 be 3d
       -0.0944646 -0.064554624 0.008443199 0.09306408
000310 87 b2 ba bd a2 e6 d6 bc 6a 2a f6 3d da 77 78 3d
       -0.09116083 -0.026233021 0.120198086 0.060661174
000320 ce 37 b2 3d 10 0d 96 3c 48 1d 02 3e b5 db 0f 3e
       0.0870205 0.018316776 0.12706482 0.14048655
000330 75 c9 94 3d 3f 10 b2 bd 98 78 74 3d 9b a6 5d 3d
       0.072649874 -0.08694505 0.05968532 0.054113965
000340 83 24 01 bd fa b4 84 3d f2 e8 6e 3c 5c 0b bc bd
       -0.03152896 0.06479831 0.014581906 -0.09181854
000350 7b fa 51 3d 42 74 cd bd f0 8a 88 3d c8 4f 7f 3a
       0.051264267 -0.1003194 0.06667125 0.00097393664
000360 6c 9d 05 be 1b 22 ce bd d5 a5 42 3e 60 ed 18 3e
       -0.13048333 -0.10065099 0.19008572 0.14934301
000370 c1 3d ce 3d e8 7d 14 be 7c 63 14 bd 05 c9 24 bd
       0.100703724 -0.14501154 -0.03622769 -0.04023077
000380 14 89 be 3d c5 a9 17 3e 8f f6 56 3d f8 de 68 be
       0.09303489 0.14810856 0.05248123 -0.22741306
000390 9c 62 03 be 99 09 3d 3d 2d cf 6a be 48 e5 97 3c
       -0.12830585 0.04615173 -0.22930594 0.018541947
0003a0 0f d0 03 3e 4c 3d 15 3e 8a d1 0f bd 47 0f 66 be
       0.12872337 0.14574164 -0.03511194 -0.22466765
0003b0 40 31 ef bc b4 67 64 3c ec a7 53 3d 16 23 a7 3d
       -0.029198289 0.01394074 0.051673815 0.08160989
0003c0 7a ee 04 3b c8 d8 b5 bc 4e 3f c7 3d 49 c8 45 be
       0.0020283745 -0.022198096 0.09728871 -0.19314684
0003d0 6f 29 52 be 94 20 45 be f9 7b 59 be d7 b4 01 3d
       -0.20523618 -0.19250709 -0.21238698 0.031666603
0003e0 d0 33 50 3e 2f 9a d2 3c 80 99 9e 3e 29 52 63 3e
       0.20332265 0.025708286 0.30976486 0.2219931
0003f0 d2 f6 1a 3e 32 c4 23 3d 43 4b be 3d 77 23 c6 3c
       0.15133217 0.03998203 0.09291699 0.024186833

body.0.conv.bias f4 [49]
000000 b9 14 3d 3f c6 b4 a7 be 8a 09 d7 be 43 4b ef bc
       0.73859745 -0.32755107 -0.41999465 -0.029210692
000010 78 69 9c 3f 2b e3 30 3f bb 0e 83 3f a6 24 31 bd
       1.2219687 0.6909663 1.023887 -0.04324784
000020 7d 07 0e bf 47 b1 77 bd e7 fd 69 bd c7 a3 93 3f
       -0.55480176 -0.0604718 -0.057126906 1.1534356
000030 6a 70 f1 3e 56 c0 ba 3f e2 9c f8 be 64 7a 80 be
       0.47156078 1.4589946 -0.48557192 -0.25093377
000040 35 44 9c bf 03 50 c7 bf d0 16 02 bd 0e e4 31 3f
       -1.2208315 -1.5571293 -0.031760037 0.6948861
000050 67 f3 c3 3e e2 87 69 3f 8e be c6 bf d5 27 b2 bd
       0.3827164 0.91222966 -1.5526903 -0.086990036
000060 6f aa 2a c0 c6 8a f0 be d9 11 a3 3f 86 f5 fa bc
       -2.6666524 -0.46980876 1.2739822 -0.030634653
000070 1f 56 47 3f 76 6a 7b be 16 2a 01 3e 9b 0c 97 3f
       0.77865785 -0.2455233 0.12613711 1.1800722
000080 6c 49 05 3e c1 83 19 3e 8b d5 fb 3c d0 26 f9 bd
       0.1301629 0.14991666 0.030741474 -0.12165606
000090 6b ab 78 bf 6a fe 7d 3f c6 e5 fb bf 78 fd 24 bd
       -0.97136563 0.9921633 -1.9679496 -0.04028079
0000a0 d6 e9 8c 3e 3d 7f 90 bf 91 fd 56 bf 96 a8 ee be
       0.27522153 -1.128883 -0.8398066 -0.46612996
0000b0 86 51 fc 3d 38 50 b9 3c f5 fd 6f 3e 14 a3 9e bf
       0.12320237 0.02262126 0.2343672 -1.2393517
0000c0 b7 ed 87 bd
       -0.066371374

body.0.conv.weight f4 [49, 49, 3, 3]
000000 a5 fc 2d be bb 6a 23 be 04 f4 34 3d dd 61 23 be
       -0.16990907 -0.15958683 0.044178024 -0.159553
000010 9c 43 e5 be 7a 02 e4 bd 08 ee a2 bc e1 e8 53 be
       -0.44778144 -0.11133285 -0.019888893 -0.20694305
000020 74 c9 9f be 90 9c 4a bc 84 8f 80 bc 1c 82 1e 3c
       -0.31208384 -0.012366429 -0.015693434 0.009674575
000030 04 ff 8c 3c 8f 18 86 bd 84 b4 81 bc 50 c2 a0 3d
       0.017211445 -0.06547653 -0.015833147 0.07849562
000040 ab 83 c3 3c 47 6b 11 bd 3a ac e4 3d 4a b5 bd bd
       0.023866495 -0.0355027 0.11165662 -0.09263094
000050 f3 ed 66 bd fe 14 20 bc a2 07 ee 3d 9d 7b 36 bd
       -0.05637927 -0.00977063 0.116225496 -0.04455148
000060 a6 68 25 3d 5b e1 13 3e 78 c2 10 3e 88 84 7a bc
       0.040383004 0.14441435 0.14136684 -0.015290387
000070 b6 a1 06 be fe f6 f0 bc 62 1f 84 3d c3 49 03 bd
       -0.13147625 -0.02941465 0.06451298 -0.032052767
000080 48 1e 92 be c3 e3 af 3d fb d2 2b be fa a2 50 bd
       -0.28538728 0.08588364 -0.16779701 -0.050936677
000090 57 d0 cb bd 7c 3a 96 bd bf ba 48 3d 45 31 89 be
       -0.09951847 -0.07335374 0.04900622 -0.26795402
0000a0 9b 89 2b bd b5 06 8d 3d a1 e8 ea 3d b9 a2 e7 bd
       -0.041879278 0.06886045 0.11470152 -0.11310334
0000b0 ad fd f3 bd 57 c7 80 3e bf 16 04 3e 1f ff 0a 3d
       -0.11913619 0.25152084 0.12899302 0.03393471
0000c0 ad f4 f7 bd 61 08 a0 3c a4 95 34 3d e4 ce bd 3d
       -0.12107215 0.019535245 0.04408802 0.09267977
0000d0 9d 87 c3 bc 9b 2c 8b 3e 3b 39 34 be f8 eb 1e be
       -0.023868376 0.2718247 -0.17599957 -0.15519702
0000e0 20 3f b0 be 12 e2 87 3d 1c 78 f0 bd 41 e7 e0 be
       -0.3442316 0.06634916 -0.11741659 -0.43926433
0000f0 6e 63 62 3e 7f 01 8d 3e ec 80 7e be 8f f1 b8 bd
       0.22108242 0.27540204 -0.24853867 -0.09030449
000100 84 54 4a bd ce b8 b5 bc fa 8d ae bd 6a fa 88 bd
       -0.049397007 -0.022182848 -0.08523174 -0.06688388
000110 c3 94 b3 bd 72 bf 15 3d 2b bb 2c 3c 80 5e 0e bd
       -0.087686084 0.03655953 0.010542671 -0.03475809
000120 d5 b7 b0 3c 81 8f 26 3e 2b 42 93 bd d1 88 99 3c
       0.021572033 0.1626568 -0.07190355 0.018741997
000130 31 d8 50 bd da 2e 45 3d 75 4b a4 3d 23 f1 72 bc
       -0.050987426 0.048140384 0.08022205 -0.014827999
000140 6d ce 5f 3b bc ae b8 3d d0 aa 02 3d cd f3 05 bd
       0.003415014 0.09017703 0.03190118 -0.03270321
000150 f6 9d db 3c 87 5e 25 be c9 b2 79 bd e1 23 01 be
       0.02680872 -0.1614934 -0.06096152 -0.12611343
000160 8c 03 22 be 75 16 ea 3d 83 0b fa 3d ad 12 80 3b
       -0.15821666 0.114300646 0.12209227 0.0039084763
000170 05 ea 0b be 7d fb 73 3e 5b 16 04 be 41 61 76 bd
       -0.1366349 0.23826404 -0.12899153 -0.060151342
000180 11 a3 be bc 2c 7c c5 3d 10 fd 7f be 86 39 0e 3e
       -0.023271115 0.096428245 -0.2499888 0.13889131
000190 c7 35 3f be b6 41 0b be 39 ad eb 3d d3 14 64 bc
       -0.18672858 -0.13599285 0.11507649 -0.0139209805
0001a0 2d 6a 01 be eb 49 46 be 10 22 77 bb e2 bf e0 3d
       -0.12638159 -0.19364135 -0.0037709512 0.10974099
0001b0 57 df 1d bb b2 5c d0 bd 5a ba 37 3a ae 89 2b 3e
       -0.002408942 -0.1017393 0.00070086645 0.1675174
0001c0 e4 70 c0 bc 95 0f 9c bd 1d 19 0c bd de b9 50 bd
       -0.02349133 -0.076201595 -0.034203637 -0.050958507
0001d0 0e 53 18 bd 31 b4 0a 3e 3f 62 ca bb 1d 11 f4 bc
       -0.037188582 0.135453 -0.0061762626 -0.029793316
0001e0 9c 09 ca 3d 44 68 33 3e 97 e0 1f 3e c2 a0 a6 3b
       0.09865114 0.17520243 0.15613018 0.005085082
0001f0 2d 3d d6 3d f9 f5 d4 3d 50 57 a1 be b0 f6 9a be
       0.10460887 0.10398478 -0.31511927 -0.30266333
000200 f1 1f a9 be 6a 45 3a bd 12 4c c7 be ae 11 3c be
       -0.33032182 -0.045476355 -0.38925225 -0.1836612
000210 57 93 8f 3c fb 13 c2 be 7c fc 67 be 71 9d 2d be
       0.017526312 -0.3790587 -0.22654909 -0.1695459
000220 53 80 33 bd 76 b7 42 3d 9e ee da be e4 2f fb be
       -0.04382355 0.047538243 -0.42760175 -0.49059975
000230 c6 6d a6 bd 04 ec 42 bd e9 c3 bd bd 6b 86 03 be
       -0.08126406 -0.047588363 -0.092658825 -0.12844245
000240 9b 67 d0 bc a3 65 c1 bd 87 ea dc bd a8 85 13 3e
       -0.025440028 -0.09443214 -0.1078692 0.14406455
000250 ff 43 8d 3c 81 0a 95 3b 40 ce 40 3e 82 26 a4 bd
       0.017244337 0.0045483713 0.18828678 -0.08015157
000260 26 91 e5 bd f5 1c b1 bd 20 96 7f 3c f2 70 22 bc
       -0.112093255 -0.08648101 0.015599757 -0.009914624
000270 59 b7 2a be 3f d5 41 3d e8 36 96 3b 60 51 b6 be
       -0.16671504 0.047322508 0.004584182 -0.3560896
000280 20 ad 5e be b9 76 51 bc 3e 70 85 bd 0b 6f a1 bd
       -0.2174573 -0.012784653 -0.06515549 -0.07882508
000290 3e 98 5b 3d 2e ee b6 bd ad 15 bd 3b f9 80 29 bc
       0.053611986 -0.08932148 0.005770406 -0.010345691
0002a0 5b 11 d2 3d 2b 45 63 3c 82 59 29 39 a0 7a b7 3d
       0.102572165 0.013871471 0.0001615044 0.08958936
0002b0 24 be be 3c d4 17 ac bd 14 45 01 be d1 e6 b0 3d
       0.023284025 -0.08402982 -0.12624007 0.08637775
0002c0 db b3 7d 3d 36 12 56 bc 53 cf a6 3c 5a 89 dc bc
       0.0619391 -0.013065865 0.020362532 -0.026920963
0002d0 44 82 b1 bc f7 88 27 bc ff ea 9c 3d 55 bc 3e be
       -0.02166856 -0.010225526 0.076620094 -0.1862653
0002e0 85 7a 5f be 5d 70 7c be c1 08 fa bb 8d b1 36 be
       -0.21824081 -0.24652238 -0.007630438 -0.17841168
0002f0 e0 f5 03 3e 6c a0 cc 3d 66 41 cd bd 57 69 c8 bd
       0.12886763 0.099915355 -0.100222394 -0.09785717
000300 ad aa 23 3c fe 35 24 be b3 6e 73 3d 8d 16 3f 3e
       0.009989423 -0.16036221 0.059431743 0.18660946
000310 94 35 1e bc 9c 5b 8d bd f0 9a 95 3c bf cf 23 be
       -0.009656329 -0.06902239 0.018262357 -0.15997218
000320 d0 e7 f1 bd 9f 6d 58 bd dd bd 1b be 37 09 54 3d
       -0.11811793 -0.052838918 -0.15209146 0.0517666
000330 df 12 91 3d 25 17 2e 3b 34 c9 c6 3d 12 10 bf be
       0.070836775 0.0026564088 0.09706345 -0.37316948
000340 7d cb 0f 3b 88 f5 36 3f f3 bb 38 3d 8c 65 b1 be
       0.0021941357 0.714684 0.045101117 -0.34647787
000350 77 7b c3 3e f0 41 87 bc 30 c9 fb 3d 3a 07 07 bd
       0.38180134 -0.016510934 0.12294233 -0.032965876
000360 1a a9 31 be 01 0f 2c 3c c3 40 cd bd 43 a2 cb bc
       -0.17349663 0.010501624 -0.10022118 -0.024857646
000370 ea cb b0 be 0d c3 84 be d4 b9 85 3e 84 8c 6b 3e
       -0.34530574 -0.25930062 0.26118338 0.23002821
000380 d7 20 94 3d 0d d1 e8 3b 0a 21 18 be bb ed 61 bd
       0.07232826 0.007104999 -0.14856353 -0.055158358
000390 d9 8f 21 bc 8e 76 9e bd 2b d4 2b bd dd dc 7b ba
       -0.009860956 -0.07737456 -0.041950386 -0.00096078013
0003a0 65 6d 2a be 23 eb e2 bd e4 70 4f 3d 66 92 a5 bc
       -0.16643293 -0.11080005 0.05064477 -0.02021141
0003b0 e6 98 49 3c 8d dd 1b 3d 67 40 bf 3c 17 0e d7 bb
       0.01230452 0.038053084 0.02334614 -0.006562959
0003c0 de 4c 8d 3d da 32 ab 3d 35 77 60 3d 91 2f d7 bb
       0.06899427 0.083593085 0.054801185 -0.0065669497
0003d0 ab 52 20 be a8 96 1f bd 0b 90 fd 3c ef ec a0 bd
       -0.15656535 -0.038962036 0.030952474 -0.078576915
0003e0 fd 3a f5 3d 51 6f 38 3e 0a 5d 87 3d 8b 80 d0 3c
       0.11974142 0.18011214 0.06609543 0.025451919
0003f0 2a f0 5f bc 2b ac 17 3d 63 01 c1 3d 4e 2e 64 bd
       -0.013668099 0.037029427 0.094240926 -0.055708222

body.1.conv.bias f4 [49]
000000 85 0c a3 be 1b d8 e3 bf 07 91 8f 3e 3e 14 b0 3d
       -0.3184549 -1.7800325 0.28040335 0.08597611
000010 60 bb a4 3e 0d 2b 9d bf 3e f5 c2 be 35 0b 1d 40
       0.32174206 -1.2278763 -0.3807773 2.453809
000020 69 25 a1 be 2b 9d af bf 32 9e 68 3f ca 20 b4 be
       -0.31473854 -1.3719839 0.90866387 -0.35181266
000030 e2 60 6f be 33 0b 67 3f b1 ac 87 be 71 45 2c be
       -0.23376802 0.90251464 -0.2649894 -0.16823365
000040 d6 5a b0 3d 90 23 13 c0 f1 c5 9f bd 47 18 50 bf
       0.086110756 -2.2990456 -0.07801426 -0.81287044
000050 36 e1 bf be 3e 29 f6 bd 00 6b 07 3f 90 b4 85 bf
       -0.3747651 -0.12019585 0.52897644 -1.0445728
000060 f0 5b 2a 3f 7c b8 3b c0 29 d3 12 3f 19 ae 87 bf
       0.66546535 -2.933135 0.57353455 -1.0600005
000070 53 4d 81 3e cb 89 d2 3e fc 7d d9 be c1 d8 11 be
       0.25254306 0.41120753 -0.4247893 -0.14242841
000080 b3 15 86 bf ed e8 44 bd 92 01 7e 3f f7 34 b6 bf
       -1.0475372 -0.048073698 0.99221146 -1.4234914
000090 0a d0 6a 3d a5 2c b8 be c4 83 ac be 9a 42 e4 be
       0.057327308 -0.3597156 -0.3369428 -0.44582063
0000a0 0c 77 4e bf 66 bf 48 3e 50 d4 04 c0 b8 52 e5 3d
       -0.806504 0.19604263 -2.0754585 0.11197418
0000b0 de b5 94 3f 25 e5 ef be 52 82 32 bf cd 14 87 be
       1.1618001 -0.4685451 -0.69730103 -0.26383057
0000c0 70 0e c4 3b
       0.0059831664

body.1.conv.weight f4 [49, 49, 3, 3]
000000 75 69 a0 bd c3 56 6f 3d 53 bb e2 be ec cb 66 bc
       -0.07832614 0.05843235 -0.44283542 -0.014086705
000010 56 16 dd bc db 77 a4 3d f1 b9 90 bd 13 55 a5 bd
       -0.02698819 0.08030673 -0.070667155 -0.08072867
000020 fb 21 75 3b dc e4 1e bc eb eb f3 3d de 2a 62 3d
       0.0037404287 -0.009698119 0.11910232 0.055216663
000030 0b 3a 8c be ca e3 11 3e 74 9b cb bd 72 fa be bb
       -0.27388033 0.14247051 -0.0994176 -0.0058281953
000040 94 8b bf bc 47 00 b3 bd bc 97 8b 3d 69 23 31 bf
       -0.023381986 -0.08740287 0.068160504 -0.69194657
000050 33 72 45 3e c0 ec d2 3d df ed ef be 84 53 3e 3e
       0.19281845 0.10299063 -0.4686117 0.18586546
000060 9a b2 55 3d 20 60 87 be cb eb 02 3e 62 fa b7 bc
       0.05217228 -0.26440525 0.1278526 -0.022458259
000070 3f 35 7e 3c ec 47 3f 3d e2 8f 82 3d 9a 30 04 be
       0.015515625 0.04669945 0.063751 -0.12909165
000080 56 38 aa 3d 0f 1f 05 3d e0 4c 15 be bb 62 90 bc
       0.083115265 0.032500323 -0.14580107 -0.017625203
000090 56 cf d4 bd c1 21 8d 3d bf b1 03 bd 56 ef 9e 3d
       -0.10391109 0.06891204 -0.032151934 0.077604935
0000a0 3d f6 84 3c 11 d7 85 bd ee 93 9b 3c d3 ee de 3d
       0.016230697 -0.06535161 0.018991437 0.10885396
0000b0 b8 ce 40 be 1d 14 f8 3d 10 d8 56 be 4b c3 9f bd
       -0.18828857 0.12113211 -0.20980859 -0.07800921
0000c0 e3 2b e8 bd 0d d6 2e be f4 0a 55 3e 7f 89 02 bd
       -0.11336496 -0.17073841 0.2080496 -0.031869408
0000d0 8f 2a b0 3b 40 19 39 3e e5 61 83 3b 0a e0 c3 3c
       0.005376167 0.18076038 0.0040094727 0.023910541
0000e0 ba 27 47 be 24 0a 41 3d c9 77 0a 3e 23 1b a6 bd
       -0.19448748 0.04712881 0.13522257 -0.08110645
0000f0 5c 05 ce bd 0a 46 90 3d 4e ae 7a be 30 df 7b bc
       -0.10059616 0.07044609 -0.24480554 -0.015373036
000100 6c 21 7f bc cf 30 32 bd d8 81 34 bc 46 c5 e1 bc
       -0.015571933 -0.04350358 -0.011017285 -0.027559888
000110 4e 01 5a 3c 48 66 20 3d 46 21 fe 3b f7 48 74 bc
       0.013305975 0.039160043 0.0077554313 -0.014909974
000120 87 7b 28 3d 88 a6 b5 bc b5 50 01 3b b2 3b 52 bc
       0.04113343 -0.022174135 0.0019731943 -0.012831615
000130 78 98 17 bd ef 65 b1 3d 98 d3 60 3d 59 8a 36 3d
       -0.03701064 0.086620204 0.05488929 0.044565532
000140 8c 33 38 3d 10 20 20 3d 29 a3 36 3d 1f 4f b8 3b
       0.044971034 0.039093077 0.044589195 0.0056246663
000150 72 80 96 3d 7a 68 2f 3d de 96 9c bc 2d e1 f9 bc
       0.07348718 0.042824246 -0.019114908 -0.03050288
000160 9d af b4 3c 47 60 2b 3d b0 38 43 bd 32 cf 07 bc
       0.022056395 0.041839864 -0.047661483 -0.008289145
000170 ed 01 10 bb 02 4d 67 bc d0 ce c1 3c 5e 3d 14 3d
       -0.0021973804 -0.014117481 0.023658186 0.036191337
000180 26 e8 b6 3c 83 84 b6 ba 63 95 62 3c e5 e1 0e be
       0.022327494 -0.001392499 0.013829562 -0.1395336
000190 62 88 5a 3e 9b 75 2a 3e 7f 79 d2 bd 06 82 bd 3d
       0.21341088 0.16646425 -0.1027708 0.09253316
0001a0 b7 0f 92 3d bc 3c c8 bd fb 62 3e 3d 1f 72 20 bd
       0.071319036 -0.09777209 0.046481114 -0.039171334
0001b0 cf 86 94 bd 05 b5 37 3d 69 1b 91 3e a1 f0 81 3d
       -0.07252275 0.044850368 0.28341225 0.063447244
0001c0 75 10 b6 3d cb e1 8b 3d 24 c2 d6 3e 6e 18 15 3e
       0.08889858 0.06830176 0.41944993 0.145601
0001d0 cc aa d2 3d 23 cf 5a bd 74 cd 1f 3e d1 00 b8 bd
       0.10286483 -0.053420197 0.15605718 -0.08984531
0001e0 55 4d 36 bd ca e6 23 bd 20 04 f1 bd 9a bd 73 3d
       -0.044507343 -0.04001502 -0.11768365 0.05950699
0001f0 17 84 69 3c 3f 43 13 3d e8 62 b6 3d b4 50 6e bd
       0.014252684 0.035952803 0.089055836 -0.058182433
000200 d2 16 b9 bd e8 af 9b 3c 90 f3 a8 3d d7 0c b2 bc
       -0.09037556 0.019004777 0.08249581 -0.021734638
000210 6a e4 76 3d ed ff f2 3d 4d 09 36 3d 48 39 11 be
       0.060276426 0.1186522 0.044442464 -0.14182007
000220 10 2d 99 bd 29 a0 a7 3d ef a3 f3 3d d5 fc 51 bd
       -0.07479298 0.08184845 0.11896502 -0.05126651
000230 43 b1 f3 bd a5 ac c4 bc 3d 7a 20 3d 85 84 f2 3b
       -0.11899044 -0.024008105 0.039179076 0.0074010515
000240 6d a2 33 bd e8 fd be bc 4e ea 32 3e 8f 1d 2b bf
       -0.043856073 -0.023314431 0.17472193 -0.6684198
000250 48 46 fe 3d 76 42 06 3e 1c 83 08 bf 8e 22 86 3d
       0.12415749 0.1311129 -0.5332506 0.065495595
000260 a8 7b b4 3d 45 96 77 bc af ef 67 3e b3 fc 42 be
       0.08812648 -0.015111511 0.22650026 -0.1904171
000270 92 11 c3 bc b5 33 13 bd 67 74 61 be 70 5c 11 3d
       -0.02381209 -0.035937984 -0.2201706 0.035488546
000280 02 f2 55 3d 0f 76 19 3b 55 e9 2d bd 05 2f 11 3d
       0.05223275 0.0023416316 -0.04245885 0.035445232
000290 01 cf 30 bd 06 6c 09 bc b8 47 0f 3d 5f 0d 22 bd
       -0.043166164 -0.008387571 0.034980506 -0.039563533
0002a0 65 2f c8 3c 5a 98 9e bc c7 29 3a 3c a1 f4 6c 3d
       0.024436662 -0.019359756 0.0113625 0.057850484
0002b0 41 d0 c1 bd 4a 05 07 be a0 45 5b 3e eb 1e 80 be
       -0.094635494 -0.13185611 0.21413279 -0.2502359
0002c0 f2 53 62 3b e1 31 b2 3e 01 aa fe bd 1e f7 c0 3d
       0.0034534899 0.3480368 -0.124347694 0.09422134
0002d0 9b 4a 73 bd 54 17 2b 3c dd b5 53 be 72 26 81 bd
       -0.05939732 0.010442574 -0.20674844 -0.06306161
0002e0 7f 3b 17 3e 53 46 e3 bd a5 31 90 3d d3 22 df 3b
       0.1476879 -0.11097398 0.07040719 0.0068095713
0002f0 d8 18 65 bd 24 78 16 3d 00 f2 9e bb 47 4d 62 3e
       -0.055931896 0.03673567 -0.004850626 0.22099791
000300 c0 43 b7 bd 23 40 a2 be c9 35 f2 bd 64 e6 d4 3c
       -0.08948469 -0.31689557 -0.11826665 0.025988765
000310 46 9b 78 be 4f 5c eb bd 28 9a 23 bd 6f 34 86 bd
       -0.24277982 -0.11492216 -0.039941937 -0.0655297
000320 26 2d 82 bc 1f c1 b3 bb 2b cb b2 3c 7c fc ce bc
       -0.01589067 -0.0054856683 0.021825394 -0.025266878
000330 94 39 03 3c bc ef 1f 3d f2 e7 39 bc 93 7f b8 3c
       0.008009333 0.039046988 -0.011346804 0.02252177
000340 d9 ac 30 bc e7 16 87 3d 99 8c b4 bc 63 f6 de 3c
       -0.010783398 0.06596165 -0.022039698 0.027217096
000350 97 51 03 bd 61 d7 e0 bb a5 06 14 3c a6 ec 64 bd
       -0.032060232 -0.0068616127 0.009034787 -0.055889748
000360 4e 65 9e 3d 74 3b 36 bd f2 72 80 be 8e 0d 8b 3d
       0.07734166 -0.044490293 -0.25087696 0.06789695
000370 41 9e 10 be 60 e8 82 be 09 af 51 3e 51 e8 cc be
       -0.14122869 -0.25567913 0.20476927 -0.40020993
000380 85 1d e3 be 44 0a d7 be fb c3 9e 3d 5d 11 d3 3e
       -0.4435846 -0.4200002 0.07752224 0.41224185
000390 b9 a6 9c be 11 6d 81 3d 36 f2 5e 3e 52 fb a8 be
       -0.3059595 0.06319631 0.21772084 -0.33004242
0003a0 e0 2e 31 be 7a 4d b8 3d ac 74 f5 3d 9e 21 18 be
       -0.17303038 0.089991525 0.11985144 -0.14856574
0003b0 45 e5 b6 be 61 f2 fa 3d 26 c5 77 be 2c 85 0d be
       -0.35721794 0.12253261 -0.241963 -0.13820332
0003c0 9c b2 b9 3d 5f f6 ea bd a7 5c 01 be 33 28 d2 3b
       0.0906727 -0.11472773 -0.12633 0.0064134835
0003d0 b1 ca d3 bc 6b 4e 02 3d 01 d5 58 bc 5d 6e 6e bb
       -0.025853487 0.031813066 -0.013234378 -0.00363817
0003e0 74 c9 d7 3c 48 49 1e 3d 6d d8 5d bd ab d6 48 bd
       0.026341178 0.038644105 -0.054161478 -0.04903285
0003f0 bb 4d 2c be 6f a7 44 bd 58 d7 4b be 7e 2f fd bd
       -0.16826527 -0.04801124 -0.19906366 -0.12362574

body.2.conv.bias f4 [49]
000000 8b 5b 39 3e 73 ce a0 bd ff 92 d2 be e7 27 62 be
       0.18101327 -0.07851877 -0.41127774 -0.22085534
000010 b4 81 de bf e5 da 97 bd 6e 06 51 bf 77 fe 08 c0
       -1.7383332 -0.07414798 -0.81650436 -2.1405313
000020 fb b2 b1 be 64 49 c6 bd a5 a9 49 bc 13 3b ed bf
       -0.34706864 -0.09681967 -0.012308513 -1.8533653
000030 f0 bb cc 3e 2c 2d de 3e d6 47 1f be 36 8b 66 3f
       0.39987135 0.43393838 -0.15554747 0.9005617
000040 03 9e c2 be b9 5e 3d bf ab 2b d1 bd 44 59 1b 3f
       -0.38011178 -0.7397266 -0.10213407 0.60683084
000050 b1 1c 76 bf 09 93 8a 3e 8a 1d 06 c0 14 a9 34 be
       -0.9613753 0.27065304 -2.095553 -0.17642623
000060 78 0f 35 3e d7 24 c5 bf 3b ed 01 3f 69 7a 0f bf
       0.17681682 -1.5401868 0.5075261 -0.5604616
000070 d0 61 8e bf 7f a3 db 3e 40 26 88 3f 3f da 83 bf
       -1.11236 0.42898175 1.0636673 -1.0300978
000080 a5 03 aa bf 46 d5 47 3e 38 bc 33 bf c1 d4 0c bf
       -1.3282362 0.19514951 -0.70209074 -0.55012137
000090 85 c4 23 be 33 9c 38 3e d8 fd e6 bc 19 e5 8b 3d
       -0.15992935 0.18028335 -0.028197214 0.06830806
0000a0 df 97 3b 3f 65 3b 98 3f c8 80 4f 3f a3 0e b1 3e
       0.7327861 1.1893126 0.8105588 0.3458148
0000b0 93 d3 14 bc 0a dc 73 bf e6 66 78 3f b9 9d c4 bf
       -0.009083646 -0.9525763 0.9703201 -1.5360633
0000c0 b8 4b 8e bf
       -1.1116858

body.2.conv.weight f4 [49, 49, 3, 3]
000000 1e ea 11 bc c4 3c ba 3b 92 01 ce ba 21 bb 3c ba
       -0.008905916 0.0056835134 -0.0015717021 -0.0007199515
000010 99 b5 0b 3c 9a d6 ba bb 82 b2 31 3d f0 16 37 3b
       0.008527183 -0.005701852 0.04338313 0.0027937256
000020 7c 76 2f ba d5 cd 9e bc dd ff 2a 3d 1b f2 e3 3c
       -0.0006693376 -0.019385258 0.041747916 0.027825406
000030 fb b8 4c 3d 73 1c 55 bd 82 6a 47 bc 9a 06 cd bc
       0.0499811 -0.052029084 -0.01217139 -0.025027562
000040 4a 7e 0b bc e6 19 6a 3c d4 9e 03 3d f5 55 c9 3c
       -0.008513996 0.014288401 0.032133892 0.02457712
000050 4e 70 72 3b e1 6d 51 3c 3f 28 50 3b e0 b6 b3 3c
       0.0036993208 0.012782545 0.003176227 0.021937788
000060 46 e0 72 bc 42 37 a7 3c 8a 39 82 bc 43 d1 12 3c
       -0.014823979 0.020412091 -0.015896577 0.008961025
000070 b7 56 4b bc cb e8 79 3c 0a 63 ce 3a e6 82 bb 3b
       -0.012410811 0.015253256 0.0015746069 0.0057223914
000080 fd 92 81 bc bf 40 a7 bc 70 ac 65 bb fd 24 f9 3c
       -0.01581716 -0.020416616 -0.0035045408 0.030413145
000090 74 db 3d 3d d7 4a c4 bc 1b 7a c2 bb b5 2a ce 3c
       0.046351865 -0.023961468 -0.0059349663 0.025166849
0000a0 f0 f7 8d 3b 24 d7 27 bc 87 09 a5 3d cd 05 e0 3b
       0.004332535 -0.010244165 0.08058458 0.006836629
0000b0 62 f3 86 3c 4b 7a 82 bc 53 ef 19 bd b7 29 df 39
       0.016473476 -0.015927454 -0.037581753 0.00042564954
0000c0 72 4a 85 bc a0 b4 96 3c 06 90 b8 3c fc 45 e2 3c
       -0.01627085 0.018396676 0.022529613 0.027621262
0000d0 15 03 36 3c c7 03 4e bd 9d a1 98 bc 4f 5d 7f bd
       0.011109133 -0.05029657 -0.01863175 -0.062344845
0000e0 7c b3 0b 3a 18 a7 ed 3c 1f e0 8e bb 6d 1f 46 3b
       0.00053291745 0.02901034 -0.0043602134 0.0030231134
0000f0 e6 92 21 bc 0a a8 d2 3b f0 58 1d 3c 95 9c ca 3c
       -0.0098616835 0.006428723 0.009603724 0.024732867
000100 8d 88 d9 3c 2a a5 31 3c 5e d1 bc bb a8 dd 2e bd
       0.02655437 0.010842601 -0.005762263 -0.042691857
000110 57 d5 90 bb 2a 69 27 bc 76 13 30 bc 30 83 20 3d
       -0.0044199633 -0.010217944 -0.010746827 0.03918761
000120 16 8f 58 bc 22 72 e9 3b cf 99 a4 3b e3 13 9d bc
       -0.013217708 0.0071242014 0.005023218 -0.019174522
000130 93 3f f6 bc 88 5d 7a 3d 01 af 09 3c 44 de 0a 3d
       -0.030059611 0.061124355 0.008403541 0.033903375
000140 8f d5 6a bc 93 bb 99 bc 78 95 5a 3c 11 62 d1 3c
       -0.014333143 -0.0187662 0.0133413 0.025559457
000150 10 82 ae 3c 34 5c a7 3d be 6d c8 bd 34 9c fb bb
       0.021302253 0.08171883 -0.09786557 -0.007678533
000160 1f dd 99 3d 23 ba d3 bc fd 77 a4 3c f9 a9 7b bc
       0.075128786 -0.025845593 0.020076746 -0.015360349
000170 06 6c ed 3b 73 87 9b bc d2 12 ad bc 9c b5 f4 3c
       0.0072455434 -0.018985486 -0.021127138 0.029871754
000180 75 e9 dc bc 53 25 23 3d 3c 91 cf bb 8c b5 59 bb
       -0.02696679 0.039830517 -0.006334452 -0.0033219783
000190 26 2b 24 3d 02 d8 e6 bb 75 1a b9 3c e6 06 1d bd
       0.040080212 -0.007044793 0.022595624 -0.038336657
0001a0 e2 7b 21 39 d5 c8 20 bd 01 cc 7d 3c 76 b0 c6 3c
       0.00015400306 -0.03925403 0.015490533 0.024254065
0001b0 83 da 1f bd d4 3e 95 3c 67 a1 ba 3c 2e ec 0d bc
       -0.03902675 0.018218435 0.02278204 -0.008662267
0001c0 2f c1 54 bd d4 5f c4 3c 49 da 35 bc 36 c9 b1 bb
       -0.051942047 0.023971476 -0.0110994065 -0.0054255975
0001d0 e3 a7 c9 3c cf df ee 3b 09 68 3b 3c 00 1e b2 bc
       0.024616187 0.0072898637 0.011438378 -0.02174282
0001e0 67 74 94 bc 28 d0 87 3c 43 89 66 3d fa 00 7b 3b
       -0.018121911 0.016578749 0.056283247 0.0038300143
0001f0 ca 1f a6 bc ea 33 fe 3b dd 83 59 3c e3 9f 9c bc
       -0.02027883 0.0077576535 0.013276068 -0.019119209
000200 67 e9 db 3c 1d e1 fa 3a 07 1a 10 bd 56 f1 70 bc
       0.026844693 0.0019140575 -0.03518107 -0.0147059765
000210 7e 43 38 3d 62 5b 92 3c 23 1f 06 bd 30 17 a4 bd
       0.04498624 0.01786584 -0.032744538 -0.08012235
000220 35 dd 05 3c c4 50 fc 3b ca 01 fe 3c 47 3b a2 3c
       0.008170416 0.0077000577 0.031006712 0.019803656
000230 49 0f 04 3d f8 51 ca bc 95 44 1b 3d 55 4a 4a bc
       0.03224114 -0.024697289 0.0379072 -0.012346824
000240 17 ae 95 bc 02 34 bd 3c 9a 16 9c 3c 41 2f f2 bb
       -0.01827149 0.023096088 0.019053746 -0.007390887
000250 ae e9 5f bd 1f c8 9e bb 74 a2 c2 3c 96 0c 7f bb
       -0.054666214 -0.0048456336 0.023759104 -0.0038917414
000260 c3 4f f7 3b 45 c8 9a 3c aa f8 27 bc 05 8a 3a ba
       0.00754735 0.018894324 -0.010252157 -0.00071159034
000270 8a 5e 65 bd 48 7a 2a 3d 0c 85 26 3c d8 66 fb bc
       -0.055998363 0.041620523 0.010163557 -0.030688688
000280 37 cd c7 3b 38 66 32 3c 67 a1 9f bc d0 7d 1f bd
       0.0060974616 0.010888629 -0.019486142 -0.038938344
000290 36 67 4b 3c b3 b6 3e bd f5 34 39 3d 75 12 5a 3b
       0.012414744 -0.046560954 0.04521652 0.0033275161
0002a0 6d ad 81 3d ea 77 6c bc 05 11 52 bd cb 18 00 3b
       0.063319065 -0.014432887 -0.051285762 0.0019546028
0002b0 47 f3 1d 3c ea be 66 3d 40 43 21 3c 07 62 b7 3c
       0.009640521 0.056334414 0.009842694 0.02238561
0002c0 bd 6a d4 3c 6f 72 8c bc bc 1e 9c bd 19 c9 13 3d
       0.025929803 -0.01714441 -0.076230496 0.036080454
0002d0 4f 5c 7b 3b 8f 0f ff 3c ef 98 ed b9 36 af 1d bd
       0.003835458 0.031135349 -0.00045318107 -0.038497172
0002e0 dc 5b b1 bc b0 ae c5 bc 66 13 ed bc 49 0d c2 3c
       -0.021650247 -0.024131149 -0.028939914 0.023687975
0002f0 67 73 43 3c e3 2d 1f 3c c9 17 73 bb 6b 63 82 3c
       0.0119293695 0.00971553 -0.0037093034 0.015916547
000300 f8 c5 de 3b 37 fb 20 3c 09 d2 e7 bc 9d ff e8 bc
       0.006798502 0.009825519 -0.028298395 -0.028442198
000310 9f 85 fb bb 22 ef a0 3c d9 e5 26 bc bc 82 8a 3c
       -0.007675841 0.019645277 -0.010186636 0.016908042
000320 58 dc dc bc 16 ac c1 3c ed 05 98 3c c6 74 67 3c
       -0.026960537 0.023641627 0.018557513 0.014126962
000330 97 20 87 bc 7a 4f ae 39 b4 cb 20 bd 7c 7e 2e 3c
       -0.016495032 0.0003324708 -0.039256766 0.010650273
000340 ca 4e d1 bb 82 e5 1b bc 29 e4 6c 3c 1d b2 01 3c
       -0.006387566 -0.009515168 0.0144586945 0.007916001
000350 2f 24 3d 3c c2 09 af bc da 41 94 3c 7e f3 4b 3b
       0.011544271 -0.021366958 0.018097807 0.0031120474
000360 cb 6c 60 bc 6f 4c 9c bc bd 6d d8 bb 4c ca 97 bb
       -0.013697813 -0.019079415 -0.0066048787 -0.00463227
000370 d7 11 8f 3c 87 44 4a bc 14 b3 6e bd 6a e3 e2 3b
       0.017464561 -0.01234544 -0.05827625 0.0069240825
000380 14 d3 6d 3c 8f d8 43 ba c6 41 53 3c fb 73 97 3c
       0.014515657 -0.00074709294 0.0128941 0.018487921
000390 ce 48 29 3d 2d a1 eb bb 24 2b 23 bd 1c 74 bc bb
       0.041329198 -0.0071908445 -0.039836064 -0.005751146
0003a0 8d 1a 30 bd 32 02 c4 3c 63 1e 74 bd 0a 13 8d bd
       -0.04299407 0.023926828 -0.05959929 -0.06888397
0003b0 19 d2 8a bd 65 e7 12 3d 13 bd fd 3c db 3b 78 3d
       -0.06778354 0.035865206 0.030973947 0.060603958
0003c0 53 40 3a bd 5d f7 95 3c 32 83 0b bc 72 85 49 3c
       -0.0454715 0.018306429 -0.008515166 0.012299882
0003d0 90 6d a4 3c ce 0c 1b bc 3f c4 93 bb 96 4a 16 bd
       0.020071775 -0.009463502 -0.0045094783 -0.036692224
0003e0 c1 04 77 3c ea b1 7e bc d5 63 d6 bc 94 d6 bb bc
       0.015076817 -0.015545348 -0.02617065 -0.022929467
0003f0 02 13 db 3b 29 57 ec bc 29 a4 b0 3b a8 58 48 bc
       0.0066856155 -0.028850155 0.005390663 -0.012228169

body.3.conv.bias f4 [49]
000000 2e 62 b7 3e 13 08 ad 3f 5d a7 8f 3f 30 fa 22 3e
       0.35817093 1.3518089 1.122295 0.15915751
000010 80 ef ab be 0e 18 14 bf 6a cf ba 3f e1 41 60 3e
       -0.33581161 -0.57849205 1.4594548 0.21900131
000020 01 e0 58 bf 4a 29 64 bf 42 2f 3d 3e 49 5f 8b bf
       -0.847168 -0.891255 0.18475059 -1.0888454
000030 00 fa 8d be 46 75 a8 bf 71 5c d2 3e 2c 71 e9 3d
       -0.27729797 -1.3160789 0.41086152 0.11398539
000040 4e 15 e7 bf cf 97 74 be 9b 39 51 bf 36 fd 28 be
       -1.8053377 -0.23886035 -0.81728524 -0.16502842
000050 3d a3 ad 3e 28 f6 25 bf c9 46 99 bf e3 e1 7e 3e
       0.33913603 -0.6482873 -1.1974727 0.24890856
000060 01 43 0a 3f b1 e9 a5 bf 8d 59 08 3f 36 fe ab 3e
       0.5400849 -1.2961942 0.53261644 0.33592385
000070 45 f1 e0 bf a2 d2 75 bf 96 50 40 c0 c8 28 c9 3f
       -1.757363 -0.96024525 -3.0049186 1.571557
000080 b6 63 af bd db 34 23 3f 51 33 f6 3c 57 59 55 bf
       -0.0856394 0.63752526 0.030053766 -0.83339447
000090 56 f6 26 3f f4 e3 cd be 35 07 fd be 80 97 d2 3e
       0.6521963 -0.40212977 -0.4941956 0.4113121
0000a0 35 3e ad bf 17 43 6f 3e 3d 4b c2 3e c9 c0 a7 bf
       -1.3534609 0.23365436 0.37948027 -1.3105708
0000b0 4f 67 31 3f a8 3c 1e 3f 38 21 78 bf 72 3d b5 bd
       0.6929826 0.61811304 -0.9692569 -0.088496104
0000c0 c7 52 ca bf
       -1.5806512

body.3.conv.weight f4 [49, 49, 3, 3]
000000 8e 7f 1b 3d 36 ab a9 3d db d8 1b 3e 46 eb 8c bc
       0.037963443 0.08284609 0.15219443 -0.01720203
000010 3e a7 b5 3b c7 a2 3e 3c c5 7e bc bd 89 39 d2 bd
       0.0055436185 0.011635489 -0.09203867 -0.1026488
000020 17 19 f4 bd 9b b6 08 be 4d 17 be bd 34 5f 0f be
       -0.11918848 -0.13350908 -0.09281788 -0.14001161
000030 74 c1 51 bc 9d 79 b4 3d 9e e6 20 be ca 3c ee bc
       -0.0128024705 0.088122584 -0.15712973 -0.02908172
000040 a5 57 38 bc 2e 79 c6 bd 6c 6f 2b bd 70 7f 4e bd
       -0.011251365 -0.09691082 -0.041854307 -0.050414503
000050 2a 5a b6 bd 39 f1 f6 bc 04 d9 2c be ea 8d d4 bd
       -0.08903916 -0.03014432 -0.1687966 -0.103786305
000060 d5 fd 1c 3e f3 9c 1d 3d 97 2e 70 bd 22 9b 07 bc
       0.15331204 0.038479757 -0.05863818 -0.008276733
000070 0e 8a ca 3c 4c 64 b5 3d 74 97 ac bd 65 27 93 3c
       0.024724033 0.08857021 -0.08427325 0.01796312
000080 41 f2 89 3c a4 50 ce bc e0 e2 5c 3d e6 4f f9 3c
       0.016839148 -0.025184937 0.053927302 0.030433606
000090 3b 07 bb 3c d7 83 5b 3c 51 27 f2 bb 26 2e 16 3b
       0.022830596 0.013398132 -0.007389941 0.002291569
0000a0 bf d7 d6 bd aa 43 b3 bd c4 5d d4 bc ff ba ea ba
       -0.10490369 -0.0875314 -0.025923617 -0.0017908512
0000b0 98 a6 b3 39 77 4b 0e bd 78 b0 8b bc 3f 40 00 be
       0.00034265663 -0.034739938 -0.01705192 -0.12524508
0000c0 fa aa 6b 3d 40 98 f8 3d bb 4a 8c 3d b5 f1 ac bd
       0.057536103 0.121384144 0.06850191 -0.084445395
0000d0 b7 93 67 bd 6d b9 4a bd 4a 44 4e 3d ef b8 9b bd
       -0.056537356 -0.049493242 0.050358094 -0.07603633
0000e0 f1 8b 96 bc 6f 93 a6 3c a2 75 ef 3d 29 d9 1a 3e
       -0.018377276 0.020333974 0.116923586 0.15121903
0000f0 78 ce 03 3d ee a7 af bd ba a7 98 bc e8 e8 47 3c
       0.032179326 -0.08576952 -0.018634666 0.012201525
000100 2d 4b 8f 3d 7e 67 e7 3c 40 84 a3 bd c8 70 10 3e
       0.069967605 0.028247591 -0.07984209 0.14105523
000110 5e 03 db bd 3d ac f2 bc b5 88 02 3e 80 e8 20 bd
       -0.106940016 -0.029623145 0.12747462 -0.03928423
000120 94 06 20 39 53 af b4 bc ae ea 01 3d 78 e6 18 3c
       0.0001526124 -0.022056257 0.03171795 0.009332292
000130 6f ae 59 bd 59 0b d9 bb 3f f1 6b bd 1b 7b 18 ba
       -0.05314487 -0.006623667 -0.057603117 -0.0005816684
000140 d4 76 d1 bc 83 33 43 3d c5 95 c3 bc ea 2a db 3c
       -0.025569357 0.047656547 -0.023875127 0.026753861
000150 6c 0a e1 bb 83 f0 6d bd af 29 64 3d 18 04 46 bd
       -0.0068676975 -0.058090698 0.055703815 -0.048343748
000160 d1 02 ae 3d 5e 48 a4 bc da ea 99 bb 2a 2f 6b 3d
       0.08496631 -0.020054039 -0.004697186 0.057418026
000170 59 bc 9e bd 3a 3e d1 3c d6 47 c2 bb a6 81 09 3d
       -0.07750768 0.025542367 -0.0059289737 0.033570908
000180 4e 0d a6 bc e2 66 06 bd 66 f3 43 bc 2d f4 16 bc
       -0.020270016 -0.03281296 -0.011959886 -0.0092134895
000190 dc aa ad 3c 8a e6 26 3d 5a fd 68 3c 4b 79 ba bc
       0.021199636 0.040747203 0.01422056 -0.022762915
0001a0 a1 c4 bf 3c 69 61 b9 3c 90 2d 86 bd af 9d 02 3c
       0.02340919 0.022629457 -0.06551659 0.007972165
0001b0 93 99 10 bd a8 ed a8 3d ac 88 3b 3d 7f a8 04 bc
       -0.03530271 0.08248454 0.045784637 -0.008096813
0001c0 2f e2 a4 bd 09 dc c2 bc 3c f6 3e 3c 38 a1 01 3d
       -0.080509536 -0.023786562 0.011655387 0.03164789
0001d0 5a 74 0c 3d 9d f5 92 3c 1c 26 60 3d bf 38 a8 3c
       0.03429065 0.017939383 0.054723844 0.020534871
0001e0 12 89 d1 bb 67 9a 3e 3d 04 6f d7 3d ea 82 4e 3c
       -0.006394514 0.04653397 0.105192214 0.0126044545
0001f0 9c 06 b1 bc 73 7e cd 3c 78 6a 2b bd 89 ff d9 bd
       -0.021609597 0.02508471 -0.041849583 -0.106444426
000200 99 60 84 bd 27 bb 6b 3c ca 8e 1c bd 82 9c 26 bd
       -0.06463737 0.014387882 -0.03822211 -0.0406766
000210 fe 71 71 3c 60 e7 86 bd bd c3 c1 3c 11 18 30 3c
       0.0147366505 -0.065871 0.023652906 0.010747925
000220 39 ea df bb ad ee 3b bc e8 e9 dd bc 10 fc 92 bc
       -0.0068333414 -0.011470479 -0.027089074 -0.017942458
000230 45 fb 72 3d 0d 47 28 3c 28 67 81 3c 5f 8d ce 3c
       0.05932166 0.010270846 0.015796259 0.025213895
000240 39 f2 50 bc 2b 73 0e bd f2 4a d7 3b 8c 3d e4 3d
       -0.012753063 -0.0347778 0.0065702135 0.11144552
000250 aa dd ff bc de 77 23 3d c2 26 54 bd 0c b0 b2 bc
       -0.031233627 0.039909236 -0.051794775 -0.021812461
000260 92 44 0e bd 2a 3a 49 3d 6e b6 b7 3d 4f e4 57 3d
       -0.034733362 0.049127735 0.089703426 0.052707966
000270 18 6e 8c 3c 44 70 a5 3c 62 78 f1 bc 89 45 81 3c
       0.01714234 0.020195134 -0.029476348 0.015780227
000280 93 b9 8a 3d 50 66 0f 3b f4 a0 64 bd a8 0b 73 bc
       0.06773677 0.0021881051 -0.05581756 -0.014834322
000290 c5 03 35 bd 9d d9 85 bd 97 9e 4a bc 0a b1 71 3c
       -0.044193048 -0.06535647 -0.012366912 0.014751682
0002a0 62 46 8c bd 7a 3f 5d 3d 26 4b 3d bb ea 68 0a 3d
       -0.06849362 0.054015614 -0.0028883903 0.03379146
0002b0 7b 18 72 3d 53 46 ac 3d 67 86 2d 3d 2c 3a 46 be
       0.059105378 0.08411851 0.042364504 -0.19358128
0002c0 57 68 17 3e 0d 95 76 3d e1 fe 25 be fb 59 33 bd
       0.14785896 0.06020074 -0.1621051 -0.043786984
0002d0 dd 78 7d 3b 2a cd da bc 9a 33 bb bb 1f 53 e2 3d
       0.0038676776 -0.026709158 -0.0057129385 0.1105101
0002e0 88 f2 ae 3d 5e ac a0 bd 03 1f 7b 3d c2 b3 80 bd
       0.08542353 -0.078453764 0.061308872 -0.06284286
0002f0 cc c6 e2 bc f9 d7 81 bd 4e 5a 53 3d b0 3c 81 3c
       -0.027682684 -0.06340022 0.051599793 0.015776008
000300 42 1d ce bd 72 36 17 3e 57 2f ae bc fc 5a 43 bc
       -0.10064174 0.14766863 -0.021262808 -0.011923548
000310 b1 85 8d bd 11 6d d0 3c 8a 67 57 3c 59 ea 4e 3c
       -0.06910265 0.025442632 0.013147244 0.012629115
000320 8d ef 50 3d 6b 76 6c 3d df 2f e0 bd ee 97 fd 3c
       0.051009703 0.05773012 -0.10946631 0.030956235
000330 4c 1a 59 3d 63 8d c4 bc 54 ee 81 3c e3 da e4 bc
       0.053003594 -0.0239932 0.015860714 -0.027936405
000340 e1 46 59 bc a3 62 a1 bd 3f d1 ca bc 55 2b 0a bd
       -0.013261528 -0.078801416 -0.02475798 -0.03373273
000350 b1 45 2b be e7 60 11 bb af 08 c4 bd 41 2c ee bd
       -0.16725804 -0.0022183002 -0.09571969 -0.116295345
000360 59 ef 38 bd 05 c4 c9 bc 40 cc 11 3d e2 d6 d0 3a
       -0.045150135 -0.024629602 0.03559518 0.0015933181
000370 52 84 a0 3c 38 70 01 3d 3e 4b 33 3c 9f 72 da bc
       0.019594345 0.03160116 0.010943232 -0.026665984
000380 d5 12 7c 3b 1d c2 1d 3d 8a 1a 17 3d 33 a4 ce 3c
       0.0038463373 0.0385152 0.036890544 0.02522478
000390 ef 64 8e 3d 53 8b cb 3d a8 bc a8 bc ef 4d cb bc
       0.06952845 0.09938683 -0.02059777 -0.024817435
0003a0 f6 18 bf 3c a8 39 de bb d9 16 0d be 75 f1 3b bc
       0.023327332 -0.0067817755 -0.13778247 -0.011471142
0003b0 49 93 ca 3c 20 eb ea bd d2 78 44 be 21 83 d5 bc
       0.024728434 -0.11470628 -0.19186714 -0.026063504
0003c0 58 ee f4 3d 4c ff 43 3b ac 29 86 bc e7 a4 e1 3d
       0.11959523 0.0029906807 -0.016377293 0.11017781
0003d0 60 bc ef 3d c2 a7 09 3e e3 ca 9b bc 92 08 18 3d
       0.117058516 0.13442901 -0.019017642 0.03711755
0003e0 43 f9 4e 3d ff 63 19 3c 9d 7b 3b 3c 6e 1a 2b 3c
       0.050530683 0.00936222 0.011443046 0.010443313
0003f0 9b b5 28 3c 22 79 fb 3b 86 ec 3f bd 8a 49 67 3c
       0.010297204 0.0076743523 -0.046856426 0.014116654

body.4.conv.bias f4 [49]
000000 6f 75 73 bf 97 f6 75 3d 19 44 bb bd 34 30 40 3e
       -0.95101064 0.06004962 -0.09143848 0.18768388
000010 7a 8d 0f 3f c7 9e 29 bf 74 93 61 bd 2c a5 e5 bf
       0.5607525 -0.662579 -0.055072263 -1.7941031
000020 b7 a8 8e bd 50 d0 9e 3e fe f5 4f 3e a4 6c f0 be
       -0.069657736 0.31018305 0.20308682 -0.46957886
000030 f7 33 df bf de 49 80 bf 32 4a 94 be 39 00 29 3d
       -1.7437733 -1.0022542 -0.28962857 0.041259978
000040 d7 76 ff 3e 6a 31 84 3f 3c 19 c6 be 5a 63 a6 3d
       0.49895355 1.032758 -0.38691127 0.081244186
000050 02 c6 90 3e 59 8c 49 bf ca 67 f6 3e 07 b1 88 3e
       0.28276068 -0.7872978 0.4812606 0.2669756
000060 9b 09 da 3d f4 0f 49 bf 4c c4 81 be 60 87 b5 be
       0.10646363 -0.7853997 -0.25345075 -0.35454845
000070 c3 23 80 3e 80 ea 07 bd be 6f d2 bf 5f a4 6f 3f
       0.25027284 -0.03318262 -1.6440351 0.93610185
000080 3f aa 05 bf f8 bc 91 3e fe 51 39 bd c2 5c ce bf
       -0.522129 0.28464484 -0.04524421 -1.6122057
000090 46 60 c1 bf 40 3f 81 bd 99 94 52 3e 54 d4 fa bf
       -1.5107505 -0.06310892 0.20564498 -1.9596047
0000a0 4f 8e da 3c b2 31 a6 3e 69 64 2c 3f af 39 3d bf
       0.026679186 0.3245979 0.67340714 -0.73916143
0000b0 02 e8 8d 3e 71 79 39 be 3a e6 c4 be 12 a9 ea be
       0.2771607 -0.18112732 -0.384569 -0.45832115
0000c0 55 96 12 3f
       0.5726064
